Abalone class 9-10_all_kernel.csv.npy (npy, 10080 bytes, 1 tensors)

array f8 [5, 5, 50]
0	0xbf51acf4c3c85327	-0.0010788336068163291
1	0xbf51acf4c3b35ee0	-0.001078833606518552
2	0xbf51acf4c37e7e39	-0.0010788336057671168
3	0xbf51acf4c2fa3c2c	-0.0010788336038876174
4	0xbf51acf4c19e4a9b	-0.0010788335989430412
5	0xbf51acf4be2e85b9	-0.0010788335864407707
6	0xbf51acf4b5733a35	-0.0010788335546753184
7	0xbf51acf49ecb4bc4	-0.0010788334722533358
8	0xbf51acf4653b925d	-0.0010788332628460997
9	0xbf51acf3d35e63b1	-0.001078832732195983
10	0xbf51acf260395e7c	-0.0010788313819797548
11	0xbf51acee9981fc89	-0.0010788278650862035
12	0xbf51ace4cfd0d490	-0.0010788187494317515
13	0xbf51accceff801d6	-0.001078796514662019
14	0xbf51ac9024f3874c	-0.0010787398967341986
15	0xbf51ac0528467bdb	-0.0010786104549891293
16	0xbf51aaf221b63fb4	-0.001078354317403535
17	0xbf51aa721ca24f80	-0.00107823508964075
18	0xbf51b83ad0d82663	-0.0010815214512852826
19	0xbf5237a95461762c	-0.0011119035348409285
20	0xbf55d4292e9bdbb1	-0.0013323213738069934
21	0xbf66f6a208068cd6	-0.0028031506228259713
22	0xbf876f9a28e545f6	-0.011443333027872687
23	0xbfaccacabec0e04b	-0.05623467997105588
24	0xbfcc45a29cdc34e2	-0.22087509783924647
25	0xbfdf6ff51cc8d123	-0.49120834170322974
26	0xbfe1e94d60225b0c	-0.5597292783375862
27	0xbfe1bdf756693638	-0.5544392287935755
28	0xbfe0fefa016ed0f5	-0.5311250713334902
29	0xbfdde03da244adc7	-0.46681156965743437
30	0xbfd7c0d8899e9acc	-0.3711453765812791
31	0xbfcffa9a80c10711	-0.24983531271760076
32	0xbfb9c2438cb8a466	-0.10062048135354615
33	0xbf8f706bc5ab0c00	-0.01535114476189925
34	0xbf52ed84e5fc5d76	-0.00115526178701039
35	0xbeefd9231b1a522e	-1.5186401330504863e-05
36	0xbe223420df0440cd	-2.1191810460384054e-09
37	0xbcb12482eedc72eb	-2.3790168279540003e-16
38	0xb7275132417dc85f	-5.227891015627911e-43
39	0xadb7071c9b1a4660	-1.8087284080170867e-88
40	0x8974a78ae7fdc83e	-4.099564395054633e-263
41	0x8000000000000000	-0.0
42	0x8000000000000000	-0.0
43	0x8000000000000000	-0.0
44	0x8000000000000000	-0.0
45	0x8000000000000000	-0.0
46	0x8000000000000000	-0.0
47	0x8000000000000000	-0.0
48	0x8000000000000000	-0.0
49	0x8000000000000000	-0.0
50	0xbf51acf4c3c86be3	-0.0010788336068177022
51	0xbf51acf4c3b39c00	-0.001078833606521945
52	0xbf51acf4c37e2d8f	-0.001078833605762639
53	0xbf51acf4c2f87567	-0.0010788336038623726
54	0xbf51acf4c19d1a3e	-0.0010788335989261456
55	0xbf51acf4be215771	-0.0010788335862534605
56	0xbf51acf4b577d72f	-0.0010788335547408758
57	0xbf51acf49f13a768	-0.0010788334732816044
58	0xbf51acf464b2978c	-0.0010788332608995003
59	0xbf51acf3d2406296	-0.0010788327281316171
60	0xbf51acf2562b6ae1	-0.0010788313454017028
61	0xbf51acee99165f9f	-0.0010788278635569316
62	0xbf51ace4eeb2fc18	-0.0010788188617849633
63	0xbf51acccdc571c99	-0.0010787964432539597
64	0xbf51ac91156e7d74	-0.001078740771596501
65	0xbf51ac01c5889a09	-0.0010786073018010953
66	0xbf51aaf6a2e2e509	-0.001078358512627555
67	0xbf51aa7812e11fbe	-0.0010782406420890424
68	0xbf51b7bb4c0ed18e	-0.001081402690244013
69	0xbf523b2f7cdd497c	-0.0011127437350820493
70	0xbf55d8c581fd6783	-0.0013334206377834952
71	0xbf66e661347cb9b9	-0.0027954004798609014
72	0xbf87efe670ed03cb	-0.011688041993353956
73	0xbfac5244db0dba7e	-0.055315162410683336
74	0xbfcc40e0dfe8d753	-0.22072993214686196
75	0xbfdf878521853df1	-0.4926464869831469
76	0xbfe1c8d1339df145	-0.5557638176101497
77	0xbfe1d1ed839c88c9	-0.5568759508644457
78	0xbfe1097dba85916e	-0.5324085848811089
79	0xbfddc1fa79eaa7ed	-0.46496450334473033
80	0xbfd7b9457b957ade	-0.3706830698846896
81	0xbfcf2c0da4f4397b	-0.24353189997095712
82	0xbfb844c9e10a85fc	-0.09479963058631563
83	0xbf8ec0b2cfc9aa4e	-0.015015980688265842
84	0xbf50f5b00afdcc1a	-0.0010351390046394794
85	0xbee8e9dbb89a3677	-1.187968679807891e-05
86	0xbe21ce9cb70b9dd2	-2.0730168071398998e-09
87	0xbb4d294d0a04cb67	-4.824337655922738e-23
88	0xb7275132418081f0	-5.2278910157701554e-43
89	0xadb7071c9b1a7165	-1.8087284080201598e-88
90	0x8974a78ae7f8f863	-4.099564394832259e-263
91	0x8000000000000000	-0.0
92	0x8000000000000000	-0.0
93	0x8000000000000000	-0.0
94	0x8000000000000000	-0.0
95	0x8000000000000000	-0.0
96	0x8000000000000000	-0.0
97	0x8000000000000000	-0.0
98	0x8000000000000000	-0.0
99	0x8000000000000000	-0.0
100	0xbf51acf4c3c8545a	-0.0010788336068163957
101	0xbf51acf4c3b3d802	-0.0010788336065252761
102	0xbf51acf4c37f73a3	-0.00107883360578074
103	0xbf51acf4c2f73192	-0.0010788336038443963
104	0xbf51acf4c1991f5e	-0.0010788335988695867
105	0xbf51acf4be3f6180	-0.0010788335866803445
106	0xbf51acf4b55b08d8	-0.0010788335543315177
107	0xbf51acf49ed77378	-0.00107883347242607
108	0xbf51acf466000a89	-0.001078833265638098
109	0xbf51acf3cfacbf2b	-0.0010788327187575923
110	0xbf51acf25977fe49	-0.001078831357403847
111	0xbf51acee99ee0d79	-0.001078827866621916
112	0xbf51ace4f720047a	-0.0010788188924382423
113	0xbf51accca0c09f25	-0.0010787962264746178
114	0xbf51ac915722280e	-0.0010787410106183368
115	0xbf51ac03c7739411	-0.0010786091714234428
116	0xbf51aaf2ed978d50	-0.0010783550591149833
117	0xbf51aa7c6ffc27a9	-0.0010782447060955025
118	0xbf51b7410dd24b75	-0.0010812888424751286
119	0xbf523bb660242487	-0.0011128693591351561
120	0xbf55dcbf7dee0f10	-0.0013343687093944658
121	0xbf66b98bc6ff3743	-0.0027740221048366
122	0xbf87299694f74bae	-0.011309791966516016
123	0xbfacbeb849813b58	-0.05614257714534315
124	0xbfcc34e48be87391	-0.2203641589302632
125	0xbfdf7b2de90d18ad	-0.49189327010061384
126	0xbfe1f8074ed3aa54	-0.5615269221864971
127	0xbfe1e50f98917278	-0.559211538300203
128	0xbfe0fd198a26dfef	-0.5308959673193366
129	0xbfddcf03a22b6b94	-0.46576014363170626
130	0xbfd7a5469298c4a9	-0.3694626266106505
131	0xbfce479e3c8342df	-0.23656061129306402
132	0xbfba2cc13e919e28	-0.10224540498313017
133	0xbf9357393ea9fbbf	-0.018887419175822148
134	0xbf4daea13da637cc	-0.0009058272656134957
135	0xbeed30f27410c602	-1.3919448635576866e-05
136	0xbe226abaaf5cd964	-2.1440106312740356e-09
137	0xbcb1248312e764c8	-2.3790171260926657e-16
138	0xb7275132418315fe	-5.227891015904751e-43
139	0xaa518563693d97b7	-7.639441341185178e-105
140	0x8000000000000000	-0.0
141	0x8000000000000000	-0.0
142	0x8000000000000000	-0.0
143	0x8000000000000000	-0.0
144	0x8000000000000000	-0.0
145	0x8000000000000000	-0.0
146	0x8000000000000000	-0.0
147	0x8000000000000000	-0.0
148	0x8000000000000000	-0.0
149	0x8000000000000000	-0.0
150	0xbf51acf4c3c84dc4	-0.0010788336068160301
151	0xbf51acf4c3b39ee9	-0.0010788336065221066
152	0xbf51acf4c37eb4d7	-0.0010788336057701486
153	0xbf51acf4c2f69baf	-0.001078833603836076
154	0xbf51acf4c1a61044	-0.0010788335990534895
155	0xbf51acf4be2ceda6	-0.001078833586418118
156	0xbf51acf4b5377968	-0.0010788335538261754
157	0xbf51acf49e9efeca	-0.0010788334716237851
158	0xbf51acf464fd6fdf	-0.001078833261963112
159	0xbf51acf3ceccfedb	-0.0010788327155778963
160	0xbf51acf258639794	-0.0010788313534759496
161	0xbf51acee8d2e93ab	-0.0010788278202451356
162	0xbf51ace4f4a04a9c	-0.0010788188833471884
163	0xbf51accc7c0436aa	-0.0010787960928299403
164	0xbf51ac90bebc041f	-0.0010787404561940562
165	0xbf51ac0738e1174e	-0.0010786123780390402
166	0xbf51aaf860132550	-0.0010783601322138132
167	0xbf51aa7d276ff91a	-0.0010782453734914988
168	0xbf51b882dd56c9eb	-0.001081588551966046
169	0xbf5237ec7df593ce	-0.0011119660847154103
170	0xbf55f0017169f3ea	-0.0013389600841542345
171	0xbf6683576f382560	-0.002748175402079653
172	0xbf87c942b7d76270	-0.011614342914002068
173	0xbfac6d4666efbed2	-0.0555212021498598
174	0xbfcc677c12d9583c	-0.2219081012760301
175	0xbfdf83f67f7ebcd2	-0.4924293751782446
176	0xbfe1e3186a2b2151	-0.5589716027834958
177	0xbfe1c9d162cfb8e4	-0.5558859758291672
178	0xbfe0ec24595fca12	-0.5288259263600728
179	0xbfdd7114781714cf	-0.4600268528705102
180	0xbfd7789da4c119ae	-0.366736803906316
181	0xbfcf8540a5d6c56e	-0.2462540445099352
182	0xbfb918e775fe43ef	-0.09803625708288143
183	0xbf967df353d061c1	-0.021964838018989633
184	0xbf5e8a1db7eee7f5	-0.0018639841289158608
185	0xbf001ddce913abaf	-3.074007430277998e-05
186	0xbe550be47d82f82f	-1.9601038875971504e-08
187	0xbc2bcb37399e781f	-7.533527680196866e-19
188	0xb87bc2192788a418	-1.3051841188148916e-36
189	0xadb7071c9b1a97b2	-1.808728408022896e-88
190	0x8000000000000000	-0.0
191	0x8000000000000000	-0.0
192	0x8000000000000000	-0.0
193	0x8000000000000000	-0.0
194	0x8000000000000000	-0.0
195	0x8000000000000000	-0.0
196	0x8000000000000000	-0.0
197	0x8000000000000000	-0.0
198	0x8000000000000000	-0.0
199	0x8000000000000000	-0.0
200	0xbf51acf4c3c83ef6	-0.0010788336068152083
201	0xbf51acf4c3b34818	-0.0010788336065172873
202	0xbf51acf4c37e7fee	-0.0010788336057672115
203	0xbf51acf4c2fa52a3	-0.0010788336038888644
204	0xbf51acf4c19fbf1c	-0.0010788335989637193
205	0xbf51acf4be340799	-0.0010788335865190345
206	0xbf51acf4b5493ee9	-0.0010788335540787236
207	0xbf51acf49ecace26	-0.0010788334722463626
208	0xbf51acf464ba4701	-0.0010788332610087161
209	0xbf51acf3d16ae75b	-0.0010788327250978644
210	0xbf51acf25668172a	-0.0010788313462639179
211	0xbf51acee93cb5347	-0.0010788278443005382
212	0xbf51ace50f2b0833	-0.0010788189799062597
213	0xbf51accc9125b632	-0.0010787961697035328
214	0xbf51ac9194c40457	-0.0010787412348352199
215	0xbf51ac036b6b3f7a	-0.00107860883661101
216	0xbf51aaf912ea0050	-0.0010783607828273208
217	0xbf51aa70a96e3847	-0.001078233739210359
218	0xbf51b78596f8939f	-0.0010813526713573174
219	0xbf523b12a27db538	-0.0011127168636123185
220	0xbf55de04fb43c238	-0.0013346718451964345
221	0xbf66f62c4c7b93f6	-0.002802931328789611
222	0xbf87a10481733e55	-0.011537585449700996
223	0xbfac7e60cdb84ff9	-0.055651688682843266
224	0xbfcc4c2f3c457606	-0.221074966840135
225	0xbfdfbce9425c0d8a	-0.49590522270610704
226	0xbfe1cf7f12642e2a	-0.5565791472631123
227	0xbfe1cb1c7d022c96	-0.5560438577243925
228	0xbfe0e8e1dc5c448d	-0.528428011313865
229	0xbfddf6abb0362842	-0.46818058212432245
230	0xbfd807656869f5f5	-0.37545142361327005
231	0xbfcfb00a11bb2106	-0.24755979409952306
232	0xbfb9513d1d8acb49	-0.09889585467571495
233	0xbf92996554efbd21	-0.01816328364287501
234	0xbf470e1d3ff25b79	-0.0007035868474244276
235	0xbf03a8b7d7dfe4c6	-3.749667210679315e-05
236	0xbdc3c0c9beee8ded	-3.59306402916024e-11
237	0xbb4d3847d8786b27	-4.83401806836722e-23
238	0xb72751324181c431	-5.227891015835868e-43
239	0xadb7071c9b1acbcc	-1.808728408026618e-88
240	0x8974a78ae7fd0e7f	-4.099564395021102e-263
241	0x8000000000000000	-0.0
242	0x8000000000000000	-0.0
243	0x8000000000000000	-0.0
244	0x8000000000000000	-0.0
245	0x8000000000000000	-0.0
246	0x8000000000000000	-0.0
247	0x8000000000000000	-0.0
248	0x8000000000000000	-0.0
249	0x8000000000000000	-0.0
250	0xbf51acf4c3c851b4	-0.0010788336068162487
251	0xbf51acf4c3b30be4	-0.0010788336065139454
252	0xbf51acf4c3801764	-0.0010788336057898302
253	0xbf51acf4c2f74766	-0.001078833603845608
254	0xbf51acf4c19eb383	-0.0010788335989488646
255	0xbf51acf4be37c7aa	-0.0010788335865723289
