Balance-scale middle_all_kernel.csv.npy (npy, 400080 bytes, 1 tensors)

array f8 [20, 5, 5, 100]
0	0xbf5811bee25d02ef	-0.0014690746406388862
1	0xbf5811bee21eb449	-0.0014690746397534474
2	0xbf5811bee191d8c2	-0.0014690746377517415
3	0xbf5811bee038ab8d	-0.0014690746328464871
4	0xbf5811bedf35115e	-0.0014690746291573169
5	0xbf5811bedbedfdcd	-0.0014690746172333236
6	0xbf5811bed862f4e6	-0.0014690746043435842
7	0xbf5811bed39e96dd	-0.0014690745870011214
8	0xbf5811bec8a695cf	-0.0014690745470969829
9	0xbf5811beb8ca3b54	-0.00146907448939589
10	0xbf5811bea67a266c	-0.0014690744227742426
11	0xbf5811be75663712	-0.0014690742442299881
12	0xbf5811be343f7672	-0.0014690740072106604
13	0xbf5811bdc73ee256	-0.0014690736106627487
14	0xbf5811bd22707204	-0.0014690730111005532
15	0xbf5811bc2111fc48	-0.0014690720747976439
16	0xbf5811baa3774f2b	-0.001469070686529637
17	0xbf5811b81fee4f9e	-0.001469068345362402
18	0xbf5811b402fe8511	-0.0014690645148010587
19	0xbf5811ac1bf022ae	-0.0014690571549655185
20	0xbf5811a42ca15491	-0.001469049765110673
21	0xbf581193e82d9921	-0.001469034614922267
22	0xbf5811724cf9675d	-0.0014690033166488627
23	0xbf581150a60b51a9	-0.0014689719757160302
24	0xbf58110699568a63	-0.0014689030116207473
25	0xbf5810aba1f8936d	-0.001468818292672948
26	0xbf581025e58866d6	-0.0014686937412364174
27	0xbf580ed110330a5a	-0.0014683763154585056
28	0xbf580d362f2bbe0d	-0.0014679936545539702
29	0xbf580a58d4944b6d	-0.0014673106655364824
30	0xbf58077066792805	-0.0014666173609776411
31	0xbf580145fcdded99	-0.0014651473497611976
32	0xbf57f5440330e71a	-0.0014622844871738428
33	0xbf57eac4366832d2	-0.0014597812784159958
34	0xbf57d2dc260e0f47	-0.0014540815247707382
35	0xbf57c4e775f5298a	-0.0014507541998961281
36	0xbf57b643b72b8138	-0.0014472638401273451
37	0xbf57c261ee389327	-0.0014501530030283734
38	0xbf585ed754f14088	-0.0014874556398077072
39	0xbf5a70708d2aa5b8	-0.0016137217650487989
40	0xbf5f94bf228c53d8	-0.0019275538017542362
41	0xbf6343f89898af60	-0.0023517470733817464
42	0xbf6f277331706a82	-0.0038029909005790627
43	0xbf78fd8da3685030	-0.006101182245874567
44	0xbf810980e5f76920	-0.008318907754916227
45	0xbf87df94c6ef847c	-0.011656915970833952
46	0xbf8b9f62258ffdc0	-0.013487593432727318
47	0xbf8b96af28709a48	-0.013471001073480995
48	0xbf877b001b40ab50	-0.011465073424991395
49	0xbf7ce43cec37290a	-0.007053602198946027
50	0xbf6852ce3a7b982d	-0.0029691722773917046
51	0xbf4028dc5eaded32	-0.0004931522392860653
52	0xbee2b78914c30fc5	-8.924930306249035e-06
53	0xbe3859e8c885a78a	-5.669707488527127e-09
54	0xbd206548394907de	-2.912449534392366e-14
55	0xbb63730018ebdaf9	-1.2870414326414624e-22
56	0xb8a07d79139009f8	-6.202897013075619e-36
57	0xb43fc0ad9875d953	-5.058488805247417e-57
58	0xad4072bec5db37ae	-1.009323328979378e-90
59	0xa21ac9db9b581b7b	-2.1453126951341988e-144
60	0x905e48bb3c5de65d	-7.802577539516461e-230
61	0x0000000000000000	0.0
62	0x0000000000000000	0.0
63	0x0000000000000000	0.0
64	0x0000000000000000	0.0
65	0x0000000000000000	0.0
66	0x0000000000000000	0.0
67	0x0000000000000000	0.0
68	0x0000000000000000	0.0
69	0x0000000000000000	0.0
70	0x0000000000000000	0.0
71	0x0000000000000000	0.0
72	0x0000000000000000	0.0
73	0x0000000000000000	0.0
74	0x0000000000000000	0.0
75	0x0000000000000000	0.0
76	0x0000000000000000	0.0
77	0x0000000000000000	0.0
78	0x0000000000000000	0.0
79	0x0000000000000000	0.0
80	0x0000000000000000	0.0
81	0x0000000000000000	0.0
82	0x0000000000000000	0.0
83	0x0000000000000000	0.0
84	0x0000000000000000	0.0
85	0x0000000000000000	0.0
86	0x0000000000000000	0.0
87	0x0000000000000000	0.0
88	0x0000000000000000	0.0
89	0x0000000000000000	0.0
90	0x0000000000000000	0.0
91	0x0000000000000000	0.0
92	0x0000000000000000	0.0
93	0x0000000000000000	0.0
94	0x0000000000000000	0.0
95	0x0000000000000000	0.0
96	0x0000000000000000	0.0
97	0x0000000000000000	0.0
98	0x0000000000000000	0.0
99	0x0000000000000000	0.0
100	0xbf5811bee2649c9b	-0.0014690746407468927
101	0xbf5811bee20725e0	-0.0014690746394186924
102	0xbf5811bee18e1afc	-0.0014690746376985744
103	0xbf5811bee04c7aa1	-0.0014690746331279885
104	0xbf5811bedf3733ae	-0.0014690746291876433
105	0xbf5811bedc6977ef	-0.0014690746189880385
106	0xbf5811bed8b3d395	-0.001469074605492814
107	0xbf5811bed25c6f94	-0.0014690745824230455
108	0xbf5811bec86ca882	-0.0014690745462737913
109	0xbf5811beb955cc06	-0.001469074491379231
110	0xbf5811be9c476b3f	-0.0014690743856735214
111	0xbf5811be7be9f2b6	-0.001469074267929899
112	0xbf5811be37ceb91a	-0.0014690740201604492
113	0xbf5811bdc4b75d37	-0.001469073601460936
114	0xbf5811bd1aad16b2	-0.0014690729828585156
115	0xbf5811bc25b4aebe	-0.0014690720916616241
116	0xbf5811bab56dcd2b	-0.0014690707518781414
117	0xbf5811b8820da934	-0.0014690687023298345
118	0xbf5811b3f3fcf5a1	-0.0014690644602092034
119	0xbf5811ac37b1acd9	-0.001469057255941311
120	0xbf5811a22c342bbe	-0.0014690479009142744
121	0xbf58119349ca58a5	-0.0014690340387111614
122	0xbf58117a4995fe77	-0.0014690107549028256
123	0xbf5811586d9a1d4a	-0.0014689792209610802
124	0xbf58111bb18a20a5	-0.0014689226574394001
125	0xbf5810b4df51c30b	-0.001468826897760236
126	0xbf580ff4a78b4418	-0.0014686478809162792
127	0xbf580f266861fffa	-0.0014684557986868172
128	0xbf580d3619ca17b6	-0.0014679935767687286
129	0xbf580b34d67574d6	-0.0014675155633406176
130	0xbf58060471c63c56	-0.0014662784006736116
131	0xbf57fffcd0121ab0	-0.0014648407816665703
132	0xbf57f69260a0175a	-0.0014625958888258767
133	0xbf57e7ebb7031dd3	-0.0014591028121219054
134	0xbf57d0d69e0b7edd	-0.001453599536198106
135	0xbf57c2c9a9b4f252	-0.0014502496113230246
136	0xbf57b2a00d8a788e	-0.0014463961617035312
137	0xbf57ca77f3a2b285	-0.0014520808604558133
138	0xbf5860803d6479fb	-0.0014878513662278648
139	0xbf59fa4f6f254eea	-0.001585557529854615
140	0xbf5e86ccb3115995	-0.0018631934183495947
141	0xbf64cdd1006e1a4e	-0.0025395471633971383
142	0xbf6f9acef3db1120	-0.0038579980890479787
143	0xbf790f80ae38801c	-0.006118300112149224
144	0xbf80e5ae6b92be35	-0.008250582368730533
145	0xbf85d95f0c6b513c	-0.010668509069923553
146	0xbf8a1ee393836d06	-0.012754228533984346
147	0xbf8b709f165377da	-0.013398402088963413
148	0xbf8638a320e3d835	-0.0108502144253003
149	0xbf7e6e03e5d8b3e2	-0.007429137445382291
150	0xbf675abf83652153	-0.002850889252986524
151	0xbf400b73abbea9ce	-0.0004896464156350312
152	0xbedea52b466e4898	-7.306383031828932e-06
153	0xbe34da61fc5f985a	-4.855230833675484e-09
154	0xbd210f62f8269afe	-3.0304832247673656e-14
155	0xbb650ef333b1f770	-1.3935279154665057e-22
156	0xb89c77ec210280ee	-5.354319740862851e-36
157	0xb440763cb4cf8056	-5.245052413820211e-57
158	0xad42e6627440f706	-1.1597696365064917e-90
159	0xa216eb22aa5da16e	-1.8353894727602205e-144
160	0x9062eeee76f289af	-9.756189651127353e-230
161	0x0000000000000000	0.0
162	0x0000000000000000	0.0
163	0x0000000000000000	0.0
164	0x0000000000000000	0.0
165	0x0000000000000000	0.0
166	0x0000000000000000	0.0
167	0x0000000000000000	0.0
168	0x0000000000000000	0.0
169	0x0000000000000000	0.0
170	0x0000000000000000	0.0
171	0x0000000000000000	0.0
172	0x0000000000000000	0.0
173	0x0000000000000000	0.0
174	0x0000000000000000	0.0
175	0x0000000000000000	0.0
176	0x0000000000000000	0.0
177	0x0000000000000000	0.0
178	0x0000000000000000	0.0
179	0x0000000000000000	0.0
180	0x0000000000000000	0.0
181	0x0000000000000000	0.0
182	0x0000000000000000	0.0
183	0x0000000000000000	0.0
184	0x0000000000000000	0.0
185	0x0000000000000000	0.0
186	0x0000000000000000	0.0
187	0x0000000000000000	0.0
188	0x0000000000000000	0.0
189	0x0000000000000000	0.0
190	0x0000000000000000	0.0
191	0x0000000000000000	0.0
192	0x0000000000000000	0.0
193	0x0000000000000000	0.0
194	0x0000000000000000	0.0
195	0x0000000000000000	0.0
196	0x0000000000000000	0.0
197	0x0000000000000000	0.0
198	0x0000000000000000	0.0
199	0x0000000000000000	0.0
200	0xbf5811bee2667947	-0.0014690746407733533
201	0xbf5811bee21e3bf2	-0.0014690746397467672
202	0xbf5811bee178978a	-0.0014690746373928498
203	0xbf5811bee06d77d1	-0.0014690746335967906
204	0xbf5811bedf312770	-0.0014690746291016986
205	0xbf5811bedc7923dc	-0.001469074619210745
206	0xbf5811bed9024a32	-0.001469074606607845
207	0xbf5811bed493326e	-0.0014690745904772057
208	0xbf5811bec67bb466	-0.0014690745392116566
209	0xbf5811beb71dd0fc	-0.001469074483307741
210	0xbf5811bea2a09b27	-0.0014690744087688197
211	0xbf5811be73b1481a	-0.00146907423802079
212	0xbf5811be3e8674a0	-0.001469074044599318
213	0xbf5811bde014d1cc	-0.0014690737010144448
214	0xbf5811bd40e93a1c	-0.0014690731219563274
215	0xbf5811bc0abd9edc	-0.0014690719935632124
216	0xbf5811b9e3706ba4	-0.0014690699879398106
217	0xbf5811b7f638072c	-0.0014690681936148737
218	0xbf5811b2aff6ec84	-0.0014690632814182989
219	0xbf5811ae05ec5d6e	-0.0014690589375215518
220	0xbf5811a1b2a5a8ce	-0.0014690474586936289
221	0xbf581194f2b10548	-0.0014690355844922554
222	0xbf58117b5fd63a34	-0.0014690117671737448
223	0xbf58114ba4360140	-0.0014689673124338026
224	0xbf581107886725d9	-0.0014689038813336856
225	0xbf5810a604b013a2	-0.0014688130638671267
226	0xbf58100f310096c8	-0.0014686725953735758
227	0xbf580ee5f9839a8e	-0.0014683957907039333
228	0xbf580cdd5452da4e	-0.001467910902005837
229	0xbf580aab091f0602	-0.0014673872251339541
230	0xbf58059352294292	-0.001466173046214579
231	0xbf58001de253ef24	-0.0014648715817306502
232	0xbf57f59a02249ad6	-0.001462364577102517
233	0xbf57e87fa42c58f1	-0.0014592405793272779
234	0xbf57d3b688dc078f	-0.001454284912540935
235	0xbf57c75ceac9504a	-0.0014513404268159552
236	0xbf57b59d81731aae	-0.0014471090451465929
237	0xbf57baacb425be22	-0.0014483152923182659
238	0xbf589065394cd414	-0.0014992702974272508
239	0xbf5a6aefbe74ea63	-0.0016124097108575423
240	0xbf5efd12ae37aefd	-0.0018913919856186616
241	0xbf63bff7340d4cb5	-0.0024108722867964513
242	0xbf6f77802add4526	-0.003841162039784368
243	0xbf76adb071d6064f	-0.005536736714363124
244	0xbf818076fd4810ea	-0.008545808414972506
245	0xbf883b3a0c39d81f	-0.011831716058832651
246	0xbf8a57ec88bf19c0	-0.012863014147922125
247	0xbf8986bc714d981e	-0.012464019973503378
248	0xbf881a53adf7d39e	-0.011768964525779965
249	0xbf7d654794a50542	-0.007176665889632007
250	0xbf67656e826dd96a	-0.002855983580441525
251	0xbf3dde74be0fecc2	-0.0004557642951678703
252	0xbee49e0e28251aff	-9.8311441020355e-06
253	0xbe330f97ec332054	-4.4379643876451e-09
254	0xbd206550ae3813b7	-2.912472456520312e-14
255	0xbb616686ee012097	-1.151468259281555e-22
