Concordia (targetcl. 6)_all_kernel.csv.npy (npy, 400080 bytes, 1 tensors)

array f8 [20, 5, 5, 100]
000000 8b 4f ae fa da 61 27 bf 99 eb b6 f4 da 61 27 bf
       -0.00017839239202699047 -0.00017839238931380007
000010 50 5e af ea da 61 27 bf e2 f8 b3 da da 61 27 bf
       -0.0001783923847529117 -0.00017839237748513206
000020 9b 03 74 c2 da 61 27 bf 2f 78 bd 9a da 61 27 bf
       -0.0001783923664575832 -0.00017839234839817214
000030 4a e9 ba 5b da 61 27 bf 34 51 13 f8 d9 61 27 bf
       -0.0001783923197445448 -0.00017839227442685015
000040 4f 4d da 55 d9 61 27 bf 72 b7 e2 54 d8 61 27 bf
       -0.00017839220065649994 -0.0001783920838013781
000050 ba f2 03 c6 d6 61 27 bf 8c 3e 6e 2d d4 61 27 bf
       -0.0001783919024162162 -0.0001783916001980478
000060 a2 6c a2 45 d0 61 27 bf 7d 26 8b b4 c9 61 27 bf
       -0.00017839114554338726 -0.00017839038107174749
000070 13 ae d6 c2 bf 61 27 bf 1e c6 1e 34 af 61 27 bf
       -0.0001783892234191597 -0.00017838729587320382
000080 f2 36 c4 05 96 61 27 bf c9 c3 a3 20 6c 61 27 bf
       -0.00017838436441091444 -0.00017837948718793368
000090 38 93 a4 56 2c 61 27 bf 75 36 43 d0 c2 60 27 bf
       -0.00017837206116513306 -0.00017835977644724594
0000a0 f1 b9 00 5f 1c 60 27 bf 6a 05 a4 bc 1f 5f 27 bf
       -0.00017834039999926847 -0.00017831098950441975
0000b0 7f 5d 9a 29 78 5d 27 bf 46 eb 0a 23 e9 5a 27 bf
       -0.000178261678958274 -0.00017818542393918164
0000c0 67 24 ee aa f8 56 27 bf e0 4b 8b 7c d6 50 27 bf
       -0.00017806802267398005 -0.0001778852295247482
0000d0 7e be b1 30 1c 47 27 bf 64 15 ff 47 97 39 27 bf
       -0.00017759532088089733 -0.00017719241804862583
0000e0 c9 df 01 cc d9 26 27 bf d7 59 c1 40 aa 10 27 bf
       -0.00017663391736610763 -0.00017597273142895442
0000f0 74 6d 93 51 82 ff 26 bf 56 2c c8 a8 6f 03 27 bf
       -0.00017546144298461917 -0.00017557848003976983
000100 f2 ee 7d 28 ea 75 27 bf 90 6e be 18 ef 35 29 bf
       -0.0001789902055370145 -0.0001923422208819259
000110 0e 73 df 40 56 da 2d bf 30 31 ba 92 b2 64 34 bf
       -0.00022775938890520108 -0.00031117782302982327
000120 c7 3c 11 6e e4 47 41 bf 9a f8 c2 9e b2 f9 4b bf
       -0.0005273690586679252 -0.0008537408989679641
000130 bb 9c 7b 63 0b 55 57 bf 95 ee bd 61 ac 43 5f bf
       -0.001424084779438491 -0.0019082244316156783
000140 cb 01 07 03 8c 86 5f bf 97 88 fe ec 4c 10 58 bf
       -0.0019241683295235675 -0.0014687300899614336
000150 13 f2 dc 03 1e f5 50 bf cb b1 0e 23 e1 d7 52 bf
       -0.0010350030056108836 -0.0011501024821242041
000160 15 ae e3 eb bc 44 54 bf bb 18 51 c3 59 bb 1b be
       -0.0012370915351834811 -1.6142054474920773e-09
000170 90 a8 1f 7f a8 60 54 bf 12 f3 da b5 a9 60 54 bf
       -0.0012437482332594875 -0.0012437493636944835
000180 79 40 54 b6 a9 60 54 bf 9e 49 54 b6 a9 60 54 bf
       -0.0012437493654182937 -0.0012437493654188013
000190 e4 4a 54 b6 a9 60 54 bf bf 4f 54 b6 a9 60 54 bf
       -0.001243749365418872 -0.0012437493654191415
0001a0 cc 7e c4 fc 76 bb 05 9f 06 48 54 b6 a9 60 54 bf
       -3.0915600123161343e-159 -0.0012437493654187128
0001b0 ac 4b 54 b6 a9 60 54 bf 00 00 00 00 00 00 00 00
       -0.0012437493654189153 0.0
0001c0 00 00 00 00 00 00 00 00 aa 54 54 b6 a9 60 54 bf
       0.0 -0.0012437493654194145
0001d0 00 00 00 00 00 00 00 00 75 4f 54 b6 a9 60 54 bf
       0.0 -0.0012437493654191255
0001e0 da 4c 54 b6 a9 60 54 bf 00 00 00 00 00 00 00 00
       -0.0012437493654189808 0.0
0001f0 00 00 00 00 00 00 00 00 00 00 00 00 00 00 00 00
       0.0 0.0
000200 00 00 00 00 00 00 00 00 2a 4d 54 b6 a9 60 54 bf
       0.0 -0.0012437493654189982
000210 6e 52 54 b6 a9 60 54 bf 00 00 00 00 00 00 00 00
       -0.0012437493654192905 0.0
000220 00 00 00 00 00 00 00 00 8d 57 54 b6 a9 60 54 bf
       0.0 -0.0012437493654195747
000230 20 46 54 b6 a9 60 54 bf 8b 4e 54 b6 a9 60 54 bf
       -0.0012437493654186074 -0.0012437493654190747
000240 6e 46 54 b6 a9 60 54 bf 00 00 00 00 00 00 00 00
       -0.0012437493654186243 0.0
000250 11 57 54 b6 a9 60 54 bf 00 00 00 00 00 00 00 00
       -0.0012437493654195479 0.0
000260 f2 48 54 b6 a9 60 54 bf 00 00 00 00 00 00 00 00
       -0.001243749365418764 0.0
000270 a3 4a 54 b6 a9 60 54 bf 42 4c 54 b6 a9 60 54 bf
       -0.0012437493654188579 -0.0012437493654189479
000280 c2 40 54 b6 a9 60 54 bf f6 49 54 b6 a9 60 54 bf
       -0.0012437493654183095 -0.0012437493654188204
000290 d0 56 54 b6 a9 60 54 bf da 48 54 b6 a9 60 54 bf
       -0.0012437493654195338 -0.0012437493654187588
0002a0 d9 54 54 b6 a9 60 54 bf 6a 45 54 b6 a9 60 54 bf
       -0.0012437493654194247 -0.001243749365418568
0002b0 00 00 00 00 00 00 00 00 82 55 54 b6 a9 60 54 bf
       0.0 -0.0012437493654194613
0002c0 00 00 00 00 00 00 00 00 00 00 00 00 00 00 00 00
       0.0 0.0
0002d0 12 51 54 b6 a9 60 54 bf 00 00 00 00 00 00 00 00
       -0.001243749365419215 0.0
0002e0 66 4c 54 b6 a9 60 54 bf 22 53 54 b6 a9 60 54 bf
       -0.0012437493654189557 -0.0012437493654193295
0002f0 52 50 54 b6 a9 60 54 bf 00 00 00 00 00 00 00 00
       -0.0012437493654191734 0.0
000300 25 44 54 b6 a9 60 54 bf 00 00 00 00 00 00 00 00
       -0.0012437493654184975 0.0
000310 6d 51 54 b6 a9 60 54 bf 00 00 00 00 00 00 00 00
       -0.0012437493654192347 0.0
000320 d8 94 b2 fa da 61 27 bf 16 b0 8c f4 da 61 27 bf
       -0.00017839239203457677 -0.00017839238923878013
000330 43 cf b7 ea da 61 27 bf 09 3c 33 db da 61 27 bf
       -0.0001783923847679063 -0.00017839237771119534
000340 19 2f 0e c3 da 61 27 bf 48 b8 90 9a da 61 27 bf
       -0.00017839236673144394 -0.00017839234831868085
000350 3a 9e 1b 5d da 61 27 bf 25 fd a5 f5 d9 61 27 bf
       -0.0001783923203710779 -0.00017839227332314928
000360 cb 0d 28 56 d9 61 27 bf ca 6b 39 55 d8 61 27 bf
       -0.00017839220079461505 -0.00017839208395539617
000370 92 d0 d2 bb d6 61 27 bf 9f f1 cb 32 d4 61 27 bf
       -0.0001783918977814642 -0.00017839160263822832
000380 ea 3c ac 36 d0 61 27 bf 34 fa 8d ad c9 61 27 bf
       -0.00017839113873960945 -0.0001783903778935378
000390 80 b2 8f d0 bf 61 27 bf b8 a6 40 90 af 61 27 bf
       -0.000178389229659532 -0.00017838733777013837
0003a0 2d 5c 75 95 95 61 27 bf 09 13 91 0f 6c 61 27 bf
       -0.0001783843133391373 -0.00017837947942402784
0003b0 2e d1 0b 33 2a 61 27 bf a0 42 54 f2 c4 60 27 bf
       -0.00017837181214697947 -0.00017836002476958202
0003c0 ee e2 b6 8f 1c 60 27 bf af 80 92 17 16 5f 27 bf
       -0.00017834042215072267 -0.00017830986670209134
0003d0 96 2c 9f af 84 5d 27 bf 14 ae 64 e8 ed 5a 27 bf
       -0.00017826313688682334 -0.00017818597934514456
0003e0 5a f0 b7 f9 07 57 27 bf cd f2 13 74 a1 50 27 bf
       -0.00017806980473256373 -0.000177879055662708
0003f0 1e ac 7b b8 62 47 27 bf 8e 17 e7 31 d9 39 27 bf
       -0.00017760353170301416 -0.00017720009141280714
000400 6a d8 7c fd 0b 27 27 bf 12 d7 45 1d ee 0f 27 bf
       -0.0001766397606332599 -0.0001759508292128944
000410 fb bd a5 e0 e2 fa 26 bf 14 36 bb 1e 52 06 27 bf
       -0.00017532367230498045 -0.00017566444818444048
000420 ce fa 46 89 10 8b 27 bf 5e 90 4a 7a ce 48 29 bf
       -0.00017962052210226124 -0.00019290466766108937
000430 c0 bc 0d 9a 04 21 2e bf 6b 83 72 47 12 89 34 bf
       -0.00022986584829307564 -0.00031334587351677126
000440 71 86 a0 16 0b ed 40 bf 56 c8 6a d8 a4 de 4b bf
       -0.0005165390150560623 -0.0008505158337668388
000450 eb 85 fe 3f 9b 17 57 bf b8 ca 8d fc 43 8f 5e bf
       -0.0014094368088780572 -0.0018652118617096657
000460 ad 36 ff ba 29 40 5f bf 67 8f 24 c0 ac 55 56 bf
       -0.0019073874973289204 -0.0013631999032179488
000470 b1 26 19 32 ef fb 50 bf df 6c c2 aa 17 d6 52 bf
       -0.0010366283317061848 -0.0011496764300662971
000480 61 07 1b 20 8b 43 54 bf 1e 48 42 8d c9 5f 54 bf
       -0.0012368067404371008 -0.0012435405997490777
000490 04 f0 f6 06 b6 27 71 bd 78 38 3a ab ab 28 2e bc
       -9.751557436591085e-13 -8.174577946755965e-19
0004a0 d2 7c 28 9a 61 41 80 ba d2 43 54 b6 a9 60 54 bf
       -6.565501973126575e-27 -0.0012437493654184795
0004b0 99 50 54 b6 a9 60 54 bf e1 55 54 b6 a9 60 54 bf
       -0.0012437493654191888 -0.001243749365419482
0004c0 7d 4c 54 b6 a9 60 54 bf 36 34 44 38 d6 51 b9 8d
       -0.0012437493654189607 -1.4832748399717464e-242
0004d0 00 00 00 00 00 00 00 00 00 00 00 00 00 00 00 00
       0.0 0.0
0004e0 3b 50 54 b6 a9 60 54 bf 00 00 00 00 00 00 00 00
       -0.0012437493654191684 0.0
0004f0 00 00 00 00 00 00 00 00 85 55 54 b6 a9 60 54 bf
       0.0 -0.001243749365419462
000500 00 00 00 00 00 00 00 00 80 4e 54 b6 a9 60 54 bf
       0.0 -0.0012437493654190723
000510 5b 57 54 b6 a9 60 54 bf 07 4f 54 b6 a9 60 54 bf
       -0.001243749365419564 -0.0012437493654191016
000520 53 4a 54 b6 a9 60 54 bf f8 4e 54 b6 a9 60 54 bf
       -0.0012437493654188405 -0.0012437493654190983
000530 00 00 00 00 00 00 00 00 00 00 00 00 00 00 00 00
       0.0 0.0
000540 5a 4c 54 b6 a9 60 54 bf e6 4f 54 b6 a9 60 54 bf
       -0.001243749365418953 -0.00124374936541915
000550 5a 50 54 b6 a9 60 54 bf 00 00 00 00 00 00 00 00
       -0.0012437493654191751 0.0
000560 00 00 00 00 00 00 00 00 00 00 00 00 00 00 00 00
       0.0 0.0
000570 b2 4b 54 b6 a9 60 54 bf 91 54 54 b6 a9 60 54 bf
       -0.0012437493654189166 -0.001243749365419409
000580 02 50 54 b6 a9 60 54 bf 00 00 00 00 00 00 00 00
       -0.001243749365419156 0.0
000590 00 00 00 00 00 00 00 00 7d 47 54 b6 a9 60 54 bf
       0.0 -0.001243749365418683
0005a0 e8 53 54 b6 a9 60 54 bf 00 00 00 00 00 00 00 00
       -0.0012437493654193724 0.0
0005b0 64 50 54 b6 a9 60 54 bf 00 00 00 00 00 00 00 00
       -0.0012437493654191773 0.0
0005c0 00 00 00 00 00 00 00 00 00 00 00 00 00 00 00 00
       0.0 0.0
0005d0 00 00 00 00 00 00 00 00 00 00 00 00 00 00 00 00
       0.0 0.0
0005e0 4a 48 54 b6 a9 60 54 bf 00 00 00 00 00 00 00 00
       -0.0012437493654187276 0.0
0005f0 44 43 54 b6 a9 60 54 bf 00 00 00 00 00 00 00 00
       -0.0012437493654184487 0.0
000600 aa 52 54 b6 a9 60 54 bf a2 56 54 b6 a9 60 54 bf
       -0.0012437493654193035 -0.0012437493654195238
000610 00 00 00 00 00 00 00 00 00 00 00 00 00 00 00 00
       0.0 0.0
000620 00 00 00 00 00 00 00 00 6a 44 54 b6 a9 60 54 bf
       0.0 -0.0012437493654185124
000630 e6 4f 54 b6 a9 60 54 bf 00 00 00 00 00 00 00 00
       -0.00124374936541915 0.0
000640 1e e4 c4 fa da 61 27 bf de 0e ac f4 da 61 27 bf
       -0.00017839239206710126 -0.00017839238929450487
000650 9e 92 89 ea da 61 27 bf 6e 7e d2 da da 61 27 bf
       -0.00017839238468577307 -0.00017839237753934943
000660 eb 62 b9 c1 da 61 27 bf 2e 8f 74 9a da 61 27 bf
       -0.00017839236612606583 -0.00017839234826865766
000670 a1 18 8a 5a da 61 27 bf 52 a6 36 f6 d9 61 27 bf
       -0.00017839231920308444 -0.00017839227358011856
000680 4d 5d 86 51 d9 61 27 bf 3a c0 f3 56 d8 61 27 bf
       -0.00017839219868840753 -0.0001783920847411318
000690 ef bf 78 bc d6 61 27 bf 21 55 5e 31 d4 61 27 bf
       -0.000178391898076224 -0.0001783916019887722
0006a0 dc 2f 39 25 d0 61 27 bf 2a 21 ae 9b c9 61 27 bf
       -0.00017839113080453286 -0.00017839036976519926
0006b0 a4 c0 55 74 bf 61 27 bf 3e 11 09 ca af 61 27 bf
       -0.00017838918771984514 -0.0001783873640467479
0006c0 ea 1a 43 e1 94 61 27 bf ca 7d 07 d5 6c 61 27 bf
       -0.00017838423139534344 -0.00017837956921960683
0006d0 b1 9f 1b d2 2a 61 27 bf 7d 6f af 85 c2 60 27 bf
       -0.00017837188447988658 -0.0001783597425334369
0006e0 09 85 ff a2 1c 60 27 bf 42 7d d4 9b 1d 5f 27 bf
       -0.00017834043091994486 -0.00017831074175321022
0006f0 26 86 46 60 7b 5d 27 bf 20 b3 d3 a4 ff 5a 27 bf
       -0.00017826205306641188 -0.00017818804409532821
000700 00 ed 1c 0a 08 57 27 bf 8a 2b e8 0e e6 50 27 bf
       -0.00017806981218791013 -0.00017788704231266563
000710 72 54 cb db ae 47 27 bf 7c 4e c4 ff 05 3a 27 bf
       -0.0001776123953251305 -0.00017720530730313047
000720 59 42 a1 8e 77 27 27 bf 14 5d 4a 38 63 0f 27 bf
       -0.00017665228307574518 -0.0001759346597693742
000730 24 0c 88 be 33 fe 26 bf da d6 65 79 91 08 27 bf
       -0.00017542249339905322 -0.0001757314282248488
000740 98 81 82 1e 9d 87 27 bf 14 9c 8f 6d ba 5a 29 bf
       -0.00017951767882086185 -0.00019343877536856567
000750 45 44 c3 1e 5d 2d 2e bf aa 5e e6 01 23 0a 35 bf
       -0.00023023378105916002 -0.00032103876756071437
000760 f2 77 17 75 3f 89 41 bf 55 d7 50 aa 9b eb 4b bf
       -0.0005351600504430716 -0.0008520612797215757
000770 a0 da 70 19 a6 fa 56 bf f6 0c 37 21 e8 79 5d bf
       -0.0014025327743759988 -0.001799084366994217
000780 ab 9c 71 47 fd a9 5f bf 05 c7 ee dd 7e 58 57 bf
       -0.0019326184681405605 -0.0014249075827418866
000790 75 08 66 d4 08 d0 4e bf 06 1f ff 7b 91 ec 52 bf
       -0.0009403269876176028 -0.0011550350900381714
0007a0 d0 7e dc e1 98 42 54 bf c9 64 f0 2d 11 60 54 bf
       -0.0012365811339307038 -0.0012436073082027646
0007b0 eb 7a c8 97 05 24 78 bd a3 3a 4a 2c 46 88 50 bc
       -1.3722405095066162e-12 -3.584875615785994e-18
0007c0 9e 4b 54 b6 a9 60 54 bf 30 50 a0 93 bd 46 9f b7
       -0.0012437493654189123 -8.975866571462108e-41
0007d0 8a 51 54 b6 a9 60 54 bf 0e 3b a9 9e b9 65 24 a8
       -0.001243749365419241 -2.5883661204006165e-115
0007e0 8d 57 54 b6 a9 60 54 bf 44 ed 7a 38 d6 51 b9 8d
       -0.0012437493654195747 -1.4832748407181479e-242
0007f0 55 47 54 b6 a9 60 54 bf 5b 57 54 b6 a9 60 54 bf
       -0.0012437493654186744 -0.001243749365419564
