Delft pump AR app._all_kernel.csv.npy (npy, 10080 bytes, 1 tensors)

array f8 [5, 5, 50]
-0.007568131671020569 -0.007568131669330372 -0.007568131664902139 -0.00756813165352912 -0.007568131625541691 -0.007568131550964094 -0.00756813136322751 -0.007568130907744309
-0.007568129697419881 -0.007568126522410772 -0.00756811867795159 -0.0075680981434955025 -0.007568046287524657 -0.007567913732081216 -0.007567572198567743 -0.007566682617181954
-0.007564474567819788 -0.007558893576545811 -0.007545704630486542 -0.007519834640584643 -0.0074971689187527495 -0.0077121666490180445 -0.009862423746928384 -0.02277769613955768
-0.07053935205122679 -0.14672238050402378 -0.10902450662530555 -0.0452170428065831 -0.0004556615769592848 -3.455098931689438e-09 -5.61334385099088e-22 -1.1999373421794887e-49
-6.755409800585829e-139 -5.30552394e-316 -0.0 -0.0 -0.0 -0.0 -0.0 -0.0
-0.0 -0.0 -0.0 -0.0 -0.0 -0.0 -0.0 -0.0
-0.0 -0.0 -0.007568131670992966 -0.007568131669282278 -0.007568131664958492 -0.007568131653954659 -0.007568131624768679 -0.007568131553449402
-0.007568131365869966 -0.007568130879774395 -0.007568129638128932 -0.00756812657782289 -0.007568118865307906 -0.007568098147455827 -0.007568046662468146 -0.007567905660704073
-0.007567573122885298 -0.007566682332038014 -0.007564449121910892 -0.007558968074446313 -0.007545930545069239 -0.007518153169496047 -0.007498671690439032 -0.007720051403282033
-0.009820617767204899 -0.02251056546936987 -0.07017041733769681 -0.15382938864251045 -0.11463297463508722 -0.03698461473583726 -0.00018479941086807768 -8.705144413639673e-09
-9.210347294654722e-24 -1.2000211578644921e-49 -6.758634733879872e-139 -0.0 -0.0 -0.0 -0.0 -0.0
-0.0 -0.0 -0.0 -0.0 -0.0 -0.0 -0.0 -0.0
-0.0 -0.0 -0.0 -0.0 -0.007568131671013685 -0.0075681316693224825 -0.007568131665047161 -0.0075681316540232215
-0.007568131624874332 -0.007568131551550442 -0.007568131364665689 -0.0075681309290654706 -0.0075681296846147016 -0.007568126644548871 -0.007568118439369405 -0.007568098323421938
-0.00756804600194269 -0.007567908583367382 -0.007567569416443704 -0.007566707957628809 -0.007564431839043321 -0.0075590556694110555 -0.007545722479204099 -0.0075219752365849185
-0.007493420618915737 -0.007696469439041299 -0.009765395040077623 -0.023484926726167508 -0.07043634578160336 -0.14988156158380336 -0.11506715203705678 -0.037179026679681426
-0.000508134458531729 -5.511495824534555e-09 -5.637725984983868e-22 -2.786036574382386e-55 -2.3398350098090303e-145 -5.30552394e-316 -0.0 -0.0
-0.0 -0.0 -0.0 -0.0 -0.0 -0.0 -0.0 -0.0
-0.0 -0.0 -0.0 -0.0 -0.0 -0.0 -0.007568131670975986 -0.007568131669308597
-0.007568131664803569 -0.007568131653781433 -0.007568131624508213 -0.007568131552609804 -0.0075681313650316695 -0.0075681308964577745 -0.007568129646714908 -0.007568126631798776
-0.0075681184298069665 -0.0075680983206932355 -0.007568043366636825 -0.007567909584871887 -0.00756757393203628 -0.007566690372190663 -0.007564526102996813 -0.007558843582594037
-0.007545975234340965 -0.007519453706272665 -0.007493146708044828 -0.007758166244311261 -0.00993309537145617 -0.02316015301451117 -0.07296709988917234 -0.14593117166942532
-0.1142222917467769 -0.03880482263776682 -0.0004898629147650754 -2.243090976381826e-09 -6.936044090715211e-22 -1.1999349950918543e-49 -4.730600530768545e-135 -5.30552394e-316
-0.0 -0.0 -0.0 -0.0 -0.0 -0.0 -0.0 -0.0
-0.0 -0.0 -0.0 -0.0 -0.0 -0.0 -0.0 -0.0
-0.007568131670997504 -0.007568131669319485 -0.007568131665121513 -0.007568131653839971 -0.007568131625799867 -0.007568131552845685 -0.007568131361736608 -0.007568130878427223
-0.007568129641442702 -0.00756812646041741 -0.0075681185029092685 -0.00756809723684252 -0.007568044486942848 -0.007567913471772642 -0.007567565962126995 -0.007566722897991952
-0.007564478210320464 -0.007558968438425585 -0.007546413794071617 -0.007520905989110582 -0.007499635328416744 -0.007666486624190995 -0.00999746543597537 -0.022703699384204284
-0.0714318349201633 -0.1450876500897869 -0.11569990732298785 -0.03367871687034447 -0.0005062355847975808 -2.002522245019972e-09 -2.0612851985710368e-20 -9.13273032392686e-54
-1.782363942985775e-124 -0.0 -0.0 -0.0 -0.0 -0.0 -0.0 -0.0
-0.0 -0.0 -0.0 -0.0 -0.0 -0.0 -0.0 -0.0
-0.0 -0.0 -0.007568131671019233 -0.007568131669310932 -0.00756813166478746 -0.007568131653857941 -0.007568131625684454 -0.007568131552686813
00000000: 153b 4de0 c2ff 7ebf 1d7f 2fe0 c2ff 7ebf
00000010: 2098 e1df c2ff 7ebf 9a84 19df c2ff 7ebf
00000020: 6d28 2ddd c2ff 7ebf ca2c 0dd8 c2ff 7ebf
00000030: 617a 26cb c2ff 7ebf 6788 d9ab c2ff 7ebf
00000040: c347 ad58 c2ff 7ebf eced 7d7e c1ff 7ebf
00000050: 79be 6c63 bfff 7ebf b0c5 4ee0 b9ff 7ebf
00000060: b6e2 caf4 abff 7ebf 06dd a65f 88ff 7ebf
00000070: 03c1 a5b1 2cff 7ebf 7583 14e6 3dfe 7ebf
00000080: ca56 152e edfb 7ebf f388 480b 13f6 7ebf
00000090: 04bb cfa9 3ee8 7ebf bf68 a43d 1ecd 7ebf
000000a0: 8c1c 19f5 59b5 7ebf d510 9ff8 ca96 7fbf
000000b0: 4d6a 9e1b c032 84bf 9791 fd4f 0953 97bf
000000c0: d31b 24f2 dd0e b2bf 0d93 ed88 ccc7 c2bf
000000d0: a410 6bb2 07e9 bbbf 6df7 2630 b026 a7bf
000000e0: 348e 3292 bbdc 3dbf d771 5cc8 d7ad 2dbe
000000f0: 978c 199f e434 85bb 0dc3 a5e6 8e72 c6b5
00000100: c365 9f89 e216 40a3 a890 6606 0000 0080
00000110: 0000 0000 0000 0080 0000 0000 0000 0080
00000120: 0000 0000 0000 0080 0000 0000 0000 0080
00000130: 0000 0000 0000 0080 0000 0000 0000 0080
00000140: 0000 0000 0000 0080 0000 0000 0000 0080
00000150: 0000 0000 0000 0080 0000 0000 0000 0080
00000160: 0000 0000 0000 0080 0000 0000 0000 0080
00000170: 0000 0000 0000 0080 0000 0000 0000 0080
00000180: 0000 0000 0000 0080 0000 0000 0000 0080
00000190: c5be 4ce0 c2ff 7ebf 84a6 2ee0 c2ff 7ebf
000001a0: eb95 e2df c2ff 7ebf 0f01 21df c2ff 7ebf
000001b0: 178f 1fdd c2ff 7ebf 9fe5 38d8 c2ff 7ebf
000001c0: f1f6 54cb c2ff 7ebf 1c7b eda9 c2ff 7ebf
000001d0: 1139 9a54 c2ff 7ebf eabf 4c82 c1ff 7ebf
000001e0: 4ec0 4c70 bfff 7ebf 6771 94e0 b9ff 7ebf
000001f0: 11f6 8e0e acff 7ebf eeb1 fd34 86ff 7ebf
00000200: 3585 2af1 2cff 7ebf 5135 7cd2 3dfe 7ebf
00000210: f82c 7459 e6fb 7ebf e475 bd0a 27f6 7ebf
00000220: 7819 8b4e 7be8 7ebf b630 d4df 5acb 7ebf
00000230: e932 c85a edb6 7ebf 0afe ce84 0f9f 7fbf
00000240: 07e2 1701 d51c 84bf 538a 057a 020d 97bf
00000250: 39b1 9c3f b0f6 b1bf 8a0e b170 aeb0 c3bf
00000260: 65d4 192d 9658 bdbf c1bc 7dbd a5ef a2bf
00000270: 6178 1cda d638 28bf f68b 1929 b4b1 42be
00000280: d619 d8c8 ed44 26bb a768 a0a8 f572 c6b5
00000290: 69c2 bce8 d918 40a3 0000 0000 0000 0080
000002a0: 0000 0000 0000 0080 0000 0000 0000 0080
000002b0: 0000 0000 0000 0080 0000 0000 0000 0080
000002c0: 0000 0000 0000 0080 0000 0000 0000 0080
000002d0: 0000 0000 0000 0080 0000 0000 0000 0080
000002e0: 0000 0000 0000 0080 0000 0000 0000 0080
000002f0: 0000 0000 0000 0080 0000 0000 0000 0080
00000300: 0000 0000 0000 0080 0000 0000 0000 0080
00000310: 0000 0000 0000 0080 0000 0000 0000 0080
00000320: 151c 4de0 c2ff 7ebf 955b 2fe0 c2ff 7ebf
00000330: 3f25 e4df c2ff 7ebf d635 22df c2ff 7ebf
00000340: e86a 21dd c2ff 7ebf 777d 17d8 c2ff 7ebf
00000350: 5cc7 3fcb c2ff 7ebf 619e 50ad c2ff 7ebf
00000360: 5c02 cc57 c2ff 7ebf 059b e286 c1ff 7ebf
00000370: d58f 0753 bfff 7ebf 5112 acec b9ff 7ebf
00000380: dfdf 2ae1 abff 7ebf 52bb d5fd 86ff 7ebf
00000390: 3a1c 76f2 2bff 7ebf 795e 76b3 44fe 7ebf
000003a0: 04c1 c8b5 e1fb 7ebf 7760 388e 3ef6 7ebf
000003b0: c1b0 5d74 43e8 7ebf f07d 47da 5ccf 7ebf
000003c0: 4e07 e5c7 6bb1 7ebf cec6 9048 5586 7fbf
000003d0: a321 a322 e1ff 83bf d98d f3c0 6e0c 98bf
000003e0: 85ec 94c9 1d08 b2bf e74e a3aa 512f c3bf
000003f0: 12d0 d776 0a75 bdbf 6068 5f1f 2109 a3bf
00000400: d48c d070 8aa6 40bf fb81 aa28 f4ab 37be
00000410: 8679 7058 794c 85bb 1440 0044 4b53 9bb4
00000420: f1ad fdc9 be5f e7a1 a890 6606 0000 0080
00000430: 0000 0000 0000 0080 0000 0000 0000 0080
00000440: 0000 0000 0000 0080 0000 0000 0000 0080
00000450: 0000 0000 0000 0080 0000 0000 0000 0080
00000460: 0000 0000 0000 0080 0000 0000 0000 0080
00000470: 0000 0000 0000 0080 0000 0000 0000 0080
00000480: 0000 0000 0000 0080 0000 0000 0000 0080
00000490: 0000 0000 0000 0080 0000 0000 0000 0080
000004a0: 0000 0000 0000 0080 0000 0000 0000 0080
000004b0: 4d72 4ce0 c2ff 7ebf 0c1d 2fe0 c2ff 7ebf
000004c0: 34dc dfdf c2ff 7ebf ebf4 1ddf c2ff 7ebf
000004d0: 0efa 1add c2ff 7ebf 6820 2ad8 c2ff 7ebf
000004e0: 9737 46cb c2ff 7ebf 5ffa 12ab c2ff 7ebf
000004f0: dd44 3155 c2ff 7ebf b24d 0286 c1ff 7ebf
00000500: 7056 5f52 bfff 7ebf 5511 7cec b9ff 7ebf
00000510: 5c15 122c abff 7ebf a362 a842 87ff 7ebf
00000520: 4541 c528 2dff 7ebf ca11 00fb 3ffe 7ebf
00000530: d6c2 8d03 fbfb 7ebf 5fa2 b99f 05f6 7ebf
00000540: f614 914d 87e8 7ebf 451f 09fc b7cc 7ebf
00000550: 2507 e240 22b1 7ebf 8e6e bde4 06c7 7fbf
00000560: ceca 257e cd57 84bf 0b1b 128f 4bb7 97bf
00000570: e53c b5cb f8ad b2bf 1ec1 e464 dfad c2bf
00000580: c8cd 860f ac3d bdbf 1b05 50c8 39de a3bf
00000590: f374 6699 440d 40bf c4b9 eef5 9b44 23be
000005a0: b77f bd56 2134 8abb 918a 0006 8c72 c6b5
000005b0: f967 284a cf81 0ba4 a890 6606 0000 0080
000005c0: 0000 0000 0000 0080 0000 0000 0000 0080
000005d0: 0000 0000 0000 0080 0000 0000 0000 0080
000005e0: 0000 0000 0000 0080 0000 0000 0000 0080
000005f0: 0000 0000 0000 0080 0000 0000 0000 0080
00000600: 0000 0000 0000 0080 0000 0000 0000 0080
00000610: 0000 0000 0000 0080 0000 0000 0000 0080
00000620: 0000 0000 0000 0080 0000 0000 0000 0080
00000630: 0000 0000 0000 0080 0000 0000 0000 0080
00000640: 35d3 4ce0 c2ff 7ebf 154e 2fe0 c2ff 7ebf
00000650: 1974 e5df c2ff 7ebf 8dfc 1edf c2ff 7ebf
00000660: 26b3 31dd c2ff 7ebf b846 2ed8 c2ff 7ebf
00000670: f43f 0ccb c2ff 7ebf fcc7 d5a9 c2ff 7ebf
00000680: f584 d454 c2ff 7ebf a354 3b7a c1ff 7ebf
00000690: f05d 6557 bfff 7ebf a7c3 00a2 b9ff 7ebf
000006a0: 26b7 0e79 abff 7ebf 6d77 c34d 88ff 7ebf
000006b0: c920 1505 2bff 7ebf 5b04 28b6 48fe 7ebf
000006c0: 7ae3 6428 eefb 7ebf cea6 c023 27f6 7ebf
000006d0: 8174 2907 fde8 7ebf f3fe 26d4 3dce 7ebf
000006e0: 41c8 7a07 f0b7 7ebf 75cb 37d5 e466 7fbf
000006f0: 0b26 b918 8d79 84bf 8bda 6979 a33f 97bf
00000700: 6418 e052 5b49 b2bf 4a35 186c 3b92 c2bf
00000710: 103b 1a56 829e bdbf f909 0f37 563e a1bf
00000720: 8f80 f0a3 9c96 40bf 6296 f7cd 9733 21be
00000730: d567 c02c da55 d8bb 3175 c679 e2fd ebb4
00000740: e006 6f98 ba29 3ea6 0000 0000 0000 0080
00000750: 0000 0000 0000 0080 0000 0000 0000 0080
00000760: 0000 0000 0000 0080 0000 0000 0000 0080
00000770: 0000 0000 0000 0080 0000 0000 0000 0080
00000780: 0000 0000 0000 0080 0000 0000 0000 0080
00000790: 0000 0000 0000 0080 0000 0000 0000 0080
000007a0: 0000 0000 0000 0080 0000 0000 0000 0080
000007b0: 0000 0000 0000 0080 0000 0000 0000 0080
000007c0: 0000 0000 0000 0080 0000 0000 0000 0080
000007d0: 1135 4de0 c2ff 7ebf 9027 2fe0 c2ff 7ebf
000007e0: a893 dfdf c2ff 7ebf 7b4d 1fdf c2ff 7ebf
000007f0: 60ab 2fdd c2ff 7ebf 397b 2bd8 c2ff 7ebf
