Delft pump 1x3_all_kernel.csv.npy (npy, 400080 bytes, 1 tensors)

array f8 [20, 5, 5, 100]
00000000: f788 9891 89b3 50bf 8a66 708f 89b3 50bf
00000010: 1162 c28b 89b3 50bf 9aff e285 89b3 50bf
00000020: 812f 857e 89b3 50bf db57 636f 89b3 50bf
00000030: 0fc7 6f5d 89b3 50bf 04ae 0137 89b3 50bf
00000040: da71 0303 89b3 50bf 5dbe 25a2 88b3 50bf
00000050: 984b 8f13 88b3 50bf 382d 382d 87b3 50bf
00000060: 9257 8a06 86b3 50bf 8c1f e3a5 83b3 50bf
00000070: 7555 a081 80b3 50bf 5245 113e 7bb3 50bf
00000080: 0bd2 82a9 71b3 50bf 2b08 0d6c 64b3 50bf
00000090: 3479 758e 4bb3 50bf cada 7481 25b3 50bf
000000a0: 1ebf a2d4 f7b2 50bf 5996 f69c 8db2 50bf
000000b0: 8a73 2f69 07b2 50bf 08d3 9637 17b1 50bf
000000c0: bbf4 72d9 ceaf 50bf 1e81 80fe 68ad 50bf
000000d0: 2480 75b4 7faa 50bf 6468 e721 76a4 50bf
000000e0: daa5 a598 019d 50bf 025a ac59 e590 50bf
000000f0: a674 96a7 9d86 50bf aa26 4f06 d277 50bf
00000100: 17ea 76a5 6976 50bf 09bc 96f0 77ae 50bf
00000110: 72ce 0137 9691 51bf ff0f 04b1 5513 54bf
00000120: 8298 05a2 b67a 5abf 0bc4 d196 bb70 65bf
00000130: 0359 6adc be60 71bf a98e fda4 4a24 80bf
00000140: 05d4 2b31 0d9b 89bf 0dea aec0 0f2c 92bf
00000150: a850 99ad 0bb8 94bf a38a 4db1 da0d 93bf
00000160: bd5a 62bd 2f7d 8ebf a21e 6f1d 461c 8bbf
00000170: e5ca d8c7 68cf 80bf c2cd 2fd3 a64b 78bf
00000180: 5dbb 37b8 df14 6cbf 9193 ee71 44e3 37bf
00000190: 29fe 0054 6436 f2be 721c 04f8 74a6 7cbe
000001a0: 1968 b966 b59c 46be b909 9f59 6af6 27bc
000001b0: cb81 b1fd 58a4 2cbc 5db7 716a 051c cbb6
000001c0: 0595 fef7 16dd d6b6 ba15 7d01 4bdc 6ca5
000001d0: 3848 50f8 c92f 52a9 b486 5a2f 3849 8181
000001e0: 66cc 0bfd 7927 0a87 0000 0000 0000 0000
000001f0: 0000 0000 0000 0000 0000 0000 0000 0000
00000200: 0000 0000 0000 0000 0000 0000 0000 0000
00000210: 0000 0000 0000 0000 0000 0000 0000 0000
00000220: 0000 0000 0000 0000 0000 0000 0000 0000
00000230: 0000 0000 0000 0000 0000 0000 0000 0000
00000240: 0000 0000 0000 0000 0000 0000 0000 0000
00000250: 0000 0000 0000 0000 0000 0000 0000 0000
00000260: 0000 0000 0000 0000 0000 0000 0000 0000
00000270: 0000 0000 0000 0000 0000 0000 0000 0000
00000280: 0000 0000 0000 0000 0000 0000 0000 0000
00000290: 0000 0000 0000 0000 0000 0000 0000 0000
000002a0: 0000 0000 0000 0000 0000 0000 0000 0000
000002b0: 0000 0000 0000 0000 0000 0000 0000 0000
000002c0: 0000 0000 0000 0000 0000 0000 0000 0000
000002d0: 0000 0000 0000 0000 0000 0000 0000 0000
000002e0: 0000 0000 0000 0000 0000 0000 0000 0000
000002f0: 0000 0000 0000 0000 0000 0000 0000 0000
00000300: 0000 0000 0000 0000 0000 0000 0000 0000
00000310: 0000 0000 0000 0000 0000 0000 0000 0000
00000320: 59b5 4d91 89b3 50bf bd5e 4b8f 89b3 50bf
00000330: 7289 928b 89b3 50bf b803 3386 89b3 50bf
00000340: 1e83 ff7d 89b3 50bf 8a08 f471 89b3 50bf
00000350: 5fe7 b057 89b3 50bf 6c2e af33 89b3 50bf
00000360: 3625 4e03 89b3 50bf c548 3d9d 88b3 50bf
00000370: 7c82 521e 88b3 50bf 2fc9 e25e 87b3 50bf
00000380: 23b0 d6ef 85b3 50bf 9891 57c0 83b3 50bf
00000390: ead0 3afb 7fb3 50bf 837a cb51 7bb3 50bf
000003a0: 4118 6870 71b3 50bf 6eee a915 63b3 50bf
000003b0: 1694 bf8e 4cb3 50bf a7bc 9ee8 24b3 50bf
000003c0: 6155 ebf2 ecb2 50bf d51b e9a9 8cb2 50bf
000003d0: 55c3 24c3 e7b1 50bf e7ed dec3 33b1 50bf
000003e0: 9fea 94fe a8af 50bf 42e2 6845 57ad 50bf
000003f0: 8ac1 340e f4a9 50bf b092 2176 aca5 50bf
00000400: 1b12 101c cd9b 50bf c7ed 724c b593 50bf
00000410: 7fda 0042 7486 50bf 2bdb 4224 7575 50bf
00000420: 1279 0953 637c 50bf 67f0 cdd7 88b0 50bf
00000430: f58f 7c81 2981 51bf 87d8 89b4 ed2f 54bf
00000440: e5ff f039 00ef 5abf a311 2b31 1220 65bf
00000450: 3abc 94b8 991b 72bf b2a6 0244 7f4f 7fbf
00000460: 13aa ad66 a0d4 89bf 10ae ad96 4dc0 91bf
00000470: 1e78 0dc0 6400 94bf 2832 3869 b125 93bf
00000480: 653b adcb 7669 8ebf 9e8f dbde c7ab 89bf
00000490: 35d9 0d57 186f 82bf 2ae3 7bb5 fc7b 73bf
000004a0: 57ee 287a d760 69bf 8657 a29d 8bf6 34bf
000004b0: a8f0 4830 6c6f 1dbf b580 dc62 ac63 7cbe
000004c0: 3c5b 92dc c986 46be 004d 326e 99cf 76bd
000004d0: 5e27 da4f 5aa4 2cbc 9e93 8778 2661 1eba
000004e0: ae94 fef7 16dd d6b6 1f57 7951 931c 88ac
000004f0: 0623 69a4 87fd 35a1 bff3 8aa8 097f 308f
00000500: 66cc 0bfd 7927 0a87 0000 0000 0000 0000
00000510: 0000 0000 0000 0000 0000 0000 0000 0000
00000520: 0000 0000 0000 0000 0000 0000 0000 0000
00000530: 0000 0000 0000 0000 0000 0000 0000 0000
00000540: 0000 0000 0000 0000 0000 0000 0000 0000
00000550: 0000 0000 0000 0000 0000 0000 0000 0000
00000560: 0000 0000 0000 0000 0000 0000 0000 0000
00000570: 0000 0000 0000 0000 0000 0000 0000 0000
00000580: 0000 0000 0000 0000 0000 0000 0000 0000
00000590: 0000 0000 0000 0000 0000 0000 0000 0000
000005a0: 0000 0000 0000 0000 0000 0000 0000 0000
000005b0: 0000 0000 0000 0000 0000 0000 0000 0000
000005c0: 0000 0000 0000 0000 0000 0000 0000 0000
000005d0: 0000 0000 0000 0000 0000 0000 0000 0000
000005e0: 0000 0000 0000 0000 0000 0000 0000 0000
000005f0: 0000 0000 0000 0000 0000 0000 0000 0000
00000600: 0000 0000 0000 0000 0000 0000 0000 0000
00000610: 0000 0000 0000 0000 0000 0000 0000 0000
00000620: 0000 0000 0000 0000 0000 0000 0000 0000
00000630: 0000 0000 0000 0000 0000 0000 0000 0000
00000640: 5197 4991 89b3 50bf 5a9a 338f 89b3 50bf
00000650: c446 a68b 89b3 50bf 9fb8 df85 89b3 50bf
00000660: ec5d a37c 89b3 50bf 37f4 726f 89b3 50bf
00000670: 9e85 425c 89b3 50bf d7f6 9737 89b3 50bf
00000680: fa16 76fb 88b3 50bf b36b 29a3 88b3 50bf
00000690: 66fd 9613 88b3 50bf 5cb3 1341 87b3 50bf
000006a0: 6916 ebac 85b3 50bf 02dc be90 83b3 50bf
000006b0: 4b8c e670 80b3 50bf cdbe e7c3 7ab3 50bf
000006c0: 93e4 a2a2 72b3 50bf d6da 94ec 61b3 50bf
000006d0: deef 8326 48b3 50bf 1602 05f1 2fb3 50bf
000006e0: 9507 7e34 f1b2 50bf 9739 fdc9 92b2 50bf
000006f0: effc 1b70 06b2 50bf 02fb ddf3 28b1 50bf
00000700: 566c 3680 97af 50bf b3ef 195d 42ad 50bf
00000710: 3eb9 bb9c 67aa 50bf 5204 2e3a 2fa5 50bf
00000720: f810 6277 249d 50bf 6794 2e86 c992 50bf
00000730: 413a ac2c e885 50bf fab4 76a3 9875 50bf
00000740: 3572 0935 8e75 50bf 92e8 4ec1 37b3 50bf
00000750: 8e14 e7b4 e891 51bf fd93 5a41 4101 54bf
00000760: ab34 28bc 53b9 5abf 5365 1ca7 5a66 64bf
00000770: 26d4 9c34 07ef 71bf 33f9 bc31 6b15 80bf
00000780: 8573 e36d 65b0 89bf a25a 89ca 7418 92bf
00000790: bac4 4f23 c167 94bf c42b 108f f1de 92bf
000007a0: 05d9 5fa7 ccb6 8fbf 80d5 e475 53c2 87bf
000007b0: 7d98 53df c6ec 81bf 3fa1 220e 52e5 78bf
000007c0: 9abe d2b2 63b6 67bf 820a cda5 9d5b 33bf
000007d0: 3a05 370b 4649 1dbf 10bc 833f a359 e4bd
000007e0: 11ef 9fd1 6df0 75bd 6339 8958 60d0 76bd
000007f0: f245 9727 4df3 15ba cd5b 426c 2661 1eba
-0.001019367546526482 -0.0010193675386801792 -0.0010193675252933058 -0.0010193675039289253 -0.0010193674771299124 -0.0010193674220793012 -0.001019367356772386 -0.001019367216964607
-0.001019367027814791 -0.001019366675418263 -0.0010193661566872732 -0.001019365318714117 -0.00101936424667801 -0.0010193620324105727 -0.0010193591065264772 -0.001019354204135976
-0.0010193452817876005 -0.001019332951003547 -0.0010193097931146646 -0.001019274355554311 -0.0010192318173202829 -0.001019132894592009 -0.001019007909000199 -0.00101878421115237
-0.001018478394868168 -0.0010179066976051042 -0.0010172125929202103 -0.0010157731663782638 -0.0010139957035682962 -0.0010111083744895892 -0.0010086574169243883 -0.0010051299116064318
-0.0010047942831606976 -0.001018159035407031 -0.0010723082487204241 -0.0012253128844017522 -0.0016161712192910575 -0.0026172317362172007 -0.004242654371998225 -0.007881720695599741
-0.01250276857670408 -0.0177462064127472 -0.02023332831443328 -0.018607537337980273 -0.01488721176819518 -0.01323752190900446 -0.008208101843682989 -0.005931522045091455
-0.0034279222033925375 -0.0003644983389057772 -1.7368763338019913e-05 -1.0673039519205819e-07 -1.0529599601245683e-08 -6.495064976706258e-19 -7.763425019692902e-19 -9.497110339382189e-45
-1.6019386012552127e-44 -2.0817856204872826e-128 -1.2099708466967066e-109 -2.0165509461089814e-301 -9.442684807026585e-275 0.0 0.0 0.0
0.0 0.0 0.0 0.0 0.0 0.0 0.0 0.0
0.0 0.0 0.0 0.0 0.0 0.0 0.0 0.0
0.0 0.0 0.0 0.0 0.0 0.0 0.0 0.0
0.0 0.0 0.0 0.0 0.0 0.0 0.0 0.0
0.0 0.0 0.0 0.0 -0.0010193675454631317 -0.0010193675381539446 -0.0010193675246133707 -0.0010193675050660222
-0.0010193674752302993 -0.0010193674314114298 -0.0010193673358700123 -0.0010193672048782977 -0.0010193670288763507 -0.0010193666575629018 -0.001019366195841225 -0.0010193654993995817
-0.001019364164089439 -0.0010193621286528117 -0.001019358617594663 -0.001019354275903745 -0.0010193450740430129 -0.0010193317054064915 -0.0010193107254903347 -0.0010192737995387364
-0.001019221682942849 -0.0010191320103716168 -0.001018978433944014 -0.0010188107985261653 -0.0010184431396981564 -0.0010178901917595883 -0.0010170825342577816 -0.001016062182793192
-0.0010137084029803237 -0.0010117788786335612 -0.001008618863136995 -0.0010045665704134326 -0.0010062189068303401 -0.0010186516148840365 -0.0010683923082490641 -0.0012321301784630494
-0.0016438963136948756 -0.002578769236921201 -0.004420853111965656 -0.007644173747544935 -0.012612584241385815 -0.017335140535051308 -0.019532751295052823 -0.018698474928941305
-0.014849594202727532 -0.012534677017761283 -0.009000959545784152 -0.0047569152300120186 -0.003097935537224743 -0.0003198710306916364 -0.00011228654700174096 -1.0575856698421291e-07
-1.0489727213838913e-08 -1.2966515278633921e-12 -7.763430482942586e-19 -9.586077823854169e-29 -1.601938601255191e-44 -3.612250073467273e-94 -1.074865965980041e-148 -1.621318713767878e-235
-9.442684807026585e-275 0.0 0.0 0.0 0.0 0.0 0.0 0.0
0.0 0.0 0.0 0.0 0.0 0.0 0.0 0.0
0.0 0.0 0.0 0.0 0.0 0.0 0.0 0.0
0.0 0.0 0.0 0.0 0.0 0.0 0.0 0.0
0.0 0.0 0.0 0.0 0.0 0.0 0.0 0.0
-0.0010193675454046212 -0.0010193675378161932 -0.0010193675248938864 -0.0010193675038823525 -0.0010193674702828571 -0.0010193674223011437 -0.001019367352491286 -0.0010193672191002778
-0.0010193670003401643 -0.0010193666791084965 -0.0010193661567966194 -0.001019365390955338 -0.0010193639206347532 -0.0010193619554976778 -0.0010193590456786413 -0.0010193537597124492
-0.0010193461881000995 -0.0010193306246272702 -0.001019306621002684 -0.0010192840746442492 -0.001019225646786447 -0.0010191377150082553 -0.001019007002866886 -0.001018800728587344
-0.0010184268474862277 -0.0010178707201751013 -0.0010171901548648578 -0.0010159455493694747 -0.0010140281788447152 -0.0010115592965374233 -0.0010084884003763869 -0.001004599629463697
-0.0010045899145075924 -0.0010192913516520502 -0.001072385075177071 -0.001221002317302266 -0.0016310994839188557 -0.0024902124940921282 -0.004378345629267455 -0.007853352980984418
-0.012543480316191022 -0.017671418058251682 -0.019927041797875168 -0.01842858730018883 -0.01548538099084996 -0.011601116214118745 -0.008752397241959859 -0.006078072097956798
-0.002894587253272918 -0.0002953777200681921 -0.0001117180825565182 -1.4806680860333774e-10 -1.2470977539246674e-12 -1.2968240594607739e-12 -6.926323714944173e-29 -9.586077593073916e-29
