Diabetes (targetcl. present)_all_kernel.csv.npy (npy, 10080 bytes, 1 tensors)

array f8 [5, 5, 50]
000000 97 98 86 86 d8 61 67 bf 62 11 ff 24 d4 61 67 bf
       -0.0028542737020017073 -0.00285426554180128
000010 c0 90 4d 7f c4 61 67 bf 55 0d f5 2d a7 61 67 bf
       -0.0028542363965461115 -0.0028541817879685163
000020 5a ad 62 d3 63 61 67 bf 5e b4 c4 06 24 61 67 bf
       -0.002854056331747107 -0.002853937496317501
000030 a1 29 cb 7d 84 61 67 bf 66 25 78 2d d1 73 67 bf
       -0.002854117176274332 -0.0028628430843623985
000040 61 a9 e1 15 68 1c 68 bf a0 1a 4b de 30 83 69 bf
       -0.002943232814734007 -0.003114314504588947
000050 30 b4 74 94 e3 3f 75 bf 73 5e e5 15 ed 81 88 bf
       -0.005187882408148645 -0.011966564398490953
000060 e9 bc 78 29 2d 09 a2 bf f3 f6 ed bf 44 68 b6 bf
       -0.035226260483222145 -0.08752851186542525
000070 ff ad 54 b8 bf d8 c3 bf 1c 41 d4 53 f1 02 d1 bf
       -0.1550521516850125 -0.26580460726201394
000080 f9 65 00 80 93 d0 d4 bf 1f 00 2e b4 a4 18 d6 bf
       -0.3252304792418666 -0.34525411220238483
000090 64 af ac e3 e7 b5 d3 bf 48 f0 e3 e8 d4 fd ce bf
       -0.3079776500114717 -0.24212132808304632
0000a0 cd 51 c2 a9 26 13 c4 bf 61 44 f0 6c 27 c9 a0 bf
       -0.15683444298760066 -0.03278468327346996
0000b0 c0 11 7b 71 cd 39 6c bf 5c d6 5f 93 8e 55 d1 be
       -0.0034455311359542218 -4.1327969508751695e-06
0000c0 ed 10 7e 69 c2 32 9b bd ad c2 c4 3b a5 e2 d9 bb
       -6.184172660350187e-12 -2.192573054766512e-20
0000d0 14 b3 45 be b1 a6 77 b9 1a 27 19 58 a3 c3 f6 af
       -7.288073171825135e-32 -1.2287222800377874e-77
0000e0 00 00 00 00 00 00 00 80 00 00 00 00 00 00 00 80
       -0.0 -0.0
0000f0 00 00 00 00 00 00 00 80 00 00 00 00 00 00 00 80
       -0.0 -0.0
000100 00 00 00 00 00 00 00 80 00 00 00 00 00 00 00 80
       -0.0 -0.0
000110 00 00 00 00 00 00 00 80 00 00 00 00 00 00 00 80
       -0.0 -0.0
000120 00 00 00 00 00 00 00 80 00 00 00 00 00 00 00 80
       -0.0 -0.0
000130 00 00 00 00 00 00 00 80 00 00 00 00 00 00 00 80
       -0.0 -0.0
000140 00 00 00 00 00 00 00 80 00 00 00 00 00 00 00 80
       -0.0 -0.0
000150 00 00 00 00 00 00 00 80 00 00 00 00 00 00 00 80
       -0.0 -0.0
000160 00 00 00 00 00 00 00 80 00 00 00 00 00 00 00 80
       -0.0 -0.0
000170 00 00 00 00 00 00 00 80 00 00 00 00 00 00 00 80
       -0.0 -0.0
000180 00 00 00 00 00 00 00 80 00 00 00 00 00 00 00 80
       -0.0 -0.0
000190 0a fa 71 92 d8 61 67 bf a0 11 1a e6 d3 61 67 bf
       -0.0028542737887271618 -0.0028542650841833633
0001a0 a0 0d fd 54 c2 61 67 bf df 79 c7 d5 a1 61 67 bf
       -0.0028542323633772987 -0.0028541718331631517
0001b0 53 ce 63 70 5f 61 67 bf 06 fe 34 5d 24 61 67 bf
       -0.0028540481608787887 -0.0028539381252412647
0001c0 c9 12 ca e4 55 63 67 bf 13 68 9a 10 72 65 67 bf
       -0.002854984055661401 -0.0028559902028293476
0001d0 20 69 2c a5 c0 07 68 bf 05 f1 a4 5b b7 7f 6c bf
       -0.002933384189771307 -0.003478868599954168
0001e0 f4 e1 73 6c bd 07 78 bf 14 38 f1 9c 6a 6d 87 bf
       -0.0058667563782752626 -0.01143916408014082
0001f0 2d f4 55 e6 e3 81 a0 bf ce 5f a3 e0 0f f7 b5 bf
       -0.032240983836324545 -0.08580111727076131
000200 c5 d1 a4 88 44 62 c4 bf 58 23 4c ce 92 6e d0 bf
       -0.1592488925176793 -0.25674886842948785
000210 88 c4 5d 05 01 c1 d4 bf 02 82 a4 bc f0 a7 d6 bf
       -0.3242800285725669 -0.35400026723985445
000220 87 51 55 59 77 df d3 bf 9e 6d f9 6d 8e 08 d0 bf
       -0.310514294852759 -0.25052223910980753
000230 7a 1c cb dd 65 a9 c4 bf a7 f1 94 5b 53 dd a7 bf
       -0.1614196141219713 -0.046610455445690584
000240 ac e0 5c 4f 1a 2f 7b bf 12 c1 e6 37 71 2b 03 bf
       -0.0066367175802996385 -3.656329407719835e-05
000250 f5 ff 9e 5d 00 41 1d be 45 24 e1 22 40 5c 2f bd
       -1.702801780207781e-09 -5.570717867704965e-14
000260 af 7b 24 b4 b6 34 11 b6 27 0f 19 58 a3 c3 f6 af
       -2.943190824671684e-48 -1.2287222800366117e-77
000270 82 72 77 12 f6 eb a3 97 00 00 00 00 00 00 00 80
       -8.528246063227396e-195 -0.0
000280 00 00 00 00 00 00 00 80 00 00 00 00 00 00 00 80
       -0.0 -0.0
000290 00 00 00 00 00 00 00 80 00 00 00 00 00 00 00 80
       -0.0 -0.0
0002a0 00 00 00 00 00 00 00 80 00 00 00 00 00 00 00 80
       -0.0 -0.0
0002b0 00 00 00 00 00 00 00 80 00 00 00 00 00 00 00 80
       -0.0 -0.0
0002c0 00 00 00 00 00 00 00 80 00 00 00 00 00 00 00 80
       -0.0 -0.0
0002d0 00 00 00 00 00 00 00 80 00 00 00 00 00 00 00 80
       -0.0 -0.0
0002e0 00 00 00 00 00 00 00 80 00 00 00 00 00 00 00 80
       -0.0 -0.0
0002f0 00 00 00 00 00 00 00 80 00 00 00 00 00 00 00 80
       -0.0 -0.0
000300 00 00 00 00 00 00 00 80 00 00 00 00 00 00 00 80
       -0.0 -0.0
000310 00 00 00 00 00 00 00 80 00 00 00 00 00 00 00 80
       -0.0 -0.0
000320 cb fb b0 64 d9 61 67 bf 66 e6 2e b6 d2 61 67 bf
       -0.002854275318469023 -0.0028542628728843054
000330 67 ed a9 34 c6 61 67 bf 51 77 19 3f aa 61 67 bf
       -0.0028542395787646726 -0.0028541875006301916
000340 6c 99 8b f2 57 61 67 bf 3b 2c db 19 fd 60 67 bf
       -0.0028540342067230797 -0.0028538649920384607
000350 9e bf a3 f2 b1 61 67 bf 24 8a 4f 82 35 7a 67 bf
       -0.002854201845472872 -0.002865890989128832
000360 db 88 57 d7 f2 29 68 bf db 48 62 8c 07 d6 6a bf
       -0.002949690150431212 -0.0032758853367989955
000370 53 b6 1c bd 79 69 79 bf e0 f7 7f 9a b5 ff 8a bf
       -0.006204104940292848 -0.013183039452993428
000380 db d2 2d da 25 52 a6 bf df 27 56 3e ec e6 b5 bf
       -0.04359548843686919 -0.0855548526944001
000390 05 80 35 a0 26 d6 c2 bf 38 2a ae 0d e8 2a d0 bf
       -0.14716036627487497 -0.2526188024136533
0003a0 98 18 5b 23 7a 4f d5 bf 5d 38 e9 b6 cc 1e d6 bf
       -0.33297589733809607 -0.34562986242679533
0003b0 e3 b7 62 24 f4 46 d4 bf 10 e4 41 aa 66 36 d1 bf
       -0.3168306689575486 -0.26894537569711563
0003c0 03 d4 2d d4 90 f7 c2 bf 9b fb dc 65 87 af a7 bf
       -0.14818010673812418 -0.04626105421492995
0003d0 54 96 5a f0 b5 6d 7a bf 91 03 2d 3e de fa 34 bf
       -0.006452284525641245 -0.00032012868739533193
0003e0 40 0d a5 03 26 31 a2 be da 2e c6 3b a5 e2 d9 bb
       -5.421634406217163e-07 -2.192573054794567e-20
0003f0 ae 7b 24 b4 b6 34 11 b6 2b 92 b0 b9 e6 5d 41 a7
       -2.9431908246716836e-48 -1.3450907278052578e-119
000400 8e 62 77 12 f6 eb a3 97 00 00 00 00 00 00 00 80
       -8.528246063221185e-195 -0.0
000410 00 00 00 00 00 00 00 80 00 00 00 00 00 00 00 80
       -0.0 -0.0
000420 00 00 00 00 00 00 00 80 00 00 00 00 00 00 00 80
       -0.0 -0.0
000430 00 00 00 00 00 00 00 80 00 00 00 00 00 00 00 80
       -0.0 -0.0
000440 00 00 00 00 00 00 00 80 00 00 00 00 00 00 00 80
       -0.0 -0.0
000450 00 00 00 00 00 00 00 80 00 00 00 00 00 00 00 80
       -0.0 -0.0
000460 00 00 00 00 00 00 00 80 00 00 00 00 00 00 00 80
       -0.0 -0.0
000470 00 00 00 00 00 00 00 80 00 00 00 00 00 00 00 80
       -0.0 -0.0
000480 00 00 00 00 00 00 00 80 00 00 00 00 00 00 00 80
       -0.0 -0.0
000490 00 00 00 00 00 00 00 80 00 00 00 00 00 00 00 80
       -0.0 -0.0
0004a0 00 00 00 00 00 00 00 80 00 00 00 00 00 00 00 80
       -0.0 -0.0
0004b0 22 b3 f3 73 d8 61 67 bf 42 e6 c0 b5 d2 61 67 bf
       -0.0028542735668594258 -0.0028542628697579018
0004c0 18 cf e4 a3 c8 61 67 bf 35 81 1b a8 a7 61 67 bf
       -0.002854244113359782 -0.002854182676728235
0004d0 7b d5 2f 58 61 61 67 bf a5 f6 25 05 12 61 67 bf
       -0.00285405171006897 -0.0028539039569171636
0004e0 58 f3 47 2b 37 62 67 bf ae 26 8a 42 3e 7c 67 bf
       -0.0028544499893982493 -0.0028668609632561326
0004f0 e1 a5 f7 02 a9 f7 67 bf dc ea 5c fc ee 8f 6a bf
       -0.0029257107741968856 -0.0032424609843507545
000500 24 6b 73 01 15 3d 72 bf d1 6b e6 05 f1 a6 8d bf
       -0.004452783635509747 -0.014478571884685739
000510 4e f4 8a 9f bc e1 9e bf 22 1a 32 79 b7 bb b4 bf
       -0.030157992589682707 -0.08098932942275686
000520 f4 84 70 63 45 75 c6 bf 54 4c f6 da a7 cf d0 bf
       -0.17545382838674295 -0.2626742971708087
000530 0a 5e 0c 69 f7 59 d5 bf 02 93 d4 3d 0e 77 d6 bf
       -0.33361611612915054 -0.3510165790378751
000540 c9 51 55 af e6 17 d5 bf 35 e3 ac cb 43 fc cf bf
       -0.32958380815878435 -0.2498860115536218
000550 9a 80 09 c9 f7 f0 c3 bf f5 b4 17 e1 3e 99 a0 bf
       -0.15579125705972247 -0.03241917131149733
000560 8b 08 80 c6 d9 76 70 bf e2 f2 86 f8 65 bb 01 bf
       -0.0040195948458877735 -3.382115307057843e-05
000570 82 63 f3 36 93 34 1d be 82 55 eb 3b a5 e2 d9 bb
       -1.6999763504899662e-09 -2.1925730555272413e-20
000580 69 7b 24 b4 b6 34 11 b6 95 68 19 58 a3 c3 f6 af
       -2.9431908246716416e-48 -1.228722280041002e-77
000590 70 9f 77 12 f6 eb a3 97 00 00 00 00 00 00 00 80
       -8.52824606324489e-195 -0.0
0005a0 00 00 00 00 00 00 00 80 00 00 00 00 00 00 00 80
       -0.0 -0.0
0005b0 00 00 00 00 00 00 00 80 00 00 00 00 00 00 00 80
       -0.0 -0.0
0005c0 00 00 00 00 00 00 00 80 00 00 00 00 00 00 00 80
       -0.0 -0.0
0005d0 00 00 00 00 00 00 00 80 00 00 00 00 00 00 00 80
       -0.0 -0.0
0005e0 00 00 00 00 00 00 00 80 00 00 00 00 00 00 00 80
       -0.0 -0.0
0005f0 00 00 00 00 00 00 00 80 00 00 00 00 00 00 00 80
       -0.0 -0.0
000600 00 00 00 00 00 00 00 80 00 00 00 00 00 00 00 80
       -0.0 -0.0
000610 00 00 00 00 00 00 00 80 00 00 00 00 00 00 00 80
       -0.0 -0.0
000620 00 00 00 00 00 00 00 80 00 00 00 00 00 00 00 80
       -0.0 -0.0
000630 00 00 00 00 00 00 00 80 00 00 00 00 00 00 00 80
       -0.0 -0.0
000640 bd a1 10 b1 d8 61 67 bf 60 e5 b5 65 d3 61 67 bf
       -0.0028542740115151386 -0.002854264150013705
000650 b1 dd 64 6f c8 61 67 bf e0 5b bd e0 9e 61 67 bf
       -0.002854243731373628 -0.0028541663249756904
000660 f2 d6 85 e0 64 61 67 bf f0 25 40 fc 1e 61 67 bf
       -0.002854058289979083 -0.0028539281065647
000670 39 11 85 0d a0 60 67 bf ff 97 5e f1 81 64 67 bf
       -0.0028536916762808254 -0.002855542940738864
000680 de cf 39 91 33 ab 67 bf f3 db fe 3d 32 78 6b bf
       -0.0028892523931123145 -0.0033532124798187845
000690 f1 b2 9b 50 95 c3 78 bf 12 6e 73 c8 ed e1 8d bf
       -0.006045897732957371 -0.014591081313873242
0006a0 07 96 34 fa c7 d8 a5 bf 43 1b bc 44 f3 36 b2 bf
       -0.04266953400864897 -0.07115097454162105
0006b0 d7 64 8e 17 06 c0 c3 bf d3 6d e6 20 4c e5 d0 bf
       -0.15429760122495992 -0.26399520123387993
0006c0 ce fb 34 4f 3a 6b d5 bf 51 44 6a 0a 66 57 d6 bf
       -0.33466966376357454 -0.3490843869886407
0006d0 50 48 92 04 e8 50 d4 bf 2c d3 23 e3 69 69 d0 bf
       -0.3174381298678144 -0.2564339368976103
0006e0 c4 05 05 23 2a 57 c3 bf 28 a6 70 75 f9 3a a1 bf
       -0.1510975523943171 -0.033653064332906546
0006f0 59 47 1b 88 dc b5 5a bf c2 14 5c 11 22 19 35 bf
       -0.0016302732114365697 -0.00032193261846231666
000700 8b 0f 6b 7e 9b 22 a2 be dc ed e0 22 40 5c 2f bd
       -5.404706343238635e-07 -5.5707178676961743e-14
000710 a8 b4 45 be b1 a6 77 b9 3c 7a 19 58 a3 c3 f6 af
       -7.288073171825578e-32 -1.2287222800418685e-77
000720 da dd f0 fd 86 42 57 81 00 00 00 00 00 00 00 80
       -3.3918113439829816e-302 -0.0
000730 00 00 00 00 00 00 00 80 00 00 00 00 00 00 00 80
       -0.0 -0.0
000740 00 00 00 00 00 00 00 80 00 00 00 00 00 00 00 80
       -0.0 -0.0
000750 00 00 00 00 00 00 00 80 00 00 00 00 00 00 00 80
       -0.0 -0.0
000760 00 00 00 00 00 00 00 80 00 00 00 00 00 00 00 80
       -0.0 -0.0
000770 00 00 00 00 00 00 00 80 00 00 00 00 00 00 00 80
       -0.0 -0.0
000780 00 00 00 00 00 00 00 80 00 00 00 00 00 00 00 80
       -0.0 -0.0
000790 00 00 00 00 00 00 00 80 00 00 00 00 00 00 00 80
       -0.0 -0.0
0007a0 00 00 00 00 00 00 00 80 00 00 00 00 00 00 00 80
       -0.0 -0.0
0007b0 00 00 00 00 00 00 00 80 00 00 00 00 00 00 00 80
       -0.0 -0.0
0007c0 00 00 00 00 00 00 00 80 00 00 00 00 00 00 00 80
       -0.0 -0.0
0007d0 15 0c a8 8c d8 61 67 bf fa 52 07 7b d3 61 67 bf
       -0.0028542737466081916 -0.0028542643051231416
0007e0 be 14 1e 8b c5 61 67 bf 77 55 04 0b a1 61 67 bf
       -0.002854238345153164 -0.0028541703578734384
0007f0 da bd 4a e9 5f 61 67 bf cb 64 54 f2 11 61 67 bf
       -0.0028540490405572884 -0.0028539038199935965
