Ecoli (targetcl. periplasm)_all_kernel.csv.npy (npy, 400080 bytes, 1 tensors)

array f8 [20, 5, 5, 100]
-0.001387461785323172 -0.001387461785313399 -0.0013874617853068887 -0.0013874617852683156 -0.0013874617852456677 -0.0013874617851767665 -0.0013874617850722164 -0.0013874617849330354
-0.0013874617846995627 -0.0013874617844817012 -0.001387461783730249 -0.001387461782734558 -0.001387461780746295 -0.0013874617773396154 -0.0013874617745115773 -0.0013874617743200614
-0.0013874617537191982 -0.0013874617430344517 -0.0013874617218632924 -0.0013874616705139898 -0.001387461575877129 -0.0013874614903655728 -0.0013874614442177535 -0.0013874609899251426
-0.0013874610564003657 -0.0013874601466407844 -0.0013874585753525768 -0.0013874574719545045 -0.0013874558619990152 -0.0013874527593214904 -0.0013874420693624676 -0.0013874320749288761
-0.0013874221739202499 -0.0013873807460271501 -0.0013873431409012664 -0.001387275920186861 -0.0013871568584637494 -0.0013869578781725619 -0.0013866253078321583 -0.001386296986335507
-0.0013857548434930561 -0.0013850568258140779 -0.0013827678191740327 -0.001380605274903357 -0.0013785025712177176 -0.0013759667844047104 -0.0013806841187541823 -0.0014056834778733319
-0.001396163246249597 -0.0015160722147135905 -0.0018904798816276453 -0.0025486150700965867 -0.002636907616495086 -0.0029974083609345505 -0.006755171774596834 -0.007961003722098367
-0.010398997765873474 -0.010925503753003002 -0.012068655191686664 -0.01112414886299893 -0.013052491327281465 -0.008668452583993905 -0.005800950574158269 -0.00229495941096585
-6.099741726469425e-05 -0.0004075132845059542 -1.2196091976851814e-07 -1.6766563412938747e-07 -3.4825879730852394e-23 -3.412643438719061e-16 -5.706406042648235e-56 -1.0953799198394114e-95
-4.431152659340376e-139 -8.650458623389908e-240 0.0 0.0 0.0 0.0 0.0 0.0
0.0 0.0 0.0 0.0 0.0 0.0 0.0 0.0
0.0 0.0 0.0 0.0 0.0 0.0 0.0 0.0
0.0 0.0 0.0 0.0 -0.0013874617853246627 -0.001387461785317914 -0.0013874617852954398 -0.001387461785273769
-0.0013874617852309085 -0.001387461785189266 -0.0013874617850756113 -0.0013874617849808084 -0.0013874617846060331 -0.001387461784239804 -0.0013874617838580952 -0.0013874617825948296
-0.0013874617808792157 -0.0013874617794488095 -0.0013874617744163297 -0.0013874617656701473 -0.0013874617545239453 -0.0013874617403249808 -0.0013874617157590631 -0.0013874616648505366
-0.00138746158834994 -0.0013874615358583447 -0.0013874613845137422 -0.001387461122322656 -0.0013874605730278774 -0.0013874603001623668 -0.0013874589279934426 -0.0013874579078892884
-0.0013874535288406237 -0.001387451741433449 -0.001387440602590611 -0.0013874302152187114 -0.0013874194344785373 -0.001387390842201157 -0.0013873359313171718 -0.0013873068330977466
-0.0013871917832922514 -0.0013869680915427837 -0.0013867588581413387 -0.0013862712701421423 -0.0013853446755713746 -0.001384929495639828 -0.0013831138714897747 -0.0013813331376408395
-0.001378266985232025 -0.0013749627472474733 -0.001382446339697128 -0.0013835272607328948 -0.0014400688015018667 -0.0016354801756319117 -0.0017037964247453758 -0.002119572439344364
-0.0033196102017560743 -0.002807659211756336 -0.005938780992510681 -0.00920890411936212 -0.009834691848226346 -0.010765536774651916 -0.011753782281998843 -0.011282156605352634
-0.012649728508413643 -0.012038803565864582 -0.006994598268884725 -0.0011666150559052038 -0.0023192805237934933 -0.0004002435005934047 -1.2174115158006698e-07 -7.701327769794656e-16
-7.450808207369728e-11 -3.4126434387189336e-16 -1.0756746284783109e-24 -3.1263097791359466e-38 -4.431152691680342e-139 -4.173686563542547e-94 -1.531491876266023e-241 0.0
0.0 0.0 0.0 0.0 0.0 0.0 0.0 0.0
0.0 0.0 0.0 0.0 0.0 0.0 0.0 0.0
0.0 0.0 0.0 0.0 0.0 0.0 0.0 0.0
-0.0013874617853224538 -0.0013874617853104232 -0.0013874617852977205 -0.0013874617852805422 -0.001387461785257148 -0.0013874617851611368 -0.0013874617850608045 -0.0013874617850014787
-0.0013874617846462542 -0.0013874617843366442 -0.0013874617836945942 -0.0013874617825832421 -0.0013874617821236141 -0.0013874617785311883 -0.0013874617749475733 -0.0013874617673395764
-0.0013874617606409662 -0.0013874617423716477 -0.0013874617148267876 -0.0013874616936208873 -0.0013874616372947964 -0.0013874614721929807 -0.001387461324655837 -0.0013874611821986236
-0.0013874604890254567 -0.0013874599524809383 -0.001387459437734224 -0.0013874574786687682 -0.0013874540330989723 -0.0013874508772437808 -0.001387443761515012 -0.0013874331574301056
-0.0013874202879232216 -0.0013873894315534546 -0.0013873432145498847 -0.0013872715476233133 -0.001387198031636946 -0.001387001414993721 -0.001386718784066252 -0.0013862510720028573
-0.0013858861761790408 -0.001384586424059405 -0.0013826772721197364 -0.0013802343269862325 -0.001378893260242883 -0.0013764030621758907 -0.0013743627637385568 -0.0013857795058678493
-0.0014437807533159547 -0.0015107158373498441 -0.0018723672240732684 -0.0024725118259497723 -0.003949081852151206 -0.004842764073486898 -0.0074701377289540325 -0.007563310838620513
00000000: f6b0 83bf 6fbb 56bf e800 83bf 6fbb 56bf
00000010: a18b 82bf 6fbb 56bf c2d4 7fbf 6fbb 56bf
00000020: c53c 7ebf 6fbb 56bf 8e63 79bf 6fbb 56bf
00000030: 2608 72bf 6fbb 56bf e33c 68bf 6fbb 56bf
00000040: 04cf 57bf 6fbb 56bf 5f7a 48bf 6fbb 56bf
00000050: 6a99 13bf 6fbb 56bf a388 cdbe 6fbb 56bf
00000060: 479f 41be 6fbb 56bf fee5 51bd 6fbb 56bf
00000070: 96e4 8abc 6fbb 56bf 8b6a 7dbc 6fbb 56bf
00000080: 62c2 d3b6 6fbb 56bf 1ae3 e3b3 6fbb 56bf
00000090: 6719 12ae 6fbb 56bf 9ab6 f49f 6fbb 56bf
000000a0: 7a3c f185 6fbb 56bf 3ae5 6f6e 6fbb 56bf
000000b0: 0588 c061 6fbb 56bf e387 e0e4 6ebb 56bf
000000c0: 0c4f 26f7 6ebb 56bf 67ab 13fd 6dbb 56bf
000000d0: 7517 2a4d 6cbb 56bf de5a dd1d 6bbb 56bf
000000e0: 1acf 5263 69bb 56bf b949 770e 66bb 56bf
000000f0: d64b 0894 5abb 56bf 3e8e c8d8 4fbb 56bf
00000100: 3403 3737 45bb 56bf 7f33 9abb 18bb 56bf
00000110: d4b7 c85a f0ba 56bf 7076 4b2d a8ba 56bf
00000120: 1487 db55 28ba 56bf 1852 92ae 52b9 56bf
00000130: a11d 5596 edb7 56bf b9b5 010e 8db6 56bf
00000140: c0b8 eaee 46b4 56bf f93c 4771 59b1 56bf
00000150: 5990 eca3 bfa7 56bf 0002 48a0 ad9e 56bf
00000160: 8945 7edd db95 56bf efbc b815 398b 56bf
00000170: cac6 b648 029f 56bf cd3c 3924 dd07 57bf
00000180: 4598 e1de eedf 56bf 8e0b 2825 ded6 58bf
00000190: bb46 fb50 3ff9 5ebf a37b 094c d5e0 64bf
000001a0: 62a3 36ff fe99 65bf 1a4c 415c 058e 68bf
000001b0: feb1 9c9d 4fab 7bbf abb8 09d5 db4d 80bf
000001c0: 335b 86da 114c 85bf a3e5 7d4a 1c60 86bf
000001d0: 8807 d77a 73b7 88bf f4d3 7ffc 41c8 86bf
000001e0: b854 0ebb 43bb 8abf e268 d702 c4c0 81bf
000001f0: d80d 07d0 bcc2 77bf 6e30 b4f3 e0cc 62bf
00000200: 7beb 5f4c effa 0fbf ad98 c93a f0b4 3abf
00000210: a060 6998 8b5e 80be 42a8 b183 f280 86be
00000220: ba1b c13a 0b0d 45bb 2adf 9e4c 3797 b8bc
00000230: 69d0 f68d 2663 76b4 7566 9522 ad65 37ac
00000240: 14be 6570 7e1b 35a3 dd00 7b8e 37d7 4c8e
00000250: 0000 0000 0000 0000 0000 0000 0000 0000
00000260: 0000 0000 0000 0000 0000 0000 0000 0000
00000270: 0000 0000 0000 0000 0000 0000 0000 0000
00000280: 0000 0000 0000 0000 0000 0000 0000 0000
00000290: 0000 0000 0000 0000 0000 0000 0000 0000
000002a0: 0000 0000 0000 0000 0000 0000 0000 0000
000002b0: 0000 0000 0000 0000 0000 0000 0000 0000
000002c0: 0000 0000 0000 0000 0000 0000 0000 0000
000002d0: 0000 0000 0000 0000 0000 0000 0000 0000
000002e0: 0000 0000 0000 0000 0000 0000 0000 0000
000002f0: 0000 0000 0000 0000 0000 0000 0000 0000
00000300: 0000 0000 0000 0000 0000 0000 0000 0000
00000310: 0000 0000 0000 0000 0000 0000 0000 0000
00000320: d1cb 83bf 6fbb 56bf 3e52 83bf 6fbb 56bf
00000330: 62bd 81bf 6fbb 56bf ff36 80bf 6fbb 56bf
00000340: e432 7dbf 6fbb 56bf ba44 7abf 6fbb 56bf
00000350: 4e45 72bf 6fbb 56bf 7d99 6bbf 6fbb 56bf
00000360: 233a 51bf 6fbb 56bf bd74 37bf 6fbb 56bf
00000370: 7c98 1cbf 6fbb 56bf 84b3 c3be 6fbb 56bf
00000380: c3f9 4abe 6fbb 56bf db51 e6bd 6fbb 56bf
00000390: c230 84bc 6fbb 56bf 8bbb 1cba 6fbb 56bf
000003a0: 6b63 0cb7 6fbb 56bf 9d39 25b3 6fbb 56bf
000003b0: 628d 64ac 6fbb 56bf e62e 669e 6fbb 56bf
000003c0: aaee 5e89 6fbb 56bf 262a f17a 6fbb 56bf
000003d0: 2b3c 5751 6fbb 56bf 742d 4509 6fbb 56bf
000003e0: 6afe 4772 6ebb 56bf 5eca 4627 6ebb 56bf
000003f0: 8bfc 18ae 6cbb 56bf ca89 b195 6bbb 56bf
00000400: 0d62 fde1 66bb 56bf e8c8 abf6 64bb 56bf
00000410: 1767 d900 59bb 56bf 3916 97d9 4dbb 56bf
00000420: 80f0 3346 42bb 56bf 7a49 d192 23bb 56bf
00000430: dc56 079d e8ba 56bf 382e 925e c9ba 56bf
00000440: 97d9 ebd5 4dba 56bf 655b 00a6 5db9 56bf
00000450: 45a8 5cfc 7cb8 56bf 4e7a 3171 71b6 56bf
00000460: c62b d184 8eb2 56bf c1c7 06b9 d0b0 56bf
00000470: 4171 0f36 33a9 56bf 36c7 aa29 bba1 56bf
00000480: 0550 1ce8 de94 56bf 23e0 1602 0387 56bf
00000490: c47e 5174 66a6 56bf 5a56 a115 efaa 56bf
000004a0: bc1e 031a 1698 57bf d8ae 8677 b3cb 5abf
000004b0: d5b9 177b 3dea 5bbf 1a20 dfc9 105d 61bf
000004c0: e877 1028 ba31 6bbf 5a12 c58f 1600 67bf
000004d0: 164a 4162 4353 78bf ef80 3230 1edc 82bf
000004e0: eabf d5fe 3524 84bf dfd6 f7e2 3d0c 86bf
000004f0: f73d 0bf4 5d12 88bf dacc 2f6d 191b 87bf
00000500: d0ae f9d1 19e8 89bf 2a6f c9dc cca7 88bf
00000510: 902b 042d 5ea6 7cbf f2cd c660 231d 53bf
00000520: 0d88 ff3f e2ff 62bf ba1e d8be f83a 3abf
00000530: 6a21 727e fe56 80be 669d 4f9b 38bf cbbc
00000540: a3ee 5b48 0a7b d4bd 28de 9e4c 3797 b8bc
00000550: 8c0e a496 7bce f4ba 4b37 84c1 cc46 25b8
00000560: 3960 fb72 7e1b 35a3 ce43 cfca f3db 8bac
00000570: 9517 5ada d656 f08d 0000 0000 0000 0000
00000580: 0000 0000 0000 0000 0000 0000 0000 0000
00000590: 0000 0000 0000 0000 0000 0000 0000 0000
000005a0: 0000 0000 0000 0000 0000 0000 0000 0000
000005b0: 0000 0000 0000 0000 0000 0000 0000 0000
000005c0: 0000 0000 0000 0000 0000 0000 0000 0000
000005d0: 0000 0000 0000 0000 0000 0000 0000 0000
000005e0: 0000 0000 0000 0000 0000 0000 0000 0000
000005f0: 0000 0000 0000 0000 0000 0000 0000 0000
00000600: 0000 0000 0000 0000 0000 0000 0000 0000
00000610: 0000 0000 0000 0000 0000 0000 0000 0000
00000620: 0000 0000 0000 0000 0000 0000 0000 0000
00000630: 0000 0000 0000 0000 0000 0000 0000 0000
00000640: 06a4 83bf 6fbb 56bf 4dcb 82bf 6fbb 56bf
00000650: 78e6 81bf 6fbb 56bf 03b1 80bf 6fbb 56bf
00000660: 940b 7fbf 6fbb 56bf ff49 78bf 6fbb 56bf
00000670: 923a 71bf 6fbb 56bf da0d 6dbf 6fbb 56bf
00000680: b20e 54bf 6fbb 56bf 4245 3ebf 6fbb 56bf
00000690: 1d17 11bf 6fbb 56bf c6e2 c2be 6fbb 56bf
000006a0: da8a a2be 6fbb 56bf 76bf a5bd 6fbb 56bf
000006b0: cb92 a9bc 6fbb 56bf 4e35 92ba 6fbb 56bf
000006c0: dfd5 bab8 6fbb 56bf 163f b5b3 6fbb 56bf
000006d0: 00f3 22ac 6fbb 56bf 76b7 4ea6 6fbb 56bf
000006e0: d01e d396 6fbb 56bf e91c 7169 6fbb 56bf
000006f0: 021c e340 6fbb 56bf ff92 ba19 6fbb 56bf
00000700: 55d9 305b 6ebb 56bf 8fe2 b4c7 6dbb 56bf
00000710: 1ece 363a 6dbb 56bf 4ad4 b51f 6bbb 56bf
00000720: e568 996c 67bb 56bf d6d7 1f09 64bb 56bf
00000730: 1cf2 2a65 5cbb 56bf c7ce 5602 51bb 56bf
00000740: 26c5 cb30 43bb 56bf 9cc7 0f0f 22bb 56bf
00000750: 6347 076f f0ba 56bf 2ea8 5f7b a3ba 56bf
00000760: f104 748b 54ba 56bf 4ac0 e16d 81b9 56bf
00000770: c251 e2f4 51b8 56bf 13c8 2bc1 5bb6 56bf
00000780: 66e7 5ef3 d3b4 56bf bc80 3a5a 60af 56bf
00000790: 6510 8a6a 5ea7 56bf a8ec e452 1f9d 56bf
000007a0: 2556 465d 7f97 56bf ce9b d788 0d8d 56bf
000007b0: 66d3 e0c7 7e84 56bf 7710 0f6a 61b4 56bf
000007c0: b6b9 8ec7 a7a7 57bf dc9d 5bc7 66c0 58bf
000007d0: 6874 95ff 46ad 5ebf 1441 cead 3b41 64bf
000007e0: c2ab 7796 e92c 70bf d2fe 1595 01d6 73bf
000007f0: aa2b e1d3 0199 7ebf 93c2 38cb b4fa 7ebf
