Glass vehicle float_all_kernel.csv.npy (npy, 400080 bytes, 1 tensors)

array f8 [20, 5, 5, 100]
0	0xbf72990475fc0da3	-0.004540460038473001
1	0xbf72990475f405d5	-0.004540460038016521
2	0xbf72990475e55006	-0.0045404600371803435
3	0xbf72990475c97607	-0.004540460035597166
4	0xbf72990475b1f88e	-0.004540460034261907
5	0xbf72990475773a5d	-0.004540460030922758
6	0xbf729904753a094b	-0.0045404600274444136
7	0xbf7299047533f5f6	-0.0045404600270990605
8	0xbf72990474135013	-0.004540460010691322
9	0xbf729904727a9edf	-0.00454045998745986
10	0xbf7299046e8f9eb5	-0.004540459930445874
11	0xbf7299046cb03401	-0.004540459903194184
12	0xbf729904687f63ca	-0.004540459842211806
13	0xbf7299046185fb87	-0.004540459740723152
14	0xbf729904554fd26d	-0.0045404595630214985
15	0xbf729904319371fa	-0.004540459042996487
16	0xbf72990429d2705a	-0.0045404589301619395
17	0xbf729903ce7af1f6	-0.004540457600964212
18	0xbf7299039df007ec	-0.004540456894575922
19	0xbf72990321a34f53	-0.004540455085777345
20	0xbf729902b747d6bf	-0.004540453538074806
21	0xbf729900627e6724	-0.004540444853683021
22	0xbf7298fd1971f075	-0.00454043261481384
23	0xbf7298fbda38760b	-0.004540427969485626
24	0xbf7298f7051980ab	-0.004540409967006702
25	0xbf7298eabb056e7f	-0.00454036418554049
26	0xbf7298e2d8772dd0	-0.004540334811689431
27	0xbf7298c91e187a20	-0.004540238967392557
28	0xbf7298a16316266b	-0.004540090959730496
29	0xbf7298757490a9e3	-0.004539927301304011
30	0xbf72983ad95de10c	-0.004539708976033074
31	0xbf72976a52c52e28	-0.004538932157014432
32	0xbf7295ff4f23afa2	-0.00453757982380046
33	0xbf7295fda9d06e9f	-0.00453757369271171
34	0xbf72928279753179	-0.00453425375537752
35	0xbf728d2bc1b70cc8	-0.004529162335020938
36	0xbf728aea22d9f2b7	-0.004527010530747936
37	0xbf727af4ebc47f4f	-0.004511791918304044
38	0xbf7270a88ede33b5	-0.004501970701210324
39	0xbf725d20c23ca23a	-0.004483344997233513
40	0xbf7240bac06dc25a	-0.004456262110452325
41	0xbf723a198474fa3a	-0.004449939420111232
42	0xbf72006cb5ca8d0a	-0.004394936226762578
43	0xbf71eccbbe4332dd	-0.004376216766286159
44	0xbf71de3c6008bb8e	-0.00436233123814035
45	0xbf73b729257ec1f6	-0.004813347557430783
46	0xbf78990266a3866e	-0.006005296114581433
47	0xbf7e1fec6443873e	-0.0073546632813490925
48	0xbf82aa133c2b349b	-0.00911345507975119
49	0xbf8a27ad211396e0	-0.012770989009776412
50	0xbf8aeafd1d5147ce	-0.013143517930220752
51	0xbf8e11cb3e4cea22	-0.014682376707800652
52	0xbf94ab4af49d1157	-0.02018468015673255
53	0xbf9624496ca51cee	-0.02162279821029938
54	0xbf9478a1c6a1c07a	-0.019991424320722186
55	0xbf79340fd201ad6a	-0.006153165624805149
56	0xbf617a77e9cfbef2	-0.002133592801776157
57	0xbf86e9ca33761dcf	-0.011188106246449529
58	0xbf6f5470eb7c0008	-0.003824444338420111
59	0xbf5773ae40a413c6	-0.0014313890156369843
60	0xbd405128d1fbb263	-1.1593946508651237e-13
61	0xbe9f6438c3065f32	-4.6776966924334757e-07
62	0xbdd71a02722e65ac	-8.404313056711656e-11
63	0xbca2478158839d21	-1.2683824414134685e-16
64	0xbab10df18e98e95c	-5.510595530126344e-26
65	0x8641df634c968ca9	-1.575367828697023e-278
66	0xb010d2fa82fad725	-3.632401642264108e-77
67	0x0000000000000000	0.0
68	0x9e21256cbd39853a	-1.488743941604132e-163
69	0x8a6f6b2582f475ee	-2.0434299231435028e-258
70	0x0000000000000000	0.0
71	0x0000000000000000	0.0
72	0x0000000000000000	0.0
73	0x0000000000000000	0.0
74	0x0000000000000000	0.0
75	0x0000000000000000	0.0
76	0x0000000000000000	0.0
77	0x0000000000000000	0.0
78	0x0000000000000000	0.0
79	0x0000000000000000	0.0
80	0x0000000000000000	0.0
81	0x0000000000000000	0.0
82	0x0000000000000000	0.0
83	0x0000000000000000	0.0
84	0x0000000000000000	0.0
85	0x0000000000000000	0.0
86	0x0000000000000000	0.0
87	0x0000000000000000	0.0
88	0x0000000000000000	0.0
89	0x0000000000000000	0.0
90	0x0000000000000000	0.0
91	0x0000000000000000	0.0
92	0x0000000000000000	0.0
93	0x0000000000000000	0.0
94	0x0000000000000000	0.0
95	0x0000000000000000	0.0
96	0x0000000000000000	0.0
97	0x0000000000000000	0.0
98	0x0000000000000000	0.0
99	0x0000000000000000	0.0
100	0xbf7299047604368b	-0.004540460038936832
101	0xbf72990475ef4300	-0.004540460037745886
102	0xbf72990475ecb107	-0.004540460037599787
103	0xbf72990475d03022	-0.004540460035979551
104	0xbf72990475c300ae	-0.004540460035230049
105	0xbf7299047565cde0	-0.0045404600299323306
106	0xbf7299047544ec92	-0.0045404600280633135
107	0xbf72990474931291	-0.004540460017953622
108	0xbf729904744e41f0	-0.004540460014041944
109	0xbf72990473059079	-0.004540459995357898
110	0xbf729904713f06d0	-0.004540459969520419
111	0xbf7299046e53ed76	-0.004540459927052756
112	0xbf7299046ae1c441	-0.004540459876907711
113	0xbf729904583a8750	-0.004540459605466854
114	0xbf72990452ba385f	-0.004540459525413792
115	0xbf729904369c4902	-0.004540459116258557
116	0xbf72990429c37923	-0.004540458929311239
117	0xbf729903bd84849e	-0.004540457354125808
118	0xbf729903433796e6	-0.004540455574419266
119	0xbf72990305324c97	-0.004540454671899805
120	0xbf7299023277e99a	-0.004540451605402751
121	0xbf7299023e827088	-0.004540451780624129
122	0xbf7298fdf52baa10	-0.00454043581224052
123	0xbf7298f8416efe62	-0.004540414570271519
124	0xbf7298f763349c9a	-0.004540411336427708
125	0xbf7298e8a4d08a17	-0.004540356411811184
126	0xbf7298e01e52a117	-0.004540324652374992
127	0xbf7298b6e72806a6	-0.004540171112695701
128	0xbf72989bf66bb1d2	-0.004540070751982888
129	0xbf72984d225e907a	-0.004539777093587211
130	0xbf72982cd13c30f6	-0.004539656703638642
131	0xbf7297624fe244ac	-0.004538902312689757
132	0xbf7295d70a29cb06	-0.004537429808453513
133	0xbf7294a9ffef61fa	-0.004536308347234281
134	0xbf729273081af06e	-0.0045341962265262725
135	0xbf728f218c16d044	-0.0045310316503908744
136	0xbf728e6aa5411eee	-0.004530350288469027
137	0xbf727fdeb014c65a	-0.004516477464947844
138	0xbf726ea18cdd8892	-0.004500037246403592
139	0xbf72590217d06a4a	-0.0044794160612818355
140	0xbf725308ba68d0f1	-0.004473718733198449
141	0xbf724fb175871a81	-0.00447053260763275
142	0xbf71fcf2c3e46499	-0.004391620923592709
143	0xbf7239e4b8f14596	-0.004449742743490323
144	0xbf7262732954f9d4	-0.00448842034285098
145	0xbf7418264ef99527	-0.004905843393861609
146	0xbf77a1ca4f1737fa	-0.0057695295995028265
147	0xbf7ade8276ccb1ce	-0.0065598579647425225
148	0xbf88131707c92c41	-0.011755161213974687
149	0xbf8c37b4b8c7959d	-0.01377812565710706
150	0xbf8d19723ef4e826	-0.014208691164288533
151	0xbf85a63cf9e2e5dd	-0.01057098043053178
152	0xbf8dd34179d611be	-0.014563094645162585
153	0xbf93f1dac8976a06	-0.01947728967011566
154	0xbf9620132f45bfd2	-0.0216067311861819
155	0xbf968ff20c2d3d34	-0.022033483498771392
156	0xbf9331fc4d4bc75a	-0.01874536725785645
157	0xbf4d714f40558d82	-0.0008985173196091464
158	0xbf781f20f6263bba	-0.005889061695042603
159	0xbf56dbcf93cb8ee1	-0.0013951804277718071
160	0xbf14d9f09d498ae1	-7.954150289317008e-05
161	0xbe9f6438c30a7ed8	-4.6776966925765427e-07
162	0xbdd71a02722e651c	-8.40431305671147e-11
163	0xbbfd5951a325b5be	-9.943794762296114e-20
164	0xbab10d7fb0af42c2	-5.510034123228923e-26
165	0xb7a280e61aa26ab2	-1.0620494521011388e-40
166	0xb010d2fa82fad721	-3.632401642264105e-77
167	0xaab23910c8174f8d	-5.085097414734429e-103
168	0x0000000000000000	0.0
169	0x8a6ea8a6a12935f2	-1.9940166500401781e-258
170	0x0000000000000000	0.0
171	0x0000000000000000	0.0
172	0x0000000000000000	0.0
173	0x0000000000000000	0.0
174	0x0000000000000000	0.0
175	0x0000000000000000	0.0
176	0x0000000000000000	0.0
177	0x0000000000000000	0.0
178	0x0000000000000000	0.0
179	0x0000000000000000	0.0
180	0x0000000000000000	0.0
181	0x0000000000000000	0.0
182	0x0000000000000000	0.0
183	0x0000000000000000	0.0
184	0x0000000000000000	0.0
185	0x0000000000000000	0.0
186	0x0000000000000000	0.0
187	0x0000000000000000	0.0
188	0x0000000000000000	0.0
189	0x0000000000000000	0.0
190	0x0000000000000000	0.0
191	0x0000000000000000	0.0
192	0x0000000000000000	0.0
193	0x0000000000000000	0.0
194	0x0000000000000000	0.0
195	0x0000000000000000	0.0
196	0x0000000000000000	0.0
197	0x0000000000000000	0.0
198	0x0000000000000000	0.0
199	0x0000000000000000	0.0
200	0xbf72990475fcec02	-0.004540460038522378
201	0xbf72990475f4423c	-0.004540460038029933
202	0xbf72990475e68da5	-0.0045404600372508696
203	0xbf72990475dbc50e	-0.0045404600366378955
204	0xbf729904759bc055	-0.004540460032998868
205	0xbf72990475bc9986	-0.004540460034866084
206	0xbf72990475000f4c	-0.004540460024148828
207	0xbf72990475285bce	-0.004540460026439553
208	0xbf7299047334fba2	-0.004540459998053333
209	0xbf729904718a78ff	-0.004540459973809029
210	0xbf7299046e7d1609	-0.004540459929392345
211	0xbf7299046f382c12	-0.0045404599400269575
212	0xbf72990463bb022c	-0.004540459772841159
213	0xbf7299046375db1b	-0.004540459768910289
214	0xbf7299044df3c5c5	-0.004540459455925687
215	0xbf7299043805c12a	-0.004540459136805711
216	0xbf7299040ecd3c90	-0.004540458536964512
217	0xbf729904125bab5a	-0.004540458588716623
218	0xbf729903c8278f8e	-0.004540457508912866
219	0xbf729903042f4dc6	-0.004540454657177622
220	0xbf729902894cb2c1	-0.004540452868962931
221	0xbf729900358e81a7	-0.0045404441997622174
222	0xbf7298fdfa6eef21	-0.004540435888823941
223	0xbf7298f9c2da7db1	-0.004540420178869396
224	0xbf7298f4a80672ce	-0.004540401162014885
225	0xbf7298eafbcad093	-0.004540365128082996
226	0xbf7298dcf91fa18c	-0.00454031293518432
227	0xbf7298b73addb10b	-0.004540172330831159
228	0xbf7298a54aafff0c	-0.004540105505838953
229	0xbf72985e13f6b569	-0.004539840213891957
230	0xbf729804dc9aab7d	-0.004539507857468259
231	0xbf7297a01871a401	-0.004539132473930786
232	0xbf72967586243fa3	-0.004538020208442991
233	0xbf72943431aa1392	-0.004535869486635218
234	0xbf7292459d3a16fb	-0.004534027033178618
235	0xbf728d8d616b4ff4	-0.0045295260121811405
236	0xbf728b4ab688d8ed	-0.004527370307689999
237	0xbf727e9830fec14f	-0.004515261170965636
238	0xbf727ac6660b4903	-0.004511618609017501
239	0xbf725e10c66dea02	-0.004484239127914071
240	0xbf724c5f3aff03f9	-0.004467365259132266
241	0xbf7235d73bade8f5	-0.004445877794632337
242	0xbf71e620f44517cd	-0.004369858481657785
243	0xbf7209a0cdf8bf51	-0.004403713362577681
244	0xbf72323126ffd279	-0.004442398072559522
245	0xbf744b04b5a7e092	-0.0049543556183310345
246	0xbf787637b4eff25b	-0.005972116093286485
247	0xbf7cf618cb7ad52a	-0.007070633749824121
248	0xbf82cef43c0c1989	-0.009183796007630434
249	0xbf884339256cc8d2	-0.01184696813070155
250	0xbf887c6cb6566182	-0.011956071199890731
251	0xbf8fe6f3dfa0bf00	-0.015577225935060834
252	0xbf9095aa14b9cbca	-0.01619592429637943
253	0xbf9092fa7be450b0	-0.016185678302534867
254	0xbf93331b505a7dd2	-0.018749644069087364
255	0xbf93fe8990e8beb2	-0.019525670499375543
