Heart Cleveland_all_kernel.csv.npy (npy, 400080 bytes, 1 tensors)

array f8 [20, 5, 5, 100]
-0.000525784056077511 -0.0005257838624948189 -0.0005257835240854495 -0.0005257829418591657 -0.0005257820177698243 -0.0005257809954252878 -0.0005257791479181363 -0.0005257745640195393
-0.0005257698158985169 -0.0005257645790249937 -0.0005257487829606836 -0.0005257323590682063 -0.0005256818051923974 -0.0005256314919534676 -0.0005255509071842641 -0.0005254324994157034
-0.0005252790613011107 -0.0005250345790856661 -0.000524709575000988 -0.000524381185285817 -0.0005245341306626949 -0.0005276722639374679 -0.0005354881066738752 -0.0005656949556802134
-0.0006289182927329952 -0.0007862779129542031 -0.0008545603065877435 -0.0016281931490237963 -0.002735258597196379 -0.003974865631473579 -0.00624802672357992 -0.008173876300421068
-0.010497483301657118 -0.014021311376231266 -0.014421920966669544 -0.014657472763842386 -0.014281360096639575 -0.014478998956836483 -0.013198309720194973 -0.014748486913210939
-0.00845677062660315 -0.0044148375438377635 -0.004815154378880593 -0.0015304975615775128 -0.00012418908682265288 -2.6894875128609553e-05 -1.65966427014158e-08 -8.416815675104153e-11
-1.1964983899930193e-15 -6.855867027112985e-20 -4.4013152114479804e-30 -3.075835357902992e-130 -4.775432287353033e-86 -8.584108096914796e-287 -4.8158193575812285e-214 -3.87266763696975e-283
0.0 0.0 0.0 0.0 0.0 0.0 0.0 0.0
0.0 0.0 0.0 0.0 0.0 0.0 0.0 0.0
0.0 0.0 0.0 0.0 0.0 0.0 0.0 0.0
0.0 0.0 0.0 0.0 0.0 0.0 0.0 0.0
0.0 0.0 0.0 0.0 0.0 0.0 0.0 0.0
0.0 0.0 0.0 0.0 -0.0005257840661763975 -0.0005257838151722896 -0.0005257835600852501 -0.0005257829957647079
-0.0005257821479303026 -0.000525780476947278 -0.0005257792239484066 -0.0005257756324329701 -0.000525769103604586 -0.0005257616812780016 -0.0005257468484695085 -0.00052572711856997
-0.0005256915075740785 -0.0005256290720449435 -0.0005255582777823672 -0.0005254114304745995 -0.000525248566899431 -0.0005250199277040304 -0.000524723920095155 -0.0005244214065503285
-0.0005245827387852565 -0.0005270263062293526 -0.00053275839544884 -0.0005452520183130464 -0.0006092800402609 -0.0007033410959234612 -0.0009298148303135227 -0.0014153197242871246
-0.002401974916346678 -0.0043365979914714164 -0.0058518949521948185 -0.009115582123890676 -0.010999833181009902 -0.012727215078982158 -0.014803600761168715 -0.015327066188830025
-0.015402316064909233 -0.012838904033988786 -0.013348754236449442 -0.012939270493557822 -0.0075095558545857435 -0.007572105232199507 -0.005439556128398434 -0.0017981581561866613
-8.802122872635763e-05 -3.3884481603086807e-05 -6.244034418967945e-07 -8.025171698954003e-11 -1.1974550126475022e-15 -1.2367371119480243e-27 -1.4568258840563703e-35 -7.626814905741581e-65
-4.775432287389691e-86 -2.0095311512819335e-135 -8.844532233908479e-254 0.0 0.0 0.0 0.0 0.0
0.0 0.0 0.0 0.0 0.0 0.0 0.0 0.0
0.0 0.0 0.0 0.0 0.0 0.0 0.0 0.0
0.0 0.0 0.0 0.0 0.0 0.0 0.0 0.0
0.0 0.0 0.0 0.0 0.0 0.0 0.0 0.0
0.0 0.0 0.0 0.0 0.0 0.0 0.0 0.0
-0.0005257840276576387 -0.0005257838459522062 -0.0005257834554678257 -0.0005257830378933827 -0.0005257820275933119 -0.0005257808870002495 -0.00052577878561565 -0.0005257747717646115
-0.0005257708036191478 -0.0005257609453341077 -0.0005257497836504689 -0.000525721375442703 -0.000525701187207879 -0.0005256366371434062 -0.0005255521980474329 -0.0005254273653106398
-0.0005252466771797266 -0.0005250680458418419 -0.0005246795841309345 -0.0005247104218357281 -0.0005249190804384838 -0.0005269310947815575 -0.0005370243864884613 -0.0005627196563443451
-0.0006331772903248504 -0.0006652516029945603 -0.0011436302163260286 -0.00121852973702692 -0.0022331188802606457 -0.0034744856793163066 -0.006178945859173392 -0.009072925825148227
-0.011025936441272012 -0.013352370647594628 -0.014981065169122626 -0.01521480910662216 -0.014809803767039604 -0.01541343089825833 -0.01371101962707941 -0.0160802065086318
-0.01406432614505088 -0.008707143672847716 -0.003998483850336148 -0.002336520454757936 -0.0003073318767704781 -1.602380808125994e-06 -6.973836676291912e-07 -1.8110892847264561e-09
-1.1937308204002604e-15 -6.855866960787165e-20 -1.1643754568999725e-41 -7.626814905740358e-65 -1.0351007862364687e-101 -2.231401121755991e-160 -8.121468785026598e-179 0.0
00000000: 36a0 ada9 983a 41bf b148 413f 983a 41bf
00000010: 3666 3685 973a 41bf 9d55 2145 963a 41bf
00000020: 4e52 1b49 943a 41bf 841e 1117 923a 41bf
00000030: 5d9a 631f 8e3a 41bf 423a 5d47 843a 41bf
00000040: b899 0e15 7a3a 41bf 8a2c 0ed6 6e3a 41bf
00000050: d0c1 13ea 4c3a 41bf 7c61 f2a4 293a 41bf
00000060: 72df a814 bd39 41bf adfe a908 5139 41bf
00000070: 39fa b7fa a338 41bf 4807 5cb3 a537 41bf
00000080: a629 dd31 5c36 41bf a636 582c 4f34 41bf
00000090: 72a1 753b 9531 41bf 70ea 4d05 d42e 41bf
000000a0: f51c ea77 1c30 41bf 3654 ed8e 6f4a 41bf
000000b0: 606e e9f3 ff8b 41bf 3ab6 c5aa 6489 42bf
000000c0: 72f6 e3bf bf9b 44bf 9a71 faf5 c6c3 49bf
000000d0: 6d51 dd48 9200 4cbf 0e7b e714 23ad 5abf
000000e0: 1eef 12c7 4068 66bf 3470 4ade f247 70bf
000000f0: 6eb3 13e7 8797 79bf 6d86 221b 77bd 80bf
00000100: 8073 c45b b47f 85bf 6aac 768e 34b7 8cbf
00000110: dac1 2d77 3d89 8dbf e23c 4db1 bc04 8ebf
00000120: eeb0 75b4 8b3f 8dbf 4bc9 fc57 2aa7 8dbf
00000130: 3dbf e224 b707 8bbf b66b a967 7434 8ebf
00000140: da13 2b8a c851 81bf 0711 e3ed 4a15 72bf
00000150: 0dda 5129 0eb9 73bf c22f 4f3e 5f13 59bf
00000160: 6a3f 0222 1847 20bf cb61 e7be 8933 fcbe
00000170: 46f4 8ae7 0cd2 51be 5e82 afb7 ce22 d7bd
00000180: a48d 32f9 df8d d5bc 0a0c e08b 253c f4bb
00000190: 96dd 6dd9 3b51 d6b9 0d72 86ff 5c4a 0ba5
000001a0: cb0a 2761 d4bf 37ae 4a4a 68e5 6224 8a84
000001b0: de1c dd1b 7ac0 a493 7eb7 f41b 2acb 4c85
000001c0: 0000 0000 0000 0000 0000 0000 0000 0000
000001d0: 0000 0000 0000 0000 0000 0000 0000 0000
000001e0: 0000 0000 0000 0000 0000 0000 0000 0000
000001f0: 0000 0000 0000 0000 0000 0000 0000 0000
00000200: 0000 0000 0000 0000 0000 0000 0000 0000
00000210: 0000 0000 0000 0000 0000 0000 0000 0000
00000220: 0000 0000 0000 0000 0000 0000 0000 0000
00000230: 0000 0000 0000 0000 0000 0000 0000 0000
00000240: 0000 0000 0000 0000 0000 0000 0000 0000
00000250: 0000 0000 0000 0000 0000 0000 0000 0000
00000260: 0000 0000 0000 0000 0000 0000 0000 0000
00000270: 0000 0000 0000 0000 0000 0000 0000 0000
00000280: 0000 0000 0000 0000 0000 0000 0000 0000
00000290: 0000 0000 0000 0000 0000 0000 0000 0000
000002a0: 0000 0000 0000 0000 0000 0000 0000 0000
000002b0: 0000 0000 0000 0000 0000 0000 0000 0000
000002c0: 0000 0000 0000 0000 0000 0000 0000 0000
000002d0: 0000 0000 0000 0000 0000 0000 0000 0000
000002e0: 0000 0000 0000 0000 0000 0000 0000 0000
000002f0: 0000 0000 0000 0000 0000 0000 0000 0000
00000300: 0000 0000 0000 0000 0000 0000 0000 0000
00000310: 0000 0000 0000 0000 0000 0000 0000 0000
00000320: f2ea 3aaf 983a 41bf e43a 3d25 983a 41bf
00000330: b9eb 0099 973a 41bf 74dd c362 963a 41bf
00000340: c2c7 a990 943a 41bf 8bd3 07fa 903a 41bf
00000350: 8ae9 2f49 8e3a 41bf e30c bb92 863a 41bf
00000360: 4424 788d 783a 41bf 598a 009d 683a 41bf
00000370: ee53 94c2 483a 41bf 40d2 f363 1e3a 41bf
00000380: a2b3 99ea d139 41bf a825 4ed6 4b39 41bf
00000390: 3071 bfce b338 41bf d82c 9674 7837 41bf
000003a0: 51a9 63b5 1a36 41bf a68f a9b5 2f34 41bf
000003b0: 6827 c209 b431 41bf 5ea9 2d65 2a2f 41bf
000003c0: 3432 83da 8430 41bf b1e7 eb5f 0445 41bf
000003d0: 32af 4bf1 1975 41bf 2c0d 1acb e7dd 41bf
000003e0: 295a 6bec 02f7 43bf 0d5a a180 0d0c 47bf
000003f0: 56dc cd24 da77 4ebf 6ef6 77fb 4730 57bf
00000400: 5bc8 c476 4ead 63bf 50ce c9a8 40c3 71bf
00000410: df63 0717 28f8 77bf 9a51 d9b8 30ab 82bf
00000420: e8ee 309e 1487 86bf 1a60 44e4 b910 8abf
00000430: 82de 0ea9 5951 8ebf ea7c 3200 cc63 8fbf
00000440: ea63 40de 3f8b 8fbf ba2a 8a87 484b 8abf
00000450: 0567 1a77 9756 8bbf 88d8 d47c e77f 8abf
00000460: 48ce d80c 57c2 7ebf e2bf 5885 ed03 7fbf
00000470: 16d4 d1ba c947 76bf ddad 539e 0576 5dbf
00000480: ea2d e731 0113 17bf efa6 30ec e5c3 01bf
00000490: 152b 88b0 95f3 a4be 3c09 3269 360f d6bd
000004a0: 3175 a75a 4992 d5bc eb28 288e 007f 58ba
000004b0: 41c0 6354 525d b3b8 73aa 98d6 5e10 a0b2
000004c0: 3fd3 2761 d4bf 37ae 6a44 e568 a35e f7a3
000004d0: a189 36b8 09c0 648b 0000 0000 0000 0000
000004e0: 0000 0000 0000 0000 0000 0000 0000 0000
000004f0: 0000 0000 0000 0000 0000 0000 0000 0000
00000500: 0000 0000 0000 0000 0000 0000 0000 0000
00000510: 0000 0000 0000 0000 0000 0000 0000 0000
00000520: 0000 0000 0000 0000 0000 0000 0000 0000
00000530: 0000 0000 0000 0000 0000 0000 0000 0000
00000540: 0000 0000 0000 0000 0000 0000 0000 0000
00000550: 0000 0000 0000 0000 0000 0000 0000 0000
00000560: 0000 0000 0000 0000 0000 0000 0000 0000
00000570: 0000 0000 0000 0000 0000 0000 0000 0000
00000580: 0000 0000 0000 0000 0000 0000 0000 0000
00000590: 0000 0000 0000 0000 0000 0000 0000 0000
000005a0: 0000 0000 0000 0000 0000 0000 0000 0000
000005b0: 0000 0000 0000 0000 0000 0000 0000 0000
000005c0: 0000 0000 0000 0000 0000 0000 0000 0000
000005d0: 0000 0000 0000 0000 0000 0000 0000 0000
000005e0: 0000 0000 0000 0000 0000 0000 0000 0000
000005f0: 0000 0000 0000 0000 0000 0000 0000 0000
00000600: 0000 0000 0000 0000 0000 0000 0000 0000
00000610: 0000 0000 0000 0000 0000 0000 0000 0000
00000620: 0000 0000 0000 0000 0000 0000 0000 0000
00000630: 0000 0000 0000 0000 0000 0000 0000 0000
00000640: 67e2 0d9a 983a 41bf 421e 2936 983a 41bf
00000650: c653 7d5f 973a 41bf edf2 ec79 963a 41bf
00000660: bfda 814e 943a 41bf d2a6 75db 913a 41bf
00000670: a00f 3658 8d3a 41bf 4cbf 92b9 843a 41bf
00000680: d8eb 0f34 7c3a 41bf 2da5 6908 673a 41bf
00000690: f752 3610 4f3a 41bf b283 a20e 123a 41bf
000006a0: 0d0d 09b4 e639 41bf 991a 4315 5c39 41bf
000006b0: 50d1 60c0 a638 41bf 12fa daac 9a37 41bf
000006c0: aa41 81a6 1636 41bf ca6b e30a 9734 41bf
000006d0: dee7 cdd3 5431 41bf 6806 030d 9731 41bf
000006e0: 5ab3 4a24 5733 41bf 33e1 dfe8 3744 41bf
000006f0: 6ef2 ab16 e398 41bf 9213 aa42 6f70 42bf
00000700: a7f3 93e0 79bf 44bf 6acf 71f0 88cc 45bf
00000710: 2b7e 2e98 bbbc 52bf 39b9 a957 e2f6 53bf
00000720: baaf e191 304b 62bf 1662 9e4b 8676 6cbf
00000730: c2f3 3826 184f 79bf da98 957d d394 82bf
00000740: b461 6223 c494 86bf f53d 0bda 7c58 8bbf
00000750: e35c af87 64ae 8ebf 65fc 381c f128 8fbf
00000760: dd86 b736 9a54 8ebf 8d74 04ad 1391 8fbf
00000770: 321c 25e7 8514 8cbf b31e 4564 5477 90bf
00000780: 228a aae6 c1cd 8cbf 2c19 880a 0dd5 81bf
00000790: d2b4 eed5 b660 70bf c45e 11de 0924 63bf
000007a0: 9b69 185c 2c24 34bf 1a1c a654 2ce2 babe
000007b0: 3b69 35e7 7a66 a7be 4ef2 c741 411d 1fbe
000007c0: 7be7 9c9a 1c81 d5bc 7244 9788 253c f4bb
000007d0: e658 e065 a13a 70b7 9ea7 98d6 5e10 a0b2
000007e0: d68a d46b 012f f7aa 411c 694f e218 c99e
000007f0: 95be f199 0610 f59a 0000 0000 0000 0000
