Hepatitis (targetcl. live)_all_kernel.csv.npy (npy, 10080 bytes, 1 tensors)

array f8 [5, 5, 50]
0	0xbf87ca31ee69b504	-0.011616125191006528
1	0xbf87ca3093448fd1	-0.011616115087754427
2	0xbf87ca263990c073	-0.011616037971265513
3	0xbf87c9fac70f4e25	-0.01161571426374681
4	0xbf87c997c3b21bac	-0.011614976558360933
5	0xbf87c91caf772827	-0.011614059548168921
6	0xbf87c733c1d14217	-0.011610416748369308
7	0xbf87c87478ea56d9	-0.011612806263012686
8	0xbf87e4df9de9571f	-0.011667010313583468
9	0xbf88c6c469b5c517	-0.012097868419660913
10	0xbf890728ef394351	-0.012220687675979088
11	0xbf8a2f0cd8228aca	-0.012785053583063716
12	0xbfa6e5cfed20a20d	-0.04472207803366155
13	0xbfb2891035f8fd60	-0.07240392034235787
14	0xbfc48fdb4b291e9c	-0.16064015550567923
15	0xbfd02421d7d8498f	-0.25220533445931265
16	0xbfd3f25f428af704	-0.31166821955035595
17	0xbfd58b51849979ac	-0.3366283221165769
18	0xbfd3df89b519c6e4	-0.3105186718522488
19	0xbfce68fa7ccecbec	-0.2375786885655481
20	0xbfc63aaebbf5d92e	-0.17366584947348812
21	0xbfc6fee1a7459f5b	-0.17965336482597646
22	0xbfc38af32a3e3784	-0.1526779133095567
23	0xbfb6631de13e490b	-0.08744990109542898
24	0xbac4099e5b2d5ee1	-1.2948977777518345e-25
25	0xbd6137c658b3264f	-4.893613060276789e-13
26	0x957b57a043c56915	-3.4065740852884237e-205
27	0xbbfddded07ae6ee8	-1.0119298669155208e-19
28	0xb605a86beed22c83	-1.852366803093635e-48
29	0xa6c110ce550c72ef	-5.163147807611754e-122
30	0x8000000000000000	-0.0
31	0x8000000000000000	-0.0
32	0x8000000000000000	-0.0
33	0x8000000000000000	-0.0
34	0x8000000000000000	-0.0
35	0x8000000000000000	-0.0
36	0x8000000000000000	-0.0
37	0x8000000000000000	-0.0
38	0x8000000000000000	-0.0
39	0x8000000000000000	-0.0
40	0x8000000000000000	-0.0
41	0x8000000000000000	-0.0
42	0x8000000000000000	-0.0
43	0x8000000000000000	-0.0
44	0x8000000000000000	-0.0
45	0x8000000000000000	-0.0
46	0x8000000000000000	-0.0
47	0x8000000000000000	-0.0
48	0x8000000000000000	-0.0
49	0x8000000000000000	-0.0
50	0xbf87ca322c2c2e6c	-0.011616126988449348
51	0xbf87ca2c9153d45b	-0.011616085228960118
52	0xbf87ca268073eda7	-0.011616040034360632
53	0xbf87ca158bfee521	-0.011615913710431304
54	0xbf87c9d72b2d5ce3	-0.011615448956645518
55	0xbf87c8d82d93a3cf	-0.011613549128428517
56	0xbf87c769c14907a1	-0.01161081906423417
57	0xbf87c8f39a3b70c1	-0.011613753456395039
58	0xbf87e0ce758efeb9	-0.01165925308475778
59	0xbf88b4338ed62ed3	-0.012062456890610395
60	0xbf882ab9a937b123	-0.011800241924867344
61	0xbf98841252a04fcf	-0.023941313069442857
62	0xbfa2fe36c3721265	-0.037095748289208065
63	0xbfb6f1b79592f8de	-0.08962581063949268
64	0xbfc50a7821340825	-0.1643819963574639
65	0xbfcf48ff48ab09c0	-0.2444151978325646
66	0xbfd2072d894b441a	-0.2816881027948185
67	0xbfd4e20eb5c6a8e0	-0.3262974524647131
68	0xbfd458d90458fae7	-0.317922834630663
69	0xbfd496d43d175eb7	-0.3217058750719661
70	0xbfd10ad75bef98a7	-0.2662866971790074
71	0xbfa3ebc1798c0597	-0.038908048712993075
72	0xbf5fc9a6183901b2	-0.0019401666658184044
73	0xbf1e63542fcd8173	-0.00011592103323954609
74	0xbedd44382b8d35ec	-6.97767307473788e-06
75	0xbd6137c657a33bc3	-4.893613042282885e-13
76	0xbe5258c58ea337c0	-1.7086755934457267e-08
77	0xbbfddded07ae6f1c	-1.0119298669155271e-19
78	0x96f0568034ed3801	-3.4150646523851614e-198
79	0x8000000000000000	-0.0
80	0x800033635bb10250	-2.791561466473e-310
81	0x8000000000000000	-0.0
82	0x8000000000000000	-0.0
83	0x8000000000000000	-0.0
84	0x8000000000000000	-0.0
85	0x8000000000000000	-0.0
86	0x8000000000000000	-0.0
87	0x8000000000000000	-0.0
88	0x8000000000000000	-0.0
89	0x8000000000000000	-0.0
90	0x8000000000000000	-0.0
91	0x8000000000000000	-0.0
92	0x8000000000000000	-0.0
93	0x8000000000000000	-0.0
94	0x8000000000000000	-0.0
95	0x8000000000000000	-0.0
96	0x8000000000000000	-0.0
97	0x8000000000000000	-0.0
98	0x8000000000000000	-0.0
99	0x8000000000000000	-0.0
100	0xbf87ca3228a569d9	-0.011616126885816523
101	0xbf87ca2e8eac4483	-0.01161610005286407
102	0xbf87ca275a9c8f45	-0.011616046383614917
103	0xbf87ca0def789912	-0.011615857000901762
104	0xbf87c99d3843683d	-0.011615017203826844
105	0xbf87c9373279362d	-0.011614257076099832
106	0xbf87c7f8b01f7719	-0.011611883997769067
107	0xbf87c796d5a7f1e3	-0.011611154933228235
108	0xbf87e2ba5c4d4523	-0.011662918035343644
109	0xbf87e2937f314d00	-0.01166262847815469
110	0xbf8ccf27d8206577	-0.014066993029745884
111	0xbf8ff016f3312264	-0.01559465341246486
112	0xbfa82c7b78c4c474	-0.04721437310434676
113	0xbfb5634c08fb4286	-0.08354640216135509
114	0xbfc72d898f108d8c	-0.18107718930796712
115	0xbfce95a5a9583b09	-0.23894186753064897
116	0xbfd23bc9fbdf06f5	-0.2848992309264838
117	0xbfd5dfae35228499	-0.34177737416218573
118	0xbfd44bdfdac0081f	-0.31713100778881825
119	0xbfd439349936f74d	-0.3159915443646824
120	0xbfc5644ab8dc835a	-0.1671231653827146
121	0xbfb76b8627449fd3	-0.09148443659489595
122	0xbfc3027caeeb6616	-0.14851339856140616
123	0xbf1e2d039a690a62	-0.00011511167995429666
124	0xbf947b5cf6824d09	-0.020001843019213292
125	0xb85905e2671e57fe	-2.941437854578618e-37
126	0x8fe672a65fa612f7	-4.5184359024978465e-232
127	0xbbfddded07ae7115	-1.0119298669155879e-19
128	0x8000000000000000	-0.0
129	0xa6c110ce550c72f5	-5.16314780761176e-122
130	0x800033635bb10250	-2.791561466473e-310
131	0x8000000000000000	-0.0
132	0x8000000000000000	-0.0
133	0x8000000000000000	-0.0
134	0x8000000000000000	-0.0
135	0x8000000000000000	-0.0
136	0x8000000000000000	-0.0
137	0x8000000000000000	-0.0
138	0x8000000000000000	-0.0
139	0x8000000000000000	-0.0
140	0x8000000000000000	-0.0
141	0x8000000000000000	-0.0
142	0x8000000000000000	-0.0
143	0x8000000000000000	-0.0
144	0x8000000000000000	-0.0
145	0x8000000000000000	-0.0
146	0x8000000000000000	-0.0
147	0x8000000000000000	-0.0
148	0x8000000000000000	-0.0
149	0x8000000000000000	-0.0
150	0xbf87ca3368ae8f6e	-0.011616136200082141
151	0xbf87ca2d691f6e9a	-0.011616091509430593
152	0xbf87ca25cf1a4926	-0.011616034872791458
153	0xbf87ca0cb457693c	-0.011615847829422259
154	0xbf87c9af7a57509f	-0.011615153237393648
155	0xbf87c96894eca2fe	-0.011614625019846777
156	0xbf87c77997fde10d	-0.011610937071723027
157	0xbf87c4da482e4a15	-0.011605935409339666
158	0xbf87e2069991fa38	-0.011661578713980977
159	0xbf88c22f61b026cb	-0.012089128655151346
160	0xbf8d84f70da78d61	-0.014413766960336973
161	0xbf98185a93b9dd05	-0.023530402437669035
162	0xbfa4fa6f9d7298a2	-0.04097317501991539
163	0xbfb1e814f94173ca	-0.0699475391897543
164	0xbfc5e2d1b33c960a	-0.170984470861342
165	0xbfce062a48ccf97b	-0.23456314615937032
166	0xbfd4035480683cf9	-0.31270325221790035
167	0xbfd5e462deafe883	-0.342064588039314
168	0xbfd3aebcc431a019	-0.3075401226001318
169	0xbfd47ccf539d5978	-0.3201177898930818
170	0xbfcf6f845a146028	-0.24559072874467458
171	0xbfc77c3110ff1d5e	-0.18347752885731955
172	0xbfc394f61dc2bbfa	-0.15298344090612642
173	0xbd2bc47f0f2429c1	-4.9325101814013705e-14
174	0xbf9476633a6e51c5	-0.019982862893430004
175	0xb2e4222911e14d9c	-1.529427485213424e-63
176	0xbe5258c58ea337ba	-1.7086755934457247e-08
177	0x8acc418e3ad089fe	-1.1761577241516364e-256
178	0xb605a86beed22ca1	-1.852366803093644e-48
179	0x8000000000000000	-0.0
180	0x800033635bb10250	-2.791561466473e-310
181	0x8000000000000000	-0.0
182	0x8000000000000000	-0.0
183	0x8000000000000000	-0.0
184	0x8000000000000000	-0.0
185	0x8000000000000000	-0.0
186	0x8000000000000000	-0.0
187	0x8000000000000000	-0.0
188	0x8000000000000000	-0.0
189	0x8000000000000000	-0.0
190	0x8000000000000000	-0.0
191	0x8000000000000000	-0.0
192	0x8000000000000000	-0.0
193	0x8000000000000000	-0.0
194	0x8000000000000000	-0.0
195	0x8000000000000000	-0.0
196	0x8000000000000000	-0.0
197	0x8000000000000000	-0.0
198	0x8000000000000000	-0.0
199	0x8000000000000000	-0.0
200	0xbf87ca320afaaf82	-0.011616126022395926
201	0xbf87ca313b79292e	-0.011616119983177766
202	0xbf87ca1d104afc52	-0.011615969714851602
203	0xbf87ca11869412cf	-0.011615883750445559
204	0xbf87c9aeb3369259	-0.01161514744200891
205	0xbf87c931ffa08633	-0.011614218343370819
206	0xbf87c8411441917d	-0.011612423353832163
207	0xbf87c84b76ffaf3a	-0.011612500733427223
208	0xbf87e22ba1fe4dd3	-0.011661854630609014
209	0xbf88a05a36009074	-0.012024597905174718
210	0xbf8d967733095af0	-0.014447146649371828
211	0xbf9651311b822c87	-0.021794097236619094
212	0xbfa70971d258c80c	-0.044993931700801765
213	0xbfacf141390e3655	-0.05652812787512277
214	0xbfc480c70558987a	-0.16017997513808152
215	0xbfcf8731e9e6e4f1	-0.24631332322113722
216	0xbfd36db429ad88a3	-0.3035707861910259
217	0xbfd43375d5fdfc2b	-0.31564088723820544
218	0xbfd3ebcc1848ab94	-0.31126692172500126
219	0xbfd145ae4a7e5027	-0.26987797999140856
220	0xbfd55873958def8e	-0.3335236511700196
221	0xbfc65fd3b26d0665	-0.17479940616799464
222	0xbf5f21ac796470dd	-0.0019001182859659717
223	0xbfb6524eb9802521	-0.08719341305563379
224	0xbf947b5cf89f7a34	-0.020001843142262568
225	0xbf3afc15dfc98d41	-0.0004117539790852894
226	0xb99353916f911cf9	-2.3821673930740545e-31
227	0xbbfddded07ae707c	-1.0119298669155695e-19
228	0xb605a86beed22cdb	-1.8523668030936617e-48
229	0xa6c110ce550c7275	-5.163147807611623e-122
230	0x800033635bb10250	-2.791561466473e-310
231	0x8000000000000000	-0.0
232	0x8000000000000000	-0.0
233	0x8000000000000000	-0.0
234	0x8000000000000000	-0.0
235	0x8000000000000000	-0.0
236	0x8000000000000000	-0.0
237	0x8000000000000000	-0.0
238	0x8000000000000000	-0.0
239	0x8000000000000000	-0.0
240	0x8000000000000000	-0.0
241	0x8000000000000000	-0.0
242	0x8000000000000000	-0.0
243	0x8000000000000000	-0.0
244	0x8000000000000000	-0.0
245	0x8000000000000000	-0.0
246	0x8000000000000000	-0.0
247	0x8000000000000000	-0.0
248	0x8000000000000000	-0.0
249	0x8000000000000000	-0.0
250	0xbf87ca33ace03244	-0.01161613818478558
251	0xbf87ca2f7d3c0172	-0.01161610699591684
252	0xbf87ca2151fc20c5	-0.011616001429061726
253	0xbf87ca0f6d759928	-0.011615868118223974
254	0xbf87c9d32f3fabad	-0.011615419272819805
255	0xbf87c8d7dfb85703	-0.01161354686250205
