Liver 2_all_kernel.csv.npy (npy, 10080 bytes, 1 tensors)

array f8 [5, 5, 50]
-0.007135666866586847 -0.007135658840042988 -0.007135647043118589 -0.007135594648662314 -0.007135490724624273 -0.007135208219595863 -0.0071346896336613895 -0.007133577515678429
-0.007131140394000604 -0.007142891668995215 -0.007261870116784622 -0.008041228394779436 -0.01195781558271461 -0.028111920285757236 -0.05265371116771495 -0.1458115566622702
-0.21695772229150523 -0.28348042685713676 -0.32001611813471265 -0.3033418200242835 -0.20550712666550408 -0.105455887432295 -0.0977190515777973 -0.0923311832931175
-3.119773646322403e-08 -2.2419875330516603e-18 -2.124575858823592e-44 -0.0925831443688668 -0.09258314436884678 -0.0925831443688655 -0.0 -0.09258314436884983
-0.09258314436883046 -0.0 -0.09258314436878429 -0.09258314436884661 -0.09258314436886764 -0.09258314436885665 -0.09258314436882362 -0.0
-0.0 -0.0 -0.09258314436882753 -0.0 -0.09258314436885082 -0.0 -0.0 -0.09258314436886798
-0.0 -0.0 -0.007135665296830625 -0.007135658653439643 -0.007135643807801666 -0.007135597066213849 -0.00713553618189021 -0.007135293834152659
-0.0071345242494248355 -0.007133289636768634 -0.007131425635161189 -0.0071431211164761895 -0.007273631610232043 -0.008103155972942831 -0.010498945798938328 -0.028255334131265335
-0.07157666140550722 -0.1433562834642516 -0.20018833373854977 -0.29534391046181957 -0.32772758556147036 -0.2976852313275562 -0.21958548200345718 -0.14565630591742887
-0.021310279839253234 -0.0002892654325697257 -3.119818174706865e-08 -0.09258314432941298 -1.0940946033782577e-65 -5.796815346559442e-111 -2.4520780101960614e-281 -0.09258314436881797
-0.09258314436884874 -0.09258314436886826 -0.09258314436884967 -0.09258314436882459 -0.0 -0.09258314436880292 -0.0 -0.09258314436882872
-0.0925831443688777 -0.09258314436885473 -0.0 -0.09258314436881823 -0.09258314436884604 -0.09258314436881379 -0.0925831443687971 -0.0
-0.0 -0.09258314436886103 -0.0 -0.0 -0.0071356657503947344 -0.0071356609855416555 -0.007135640514943394 -0.007135609253930701
-0.007135505423177202 -0.007135255704145714 -0.007134566628744276 -0.007133158652068056 -0.0071325524229439545 -0.007134749483381968 -0.007269997592073419 -0.007976758711478515
-0.012264437158828984 -0.027773036813151332 -0.065791611209992 -0.1337114664176634 -0.19513123822012635 -0.2761190988521704 -0.329525499596191 -0.29071081903006657
-0.20576540207139427 -0.15002170534095205 -0.015766431216380675 -0.00032157458364591337 -3.118077772762808e-08 -6.832675847579037e-31 -5.893254608249869e-48 -5.7968153752023245e-111
-0.09258314436887706 -0.09258314436883879 -0.0 -0.0 -0.0925831443688574 -0.0 -0.0 -0.0925831443688137
-0.09258314436883923 -0.09258314436881485 -0.0 -0.0 -0.09258314436882735 -0.0 -0.0 -0.09258314436883514
-0.09258314436883029 -0.0 -0.0 -0.0 -0.0 -0.0 -0.007135666008779506 -0.007135660309571624
-0.00713564034828123 -0.00713561492725526 -0.007135487402264481 -0.007135218263939863 -0.007134643766062616 -0.007133281627781212 -0.007132699206451425 -0.007144926405361159
-0.007253787938572967 -0.008116922813897939 -0.011127935432277487 -0.032564938486170786 -0.07487062894967748 -0.10241869898973678 -0.20448900054587332 -0.268736493504541
-0.33407489419217523 -0.29047487615213574 -0.21782469498209012 -0.11995949872895166 -0.09089109843476667 -0.09208393739132692 -8.942025833958482e-09 -6.832871656455013e-31
-0.0925831443687977 -2.8137829970701627e-204 -1.2244320033846525e-304 -0.0 -0.0 -0.0 -0.0 -0.09258314436885567
-0.09258314436885641 -0.0 -0.0 -0.0 -0.0 -0.09258314436880906 -0.0 -0.0
-0.09258314436885437 -0.0 -0.0 -0.09258314436885903 -0.09258314436882933 -0.09258314436881812 -0.0 -0.0
-0.007135666406633268 -0.007135658802020132 -0.007135640097986828 -0.007135598370540878 -0.007135481145419863 -0.007135211771837572 -0.007134690048426935 -0.0071332448640886925
-0.007131011169537309 -0.007146088442405686 -0.007267328549524753 -0.0080478818452754 -0.012043604093434902 -0.02887768908485201 -0.0804290585680582 -0.130239014435334
-0.18896646163961614 -0.29815950779839906 -0.3383876125576794 -0.2905043053554739 -0.22172143823899346 -0.1467291873782573 -0.011608366187081488 -0.09248022789624312
-8.958762910310647e-09 -8.783638788791524e-20 -5.893254608249416e-48 -0.0925831443688235 -0.09258314436886245 -0.09258314436884697 -0.0925831443688543 -0.09258314436883286
-0.0 -0.0 -0.09258314436885956 -0.0 -0.09258314436880956 -0.09258314436885935 -0.0925831443688561 -0.09258314436883269
-0.092583144368803 -0.09258314436884865 -0.0 -0.09258314436886286 -0.09258314436886758 -0.0925831443688436 -0.0 -0.0
-0.09258314436885338 -0.09258314436880914 -0.007135666609718446 -0.007135659074732194 -0.007135649193255132 -0.007135602009933144 -0.007135515277072116 -0.007135159920547552
00000000: 85f8 3bfd 493a 7dbf 9684 a7d5 473a 7dbf
00000010: 42d4 f9aa 443a 7dbf 81ce 749a 363a 7dbf
00000020: 82cb d9b4 1a3a 7dbf d4c6 40df ce39 7dbf
00000030: 9389 4caa 4339 7dbf ec13 2222 1938 7dbf
00000040: d01b 68ec 8a35 7dbf ac12 e061 dd41 7dbf
00000050: 2adc 8c6a 9fbe 7dbf dc4c cd67 eb77 80bf
00000060: 50f7 dfd6 567d 88bf 5835 0509 5fc9 9cbf
00000070: 59ec f45e 6df5 aabf 8024 9ffd f3a9 c2bf
00000080: 34a7 ed48 45c5 cbbf d914 9a16 8b24 d2bf
00000090: b236 65e2 247b d4bf cddb 20cf f369 d3bf
000000a0: 4cc7 0fba 0e4e cabf cc3e b133 28ff babf
000000b0: e307 b9a2 1d04 b9bf 8f19 a534 04a3 b7bf
000000c0: 2b04 9fc4 c8bf 60be 28c9 d74e bead 44bc
000000d0: 8b23 6b80 ad52 deb6 16a2 3969 87b3 b7bf
000000e0: 739c 3969 87b3 b7bf b8a1 3969 87b3 b7bf
000000f0: 0000 0000 0000 0080 4f9d 3969 87b3 b7bf
00000100: db97 3969 87b3 b7bf 0000 0000 0000 0080
00000110: dc8a 3969 87b3 b7bf 679c 3969 87b3 b7bf
00000120: 52a2 3969 87b3 b7bf 3a9f 3969 87b3 b7bf
00000130: ee95 3969 87b3 b7bf 0000 0000 0000 0080
00000140: 0000 0000 0000 0080 0000 0000 0000 0080
00000150: 0897 3969 87b3 b7bf 0000 0000 0000 0080
00000160: 969d 3969 87b3 b7bf 0000 0000 0000 0080
00000170: 0000 0000 0000 0080 6ba2 3969 87b3 b7bf
00000180: 0000 0000 0000 0080 0000 0000 0000 0080
00000190: fc86 5c91 493a 7dbf d5c1 d4c8 473a 7dbf
000001a0: 2c88 a5cc 433a 7dbf b2d2 9640 373a 7dbf
000001b0: 7179 a6e8 263a 7dbf eafc a3da e539 7dbf
000001c0: 7547 2e45 1739 7dbf 0abd 3edb cb37 7dbf
000001d0: 55ac 077e d735 7dbf 7dd8 62f9 1a42 7dbf
000001e0: 4abf 399e f4ca 7dbf 2c77 2f2f 6398 80bf
000001f0: d894 caa6 7880 85bf db16 2060 f7ee 9cbf
00000200: a8bd e41b d952 b2bf 36d9 93aa 7f59 c2bf
00000210: aa51 3975 c59f c9bf af66 2025 eae6 d2bf
00000220: 99f2 7e1f 7df9 d4bf 8875 435b 460d d3bf
00000230: a4cc f087 601b ccbf 3d8e 2fa7 dda4 c2bf
00000240: 77ad e9ab 5cd2 95bf e9c2 9f92 11f5 32bf
00000250: 11a8 616f d8bf 60be d240 0e69 87b3 b7bf
00000260: 9bc6 2b26 7a6f 72b2 4390 cf3b b1e1 0ba9
00000270: 1ed3 cb1b 907c ac85 5794 3969 87b3 b7bf
00000280: 009d 3969 87b3 b7bf 7fa2 3969 87b3 b7bf
00000290: 439d 3969 87b3 b7bf 3496 3969 87b3 b7bf
000002a0: 0000 0000 0000 0080 1b90 3969 87b3 b7bf
000002b0: 0000 0000 0000 0080 5e97 3969 87b3 b7bf
000002c0: 27a5 3969 87b3 b7bf b09e 3969 87b3 b7bf
000002d0: 0000 0000 0000 0080 6a94 3969 87b3 b7bf
000002e0: 3e9c 3969 87b3 b7bf 2a93 3969 87b3 b7bf
000002f0: 778e 3969 87b3 b7bf 0000 0000 0000 0080
00000300: 0000 0000 0000 0080 76a0 3969 87b3 b7bf
00000310: 0000 0000 0000 0080 0000 0000 0000 0080
00000320: 23b6 87b0 493a 7dbf 9687 1769 483a 7dbf
00000330: e2f4 5cea 423a 7dbf c567 1f86 3a3a 7dbf
00000340: 0079 eda6 1e3a 7dbf d8cf 5d9e db39 7dbf
00000350: b326 77a5 2239 7dbf 5484 0bb2 a837 7dbf
00000360: ecfa 4bf6 0537 7dbf dff4 23bb 5339 7dbf
00000370: 4136 661e 25c7 7dbf 80df 596e 1e56 80bf
00000380: 8a15 02e4 181e 89bf dad7 4af3 8870 9cbf
00000390: 0881 7f12 b8d7 b0bf bc99 ae13 751d c1bf
000003a0: c4ad 4a77 0ffa c8bf 7fbf d770 efab d1bf
000003b0: 49ad fd1e f216 d5bf eef5 148d 019b d2bf
000003c0: 3cc0 454c 8556 cabf b094 1047 e933 c3bf
000003d0: a4c3 cb49 1325 90bf ed78 ea51 2013 35bf
000003e0: e618 e915 74bd 60be dfaa f6cd 74b7 abb9
000003f0: a70a 114d db39 21b6 a644 1f3e b1e1 0ba9
00000400: f9a4 3969 87b3 b7bf 339a 3969 87b3 b7bf
00000410: 0000 0000 0000 0080 0000 0000 0000 0080
00000420: 709f 3969 87b3 b7bf 0000 0000 0000 0080
00000430: 0000 0000 0000 0080 2393 3969 87b3 b7bf
00000440: 539a 3969 87b3 b7bf 7693 3969 87b3 b7bf
00000450: 0000 0000 0000 0080 0000 0000 0000 0080
00000460: fb96 3969 87b3 b7bf 0000 0000 0000 0080
00000470: 0000 0000 0000 0080 2c99 3969 87b3 b7bf
00000480: cf97 3969 87b3 b7bf 0000 0000 0000 0080
00000490: 0000 0000 0000 0080 0000 0000 0000 0080
000004a0: 0000 0000 0000 0080 0000 0000 0000 0080
000004b0: b343 49c2 493a 7dbf 34bd a33a 483a 7dbf
000004c0: 3901 e9de 423a 7dbf 2396 fd0b 3c3a 7dbf
000004d0: 2f39 8ad0 193a 7dbf b9be 7e91 d139 7dbf
000004e0: d434 4d5a 3739 7dbf 4624 dfb4 c937 7dbf
000004f0: 78c0 2e5d 2d37 7dbf 22c6 e493 ff43 7dbf
00000500: d01d 7edf 25b6 7dbf eb20 3df0 9a9f 80bf
00000510: ea6f 0736 3eca 86bf bcb5 9603 5aac a0bf
00000520: a312 c5b6 b82a b3bf d9e7 a8a2 1c38 babf
00000530: 823d de10 b22c cabf 82ff b58c fa32 d1bf
00000540: 5915 3eaa 7b61 d5bf 4684 58ef 2397 d2bf
00000550: c8c8 9afa ade1 cbbf a3a9 e26b aab5 bebf
00000560: e45b 4697 a344 b7bf 4029 951b d092 b7bf
00000570: 03c4 b541 ee33 43be 066d 06dc a8b7 abb9
00000580: a38e 3969 87b3 b7bf df27 c91e fe3a ac95
00000590: 8c89 99ec e17e d580 0000 0000 0000 0080
000005a0: 0000 0000 0000 0080 0000 0000 0000 0080
000005b0: 0000 0000 0000 0080 f49e 3969 87b3 b7bf
000005c0: 299f 3969 87b3 b7bf 0000 0000 0000 0080
000005d0: 0000 0000 0000 0080 0000 0000 0000 0080
000005e0: 0000 0000 0000 0080 d591 3969 87b3 b7bf
000005f0: 0000 0000 0000 0080 0000 0000 0000 0080
00000600: 969e 3969 87b3 b7bf 0000 0000 0000 0080
00000610: 0000 0000 0000 0080 e69f 3969 87b3 b7bf
00000620: 8a97 3969 87b3 b7bf 6294 3969 87b3 b7bf
00000630: 0000 0000 0000 0080 0000 0000 0000 0080
00000640: c061 a0dd 493a 7dbf de9c 0ad3 473a 7dbf
00000650: 73c7 b5cd 423a 7dbf 6bc9 389a 373a 7dbf
00000660: 18a6 9222 183a 7dbf 4479 5cd3 cf39 7dbf
00000670: 882b cdc6 4339 7dbf 576c 7dd6 bf37 7dbf
00000680: 124f 2b3c 6835 7dbf dba6 7882 3745 7dbf
00000690: a522 31a7 58c4 7dbf 09c8 9e6a 687b 80bf
000006a0: 9a7f a82d 51aa 88bf 2361 d0e8 1c92 9dbf
000006b0: 2ba8 32b0 ff96 b4bf 37de d409 acab c0bf
000006c0: 0339 6492 0d30 c8bf c213 bf9d 0b15 d3bf
000006d0: d3a1 5384 24a8 d5bf 5455 b65e 9f97 d2bf
000006e0: eb7e 073b 5e61 ccbf 3a42 94a2 05c8 c2bf
000006f0: 3a6c 1189 20c6 87bf 314b 57c2 c8ac b7bf
00000700: 5cc5 6fca 213d 43be cefe e3d5 baec f9bb
00000710: 3209 114d db39 21b6 e695 3969 87b3 b7bf
00000720: dca0 3969 87b3 b7bf 819c 3969 87b3 b7bf
00000730: 919e 3969 87b3 b7bf 8898 3969 87b3 b7bf
00000740: 0000 0000 0000 0080 0000 0000 0000 0080
00000750: 0ca0 3969 87b3 b7bf 0000 0000 0000 0080
00000760: f991 3969 87b3 b7bf fd9f 3969 87b3 b7bf
00000770: 139f 3969 87b3 b7bf 7c98 3969 87b3 b7bf
00000780: 2090 3969 87b3 b7bf fa9c 3969 87b3 b7bf
00000790: 0000 0000 0000 0080 faa0 3969 87b3 b7bf
000007a0: 4ea2 3969 87b3 b7bf 8e9b 3969 87b3 b7bf
000007b0: 0000 0000 0000 0080 0000 0000 0000 0080
000007c0: 4f9e 3969 87b3 b7bf db91 3969 87b3 b7bf
000007d0: 1518 95eb 493a 7dbf cf36 c8e5 473a 7dbf
000007e0: 656e bb3e 453a 7dbf 12a7 5194 383a 7dbf
000007f0: 7706 154c 213a 7dbf daee 2ae8 c139 7dbf
