Liver 2_all_kernel.csv.npy (npy, 400080 bytes, 1 tensors)

array f8 [20, 5, 5, 100]
000000 cf 73 76 b7 d4 61 37 bf 26 02 82 15 d4 61 37 bf
       -0.0003567833259355253 -0.00035678317863843884
000010 75 64 f4 46 d3 61 37 bf e6 6b 53 65 d2 61 37 bf
       -0.00035678299077940924 -0.0003567827855712177
000020 d3 02 5b f7 d0 61 37 bf ad 9d e3 6a ce 61 37 bf
       -0.00035678245272312037 -0.00035678185930839817
000030 04 e6 74 8a c7 61 37 bf c0 aa b6 44 c0 61 37 bf
       -0.00035678025820437575 -0.0003567785649588977
000040 d9 72 aa dc b4 61 37 bf a5 a2 1d 28 9d 61 37 bf
       -0.00035677590919096013 -0.00035677038987684046
000050 e2 5d 7d 80 84 61 37 bf 59 15 7c 63 56 61 37 bf
       -0.0003567646494863891 -0.00035675391289687535
000060 cf c7 6b e6 14 61 37 bf 86 62 c3 09 81 60 37 bf
       -0.00035673866516028064 -0.0003567042383685676
000070 7f dc e6 be 43 60 37 bf 64 45 63 0b b8 5f 37 bf
       -0.0003566899676132398 -0.0003566574408867178
000080 4a 20 e3 5d 9a 5e 37 bf 87 bb 77 3f 83 5e 37 bf
       -0.0003565909263554308 -0.000356585543584247
000090 48 5d 90 48 cc 67 37 bf 7c 67 b3 02 92 79 37 bf
       -0.00035713899029717446 -0.000358198306185657
0000a0 b5 08 1a 07 6f b0 37 bf 9e 2e 06 21 05 2f 38 bf
       -0.00036146841657836863 -0.00036901354999295
0000b0 2c 70 2c 50 06 f1 38 bf f6 09 3d cf 4f c3 3d bf
       -0.0003805771267921833 -0.00045414637064680686
0000c0 10 f2 0a d2 62 82 43 bf 90 d0 51 c1 3e 36 4d bf
       -0.0005953772088883053 -0.0008914762899068385
0000d0 70 cd 50 6a a1 39 53 bf 1a b2 64 37 da ef 60 bf
       -0.0011734081574673282 -0.002067495540492692
0000e0 82 64 06 ef 64 37 6c bf 9e 3e bf ea a1 51 72 bf
       -0.0034443827973516536 -0.004472382057386119
0000f0 cf d6 7c ce 92 b0 78 bf 62 2b 8a 1d d5 b6 80 bf
       -0.0060277685768618935 -0.008161225284558152
000100 0a 4d cf 44 2b 1f 84 bf 71 08 f7 25 80 22 89 bf
       -0.009825075185210714 -0.012272835882758156
000110 b3 05 eb 5c 15 47 8a bf fb f2 a2 a2 14 28 90 bf
       -0.012830893419393563 -0.01577789538054029
000120 35 ea a9 88 ab 56 90 bf 4a cc 88 77 83 4f 90 bf
       -0.01595562001828395 -0.015928320093916683
000130 8b 61 d2 26 75 2a 8e bf e3 93 b1 ea c7 2f 8c bf
       -0.014729418990371076 -0.013763009881765547
000140 41 ab c9 85 ea ec 86 bf fe a4 4b 46 89 46 85 bf
       -0.011194069106939987 -0.01038844342970657
000150 13 57 a5 f2 c7 e8 7c bf 5d 0a 3b 18 fc 97 73 bf
       -0.007057934805137628 -0.0047836158225345845
000160 53 b3 04 64 7a b4 57 bf 66 e1 e4 e8 75 52 1b bf
       -0.001446837923207063 -0.00010422558464007677
000170 56 e5 e6 86 5b 20 14 bf 69 af 54 4e 80 7b 82 be
       -7.677611004099547e-05 -1.3770480859189928e-07
000180 6a a5 d1 c7 f1 f5 72 bf 8b c1 66 73 f9 f5 72 bf
       -0.004629082160229595 -0.004629110734115103
000190 d6 e2 c6 ed 05 f6 72 bf a6 26 47 2c 4a f4 d7 b8
       -0.0046291572183967036 -7.208471944774534e-35
0001a0 0e b6 c7 ed 05 f6 72 bf 13 a3 e3 d2 5c 06 70 b4
       -0.0046291572184436035 -4.084650414564706e-56
0001b0 54 a7 c7 ed 05 f6 72 bf 7c f5 79 00 00 00 00 80
       -0.004629157218440334 -3.9489185e-317
0001c0 f2 6d 54 03 7c 08 f4 92 00 00 00 00 00 00 00 00
       -2.2700332314197676e-217 0.0
0001d0 97 b1 c7 ed 05 f6 72 bf 00 00 00 00 00 00 00 00
       -0.004629157218442612 0.0
0001e0 e5 ac c7 ed 05 f6 72 bf 8a af c7 ed 05 f6 72 bf
       -0.00462915721844157 -0.004629157218442157
0001f0 00 00 00 00 00 00 00 00 00 00 00 00 00 00 00 00
       0.0 0.0
000200 1b b1 c7 ed 05 f6 72 bf 00 00 00 00 00 00 00 00
       -0.004629157218442505 0.0
000210 9d a9 c7 ed 05 f6 72 bf 00 00 00 00 00 00 00 00
       -0.004629157218440841 0.0
000220 00 00 00 00 00 00 00 00 00 00 00 00 00 00 00 00
       0.0 0.0
000230 4a b1 c7 ed 05 f6 72 bf 00 00 00 00 00 00 00 00
       -0.004629157218442545 0.0
000240 00 00 00 00 00 00 00 00 9e b3 c7 ed 05 f6 72 bf
       0.0 -0.004629157218443062
000250 9e a7 c7 ed 05 f6 72 bf 00 00 00 00 00 00 00 00
       -0.004629157218440398 0.0
000260 5b a6 c7 ed 05 f6 72 bf 00 00 00 00 00 00 00 00
       -0.004629157218440118 0.0
000270 1d b4 c7 ed 05 f6 72 bf 00 00 00 00 00 00 00 00
       -0.0046291572184431725 0.0
000280 00 00 00 00 00 00 00 00 8e b7 c7 ed 05 f6 72 bf
       0.0 -0.004629157218443937
000290 00 00 00 00 00 00 00 00 00 00 00 00 00 00 00 00
       0.0 0.0
0002a0 00 00 00 00 00 00 00 00 00 00 00 00 00 00 00 00
       0.0 0.0
0002b0 81 b4 c7 ed 05 f6 72 bf 53 ac c7 ed 05 f6 72 bf
       -0.004629157218443259 -0.004629157218441443
0002c0 00 00 00 00 00 00 00 00 44 b3 c7 ed 05 f6 72 bf
       0.0 -0.004629157218442984
0002d0 07 b0 c7 ed 05 f6 72 bf 67 af c7 ed 05 f6 72 bf
       -0.004629157218442265 -0.004629157218442126
0002e0 00 00 00 00 00 00 00 00 3e b1 c7 ed 05 f6 72 bf
       0.0 -0.004629157218442535
0002f0 64 ad c7 ed 05 f6 72 bf 00 00 00 00 00 00 00 00
       -0.00462915721844168 0.0
000300 06 b3 c7 ed 05 f6 72 bf fd af c7 ed 05 f6 72 bf
       -0.0046291572184429305 -0.0046291572184422565
000310 00 00 00 00 00 00 00 00 0d b1 c7 ed 05 f6 72 bf
       0.0 -0.0046291572184424925
000320 ba 08 98 a4 d4 61 37 bf ad bc 25 22 d4 61 37 bf
       -0.0003567833087744322 -0.0003567831901340562
000330 88 66 e0 38 d3 61 37 bf be bf 78 92 d1 61 37 bf
       -0.00035678297797545793 -0.0003567825938004496
000340 8c 37 84 e7 cf 61 37 bf 02 28 7e 86 cd 61 37 bf
       -0.0003567822054869544 -0.0003567816515831491
000350 a3 b6 7b ee c6 61 37 bf 38 72 01 57 c1 61 37 bf
       -0.00035678011634741375 -0.00035677881442611496
000360 78 54 35 2a b8 61 37 bf 82 93 56 51 a3 61 37 bf
       -0.00035677667820738874 -0.0003567718243522798
000370 be af 2f f3 85 61 37 bf 8d f7 f0 05 35 61 37 bf
       -0.00035676498663294784 -0.0003567461444083868
000380 2e a3 6d 69 fb 60 37 bf d1 2c d5 ae a0 60 37 bf
       -0.00035673273071394867 -0.0003567116062483502
000390 7a 33 19 fd 09 60 37 bf f3 75 f9 66 3b 5f 37 bf
       -0.00035667652000342216 -0.00035662842035385985
0003a0 db f9 43 50 3c 5f 37 bf 42 e7 09 70 99 60 37 bf
       -0.00035662863253085674 -0.0003567099193230069
0003b0 00 0f 21 8e 57 61 37 bf 3c 3f b6 1e 2e 75 37 bf
       -0.00035675418451240615 -0.0003579366300181413
0003c0 1a 86 d2 4c 85 b6 37 bf 56 c7 97 fa 79 79 38 bf
       -0.0003618312301317553 -0.00037345149993860593
0003d0 b1 cd ff 2a 6d 9e 38 bf 28 f1 5d 40 80 b0 3b bf
       -0.000375653889022244 -0.00042250758303176645
0003e0 14 b4 df 1e 94 66 43 bf 8a fc 72 da ce f7 49 bf
       -0.0005920623059388918 -0.0007924804712259464
0003f0 03 8c 90 db f1 81 53 bf 18 f6 f2 4c 20 d8 5a bf
       -0.001190649212966078 -0.0016384425578474023
000400 9c 25 41 b4 e4 45 69 bf d5 5c cc d2 2e df 6f bf
       -0.0030850855710339974 -0.0038906015892155956
000410 1d 01 a5 78 c4 6b 7c bf cb dd 44 f2 a4 68 7c bf
       -0.006938712564363206 -0.006935734101993283
000420 75 45 cf 08 40 48 83 bf fc ff 50 d2 5c 3d 88 bf
       -0.009415149945115367 -0.011835789841029502
000430 0b ce 60 91 ea 81 8d bf cd 55 ce c8 9f 4d 8f bf
       -0.014407951890553347 -0.015284775081265157
000440 65 cb 6b 3d 6f 76 91 bf da 42 71 a0 b3 57 90 bf
       -0.017053354381413217 -0.01595955530894142
000450 7a d1 21 a6 8d 40 8f bf f6 af 05 6d 7c 98 8b bf
       -0.015259844429444714 -0.013474437787145615
000460 b9 b5 80 5b f8 2e 86 bf 10 af 9e f9 c6 31 81 bf
       -0.0108317759441786 -0.008395723812860051
000470 d6 da 9a 31 23 11 7a bf 66 e4 fa bf 0e 90 79 bf
       -0.0063639998203856765 -0.0062408996743040564
000480 a2 89 ef 35 73 4b 74 bf a8 30 55 00 4b f3 40 bf
       -0.004954767266982437 -0.0005172840325626997
000490 be cc 69 98 01 e2 72 bf c9 a0 69 a6 33 ec 72 bf
       -0.0046100675887032466 -0.004619790800099285
0004a0 c6 5f 5c 9c 00 f6 72 bf 05 90 27 0d 02 f6 72 bf
       -0.004629137407185574 -0.0046291427738403045
0004b0 79 d4 b9 e3 05 f6 72 bf 2c 6a c7 ed 05 f6 72 bf
       -0.0046291570721353975 -0.004629157218426754
0004c0 3e a9 c7 ed 05 f6 72 bf 00 0a 3f d4 d1 43 2a ac
       -0.004629157218440759 -6.148192860274621e-96
0004d0 39 b4 c7 ed 05 f6 72 bf f5 e4 2a 6a 30 41 82 a3
       -0.004629157218443197 -1.2263244349731314e-137
0004e0 bc ab c7 ed 05 f6 72 bf 55 a3 c7 ed 05 f6 72 bf
       -0.004629157218441312 -0.004629157218439446
0004f0 d9 af c7 ed 05 f6 72 bf 00 00 00 00 00 00 00 00
       -0.004629157218442225 0.0
000500 82 ac c7 ed 05 f6 72 bf 00 00 00 00 00 00 00 00
       -0.004629157218441484 0.0
000510 00 00 00 00 00 00 00 00 00 00 00 00 00 00 00 00
       0.0 0.0
000520 00 00 00 00 00 00 00 00 11 b6 c7 ed 05 f6 72 bf
       0.0 -0.004629157218443606
000530 00 00 00 00 00 00 00 00 31 aa c7 ed 05 f6 72 bf
       0.0 -0.004629157218440969
000540 00 00 00 00 00 00 00 00 00 00 00 00 00 00 00 00
       0.0 0.0
000550 fa ad c7 ed 05 f6 72 bf 00 00 00 00 00 00 00 00
       -0.00462915721844181 0.0
000560 00 00 00 00 00 00 00 00 00 00 00 00 00 00 00 00
       0.0 0.0
000570 00 00 00 00 00 00 00 00 00 00 00 00 00 00 00 00
       0.0 0.0
000580 00 00 00 00 00 00 00 00 00 00 00 00 00 00 00 00
       0.0 0.0
000590 96 b4 c7 ed 05 f6 72 bf 00 00 00 00 00 00 00 00
       -0.004629157218443277 0.0
0005a0 00 00 00 00 00 00 00 00 00 00 00 00 00 00 00 00
       0.0 0.0
0005b0 2c b5 c7 ed 05 f6 72 bf 00 00 00 00 00 00 00 00
       -0.0046291572184434075 0.0
0005c0 4a ad c7 ed 05 f6 72 bf 5a b2 c7 ed 05 f6 72 bf
       -0.004629157218441657 -0.004629157218442781
0005d0 a6 b5 c7 ed 05 f6 72 bf 5a b4 c7 ed 05 f6 72 bf
       -0.004629157218443513 -0.004629157218443225
0005e0 e6 ac c7 ed 05 f6 72 bf 76 a9 c7 ed 05 f6 72 bf
       -0.0046291572184415705 -0.004629157218440807
0005f0 00 00 00 00 00 00 00 00 00 00 00 00 00 00 00 00
       0.0 0.0
000600 a0 ab c7 ed 05 f6 72 bf 00 00 00 00 00 00 00 00
       -0.004629157218441288 0.0
000610 16 b3 c7 ed 05 f6 72 bf 00 00 00 00 00 00 00 00
       -0.004629157218442944 0.0
000620 00 00 00 00 00 00 00 00 00 00 00 00 00 00 00 00
       0.0 0.0
000630 00 00 00 00 00 00 00 00 00 00 00 00 00 00 00 00
       0.0 0.0
000640 8d b8 a5 ca d4 61 37 bf 8f 93 a6 31 d4 61 37 bf
       -0.0003567833433838562 -0.00035678320423420616
000650 d8 18 55 9c d3 61 37 bf 04 f8 d2 64 d1 61 37 bf
       -0.00035678306843002277 -0.0003567825522842185
000660 df 60 5e 79 d0 61 37 bf 34 03 5c c1 cb 61 37 bf
       -0.00035678233813875125 -0.0003567812394607462
000670 52 86 c3 33 c8 61 37 bf 03 01 09 bb be 61 37 bf
       -0.0003567804121883167 -0.0003567782069105048
000680 0f d7 51 de af 61 37 bf 9b bf 39 73 a1 61 37 bf
       -0.00035677474654193046 -0.0003567713895113956
000690 76 d3 10 0b 8a 61 37 bf 8d 58 ee 2d 53 61 37 bf
       -0.0003567659396737569 -0.0003567531656981725
0006a0 1a 7c db 4c 02 61 37 bf 57 c5 61 f5 95 60 37 bf
       -0.0003567343345433641 -0.00035670910927539573
0006b0 38 69 9b 8e 23 60 37 bf 76 e0 43 43 2a 5f 37 bf
       -0.00035668247310884386 -0.00035662442975548743
0006c0 4e c8 0b 42 a1 5e 37 bf c6 63 bc ae bf 5e 37 bf
       -0.00035659253084852495 -0.0003565996146206975
0006d0 d4 b5 b6 f4 34 67 37 bf e7 6f b0 4c 52 78 37 bf
       -0.00035710375660865973 -0.0003581238676717544
0006e0 bb 67 ac 16 ac 82 37 bf 89 22 6b 89 14 6a 38 bf
       -0.000358740819750399 -0.00037253381144045826
0006f0 f2 35 4a eb 87 51 39 bf 4b 99 ed 17 06 56 3d bf
       -0.0003863293489211043 -0.00044763230100954417
000700 e2 cf 0c da 19 de 41 bf b7 24 be 73 a4 bc 45 bf
       -0.0005452753285681811 -0.000663357066046497
000710 47 e6 cd 6a 61 f6 54 bf 98 60 a7 20 94 00 60 bf
       -0.0012794448223004838 -0.0019534009090698794
000720 96 1d 2c 04 fc 89 65 bf 98 27 8b 18 a2 96 6f bf
       -0.0026292726701091047 -0.0038560071883226403
000730 f2 4e a7 dc 65 d1 76 bf 65 f8 ff 32 02 f8 7f bf
       -0.0055707911473807815 -0.007804878798195335
000740 4e cd 65 45 02 2b 83 bf da d0 4f 80 17 45 87 bf
       -0.009359376662109977 -0.011362250903382099
000750 6b bb 62 3c 7e 64 8c bf 5c 11 24 2d b7 1d 90 bf
       -0.01386355039389083 -0.01573835576074721
000760 e0 15 6a 4e 6a 43 91 bf 34 f8 f1 75 3e 3f 91 bf
       -0.016858731304202013 -0.016842819165042225
000770 ba 58 fe 08 35 72 90 bf a6 82 04 ef ef 91 8c bf
       -0.01606066577331753 -0.013950228196848723
000780 3a 8d 48 ee d8 34 88 bf 86 62 d1 ea 7e e5 82 bf
       -0.011819548389275004 -0.009226790944169904
000790 38 49 c6 c2 50 01 7f bf 3f e2 0c 40 81 13 77 bf
       -0.007569613906883092 -0.005633835681515153
0007a0 d0 6d 33 21 01 b6 74 bf a7 cc d0 e3 d2 8f 31 bf
       -0.005056385434012836 -0.00026797197989765004
0007b0 86 f9 e3 e6 d8 e3 72 bf fb e3 94 4f 1c ed 72 bf
       -0.0046118233424280505 -0.004620657529181389
0007c0 4d ab ae 33 36 f5 72 bf 9d 21 14 7d 4d 45 99 bd
       -0.004628383375272116 -5.745895039587047e-12
0007d0 92 10 6b ac 18 cd 5c bb dd 85 08 a8 89 2b 1c bb
       -9.529503719937203e-23 -5.8254337781961855e-24
0007e0 c6 af c7 ed 05 f6 72 bf 60 59 cd 5c cd 43 2a ac
       -0.004629157218442209 -6.14817690639046e-96
0007f0 92 12 44 fd 70 29 e7 ad fa a5 c7 ed 05 f6 72 bf
       -1.4554090927742761e-87 -0.0046291572184400335
