Sonar (targetcl. mines)_all_kernel.csv.npy (npy, 400080 bytes, 1 tensors)

array f8 [20, 5, 5, 100]
000000 fa ac 37 83 a2 41 45 bf 14 e6 28 83 a2 41 45 bf
       -0.0006486934202575561 -0.0006486934201525595
000010 5a d1 0b 83 a2 41 45 bf a2 b9 d5 82 a2 41 45 bf
       -0.0006486934199459269 -0.0006486934195615755
000020 92 ad a0 82 a2 41 45 bf 81 f9 1f 82 a2 41 45 bf
       -0.000648693419184653 -0.0006486934182701605
000030 29 b6 5c 81 a2 41 45 bf b6 74 20 80 a2 41 45 bf
       -0.000648693416882733 -0.0006486934146356013
000040 a6 8c 5d 7e a2 41 45 bf da bd eb 7a a2 41 45 bf
       -0.000648693411431718 -0.0006486934051660967
000050 c4 9d 15 76 a2 41 45 bf 4e 4c f7 6e a2 41 45 bf
       -0.0006486933963686871 -0.0006486933834203375
000060 aa 8e b2 64 a2 41 45 bf 3a 9d bb 52 a2 41 45 bf
       -0.0006486933647420108 -0.0006486933320645546
000070 ee c4 f7 33 a2 41 45 bf 47 c5 47 00 a2 41 45 bf
       -0.0006486932761033107 -0.0006486931820843055
000080 77 8b b5 b8 a1 41 45 bf 0f 79 f7 37 a1 41 45 bf
       -0.0006486930518970609 -0.0006486928177158751
000090 32 1e c4 79 a0 41 45 bf 48 ed c2 48 9f 41 45 bf
       -0.0006486924717429897 -0.0006486919169427586
0000a0 c2 49 6d 55 9d 41 45 bf de 06 c4 5c 9a 41 45 bf
       -0.0006486910086585462 -0.0006486896250239257
0000b0 4c 4a a2 6e 95 41 45 bf d7 c5 82 e4 8c 41 45 bf
       -0.0006486873292195854 -0.0006486833526848046
0000c0 89 d3 31 73 80 41 45 bf a2 9c 69 f1 6b 41 45 bf
       -0.0006486775586283948 -0.0006486680093304063
0000d0 4e 6e 71 1c 4c 41 45 bf a1 4e 1b dd 23 41 45 bf
       -0.0006486531864413143 -0.0006486344447815437
0000e0 b8 4a 96 b1 cb 40 45 bf 4b 81 ec 13 5e 40 45 bf
       -0.0006485933874265859 -0.000648542343558525
0000f0 fa 15 05 0a 7b 3f 45 bf 17 23 af 5a 84 3e 45 bf
       -0.0006484366204310692 -0.0006483217488205431
000100 8a e0 aa 90 67 3c 45 bf bb bc 10 57 cf 39 45 bf
       -0.0006480699242592685 -0.0006477606203868705
000110 56 f1 a3 12 f3 34 45 bf 11 68 29 4d 2a 2e 45 bf
       -0.0006471812132811487 -0.0006463724660747979
000120 4e 1c 3b 94 91 25 45 bf ff 60 58 8d c0 18 45 bf
       -0.0006453476748554761 -0.0006438198276468575
000130 9e 02 a8 28 0e 0a 45 bf df 65 86 05 f9 0d 45 bf
       -0.0006420678267318907 -0.0006425348210996016
000140 23 8c 2b 34 32 34 45 bf cf 43 a1 3c 4b b8 45 bf
       -0.000647091401642878 -0.0006628386847841119
000150 9b e0 04 14 77 c1 47 bf 73 ef 8b c7 2f 37 4d bf
       -0.0007249671398659342 -0.0008915885256039882
000160 75 6c 25 a8 b5 5d 55 bf 2e b6 9b 73 6d 54 60 bf
       -0.0013040803902047125 -0.0019933831907710453
000170 ca 97 29 1c 08 ac 6a bf f3 2b b9 ab f4 e3 74 bf
       -0.0032558592222810866 -0.005100208039560339
000180 73 9d 06 50 d4 74 80 bf e3 e5 2c 86 44 97 85 bf
       -0.008035334293551277 -0.01054242643805287
000190 7a 15 69 29 74 d5 88 bf 00 a6 06 62 25 08 8b bf
       -0.01212588073134201 -0.01319913106347581
0001a0 22 f5 91 de 8f e9 90 bf 4b a5 4f d9 1c a5 89 bf
       -0.016515968284228973 -0.01252195871525665
0001b0 39 89 e3 4c 88 4b 87 bf 72 4a 15 0a 9f d0 75 bf
       -0.011374535414181085 -0.00532590985069935
0001c0 59 44 ce ed 0b 58 68 bf ce 10 56 d6 b8 43 68 bf
       -0.0029716713892829314 -0.00296197987580813
0001d0 33 76 63 48 d8 b9 4c bf 28 a7 28 ae f0 0a 79 be
       -0.000876646620578908 -9.329145770538019e-08
0001e0 0e cb f9 f9 72 1c f8 bd 69 60 f4 7e 86 9d 68 be
       -3.508631111132735e-10 -4.584963153082501e-08
0001f0 b4 c3 16 2e 1a 80 b8 bd a9 01 8d be 85 36 63 b8
       -2.2282983514405305e-11 -4.5169494853366675e-37
000200 19 66 9b 4e 89 19 e4 ba f4 b2 f3 60 8c a9 00 b6
       -5.195663958276583e-25 -1.425100888843778e-48
000210 e3 97 99 f4 07 d7 b6 b3 da f5 15 06 b3 c8 50 a7
       -1.4213345201712626e-59 -2.5999004710446874e-119
000220 3f 34 c2 7d 71 e2 f2 98 ed 94 a5 f0 c3 1a ba 8f
       -1.6953884923788576e-188 -6.568097850646853e-233
000230 00 00 00 00 00 00 00 00 00 00 00 00 00 00 00 00
       0.0 0.0
000240 00 00 00 00 00 00 00 00 00 00 00 00 00 00 00 00
       0.0 0.0
000250 00 00 00 00 00 00 00 00 00 00 00 00 00 00 00 00
       0.0 0.0
000260 00 00 00 00 00 00 00 00 00 00 00 00 00 00 00 00
       0.0 0.0
000270 00 00 00 00 00 00 00 00 00 00 00 00 00 00 00 00
       0.0 0.0
000280 00 00 00 00 00 00 00 00 00 00 00 00 00 00 00 00
       0.0 0.0
000290 00 00 00 00 00 00 00 00 00 00 00 00 00 00 00 00
       0.0 0.0
0002a0 00 00 00 00 00 00 00 00 00 00 00 00 00 00 00 00
       0.0 0.0
0002b0 00 00 00 00 00 00 00 00 00 00 00 00 00 00 00 00
       0.0 0.0
0002c0 00 00 00 00 00 00 00 00 00 00 00 00 00 00 00 00
       0.0 0.0
0002d0 00 00 00 00 00 00 00 00 00 00 00 00 00 00 00 00
       0.0 0.0
0002e0 00 00 00 00 00 00 00 00 00 00 00 00 00 00 00 00
       0.0 0.0
0002f0 00 00 00 00 00 00 00 00 00 00 00 00 00 00 00 00
       0.0 0.0
000300 00 00 00 00 00 00 00 00 00 00 00 00 00 00 00 00
       0.0 0.0
000310 00 00 00 00 00 00 00 00 00 00 00 00 00 00 00 00
       0.0 0.0
000320 98 a1 38 83 a2 41 45 bf 86 f7 26 83 a2 41 45 bf
       -0.0006486934202643456 -0.0006486934201388329
000330 2a 8b 0a 83 a2 41 45 bf af 7b dd 82 a2 41 45 bf
       -0.0006486934199368734 -0.0006486934196166995
000340 6c 94 93 82 a2 41 45 bf a7 dd 23 82 a2 41 45 bf
       -0.0006486934190915845 -0.0006486934182978091
000350 8b 91 4f 81 a2 41 45 bf 10 e6 35 80 a2 41 45 bf
       -0.0006486934167893461 -0.0006486934147879615
000360 bc b0 17 7e a2 41 45 bf 00 a3 23 7b a2 41 45 bf
       -0.0006486934109353397 -0.0006486934055632554
000370 52 9b d7 76 a2 41 45 bf e6 d3 ea 6f a2 41 45 bf
       -0.0006486933977470721 -0.0006486933851507198
000380 9a c5 f2 61 a2 41 45 bf 9b bb 2e 4e a2 41 45 bf
       -0.0006486933597413147 -0.0006486933237875749
000390 a8 ba f5 30 a2 41 45 bf 5d b4 12 01 a2 41 45 bf
       -0.0006486932706318465 -0.0006486931835262378
0003a0 7e e9 9a ab a1 41 45 bf 75 9a 21 3d a1 41 45 bf
       -0.0006486930280609619 -0.0006486928271101771
0003b0 66 43 d8 7d a0 41 45 bf 38 b4 e0 34 9f 41 45 bf
       -0.0006486924791620885 -0.0006486918807745495
0003c0 fe e4 a0 71 9d 41 45 bf 94 fa 82 55 9a 41 45 bf
       -0.0006486910599569349 -0.000648689611828806
0003d0 4a 11 6a ab 95 41 45 bf 71 05 eb b7 8d 41 45 bf
       -0.0006486874397784528 -0.0006486837372322985
0003e0 fe d0 65 02 83 41 45 bf af c5 3e 0c 6e 41 45 bf
       -0.0006486787504358658 -0.0006486689894613008
0003f0 34 10 5e 13 49 41 45 bf 16 cf 04 9d 19 41 45 bf
       -0.0006486517729489328 -0.0006486296715934893
000400 c2 50 c4 6c c8 40 45 bf a7 03 86 03 4d 40 45 bf
       -0.0006485918652594724 -0.0006485343974845695
000410 9c ee 7a 47 9c 3f 45 bf 47 f4 ca 8e 4e 3e 45 bf
       -0.0006484520990492518 -0.0006482966978961301
000420 5b 1c 07 50 52 3c 45 bf 43 8e 6c 73 f6 39 45 bf
       -0.0006480600277932834 -0.0006477788327611884
000430 2e 8a 9c 23 2e 35 45 bf 3a 90 fd 12 5e 2d 45 bf
       -0.0006472087181673186 -0.0006462773653592776
000440 16 f4 2b 1b ee 25 45 bf 07 07 a8 bf 1d 19 45 bf
       -0.0006453907611497802 -0.0006438632256619844
000450 e2 0d b1 3c b4 0c 45 bf 19 22 b2 38 6d 12 45 bf
       -0.000642383581528735 -0.0006430657680463497
000460 fa f4 86 6e 17 29 45 bf 6c e8 3e 54 b0 e9 45 bf
       -0.0006457676327539512 -0.0006687270147189956
000470 4a d2 fe 49 a4 41 47 bf 9a 1a 67 6f 95 58 4d bf
       -0.000709729403743761 -0.0008955697692776988
000480 7e a3 aa f3 74 3c 54 bf 8d 49 89 9a 17 36 5f bf
       -0.0012351171596185202 -0.0019049864296404068
000490 58 48 2e a2 d9 2c 6b bf e2 a7 97 48 d7 43 74 bf
       -0.0033172846464788845 -0.004947510672971918
0004a0 38 f7 e8 27 69 4c 80 bf 06 5d 76 ce 3a 73 85 bf
       -0.007958241968590948 -0.01047368948529349
0004b0 6c 17 99 bb b7 87 89 bf 72 15 7a f3 4d ec 8d bf
       -0.012465892231499708 -0.014610871308159832
0004c0 6e 19 d0 62 20 ee 8f bf cd bd 72 9e a1 29 8b bf
       -0.015590909019022017 -0.013262999198871217
0004d0 88 4e c3 f9 c9 da 8b bf c5 f4 92 9a ea 21 72 bf
       -0.013600900587710699 -0.00442687646971968
0004e0 e5 2d 63 0b 6a 0d 7a bf c9 e6 f9 a2 5b d5 61 bf
       -0.006360449062593675 -0.002176932313713607
0004f0 26 8f 4d 60 56 1b 33 bf 4a de 70 a9 56 94 20 bf
       -0.0002915464286188267 -0.00012649114498385273
000500 6d 37 2d 55 e2 04 d9 bd a9 7c 0a 9f 3f 01 68 be
       -9.10188775860687e-11 -4.471256776394535e-08
000510 4e 29 be 6b 38 92 b8 bd 78 61 d7 14 8a b2 a1 bc
       -2.2347352036522243e-11 -1.2280051597209599e-16
000520 45 66 9b 4e 89 19 e4 ba 4d 8c 7b 3a 79 00 3a ad
       -5.195663958276624e-25 -7.977844433465889e-91
000530 4a fa 7f 6e 94 47 4d a2 65 f6 15 06 b3 c8 50 a7
       -1.8758467035485955e-143 -2.599900471044764e-119
000540 24 aa f7 06 98 51 85 a1 42 98 a5 f0 c3 1a ba 8f
       -3.33452038577356e-147 -6.568097850647616e-233
000550 00 00 00 00 00 00 00 00 00 00 00 00 00 00 00 00
       0.0 0.0
000560 00 00 00 00 00 00 00 00 00 00 00 00 00 00 00 00
       0.0 0.0
000570 00 00 00 00 00 00 00 00 00 00 00 00 00 00 00 00
       0.0 0.0
000580 00 00 00 00 00 00 00 00 00 00 00 00 00 00 00 00
       0.0 0.0
000590 00 00 00 00 00 00 00 00 00 00 00 00 00 00 00 00
       0.0 0.0
0005a0 00 00 00 00 00 00 00 00 00 00 00 00 00 00 00 00
       0.0 0.0
0005b0 00 00 00 00 00 00 00 00 00 00 00 00 00 00 00 00
       0.0 0.0
0005c0 00 00 00 00 00 00 00 00 00 00 00 00 00 00 00 00
       0.0 0.0
0005d0 00 00 00 00 00 00 00 00 00 00 00 00 00 00 00 00
       0.0 0.0
0005e0 00 00 00 00 00 00 00 00 00 00 00 00 00 00 00 00
       0.0 0.0
0005f0 00 00 00 00 00 00 00 00 00 00 00 00 00 00 00 00
       0.0 0.0
000600 00 00 00 00 00 00 00 00 00 00 00 00 00 00 00 00
       0.0 0.0
000610 00 00 00 00 00 00 00 00 00 00 00 00 00 00 00 00
       0.0 0.0
000620 00 00 00 00 00 00 00 00 00 00 00 00 00 00 00 00
       0.0 0.0
000630 00 00 00 00 00 00 00 00 00 00 00 00 00 00 00 00
       0.0 0.0
000640 4c 82 37 83 a2 41 45 bf 8e 81 28 83 a2 41 45 bf
       -0.0006486934202563715 -0.0006486934201497695
000650 2a c4 0b 83 a2 41 45 bf f9 fd dc 82 a2 41 45 bf
       -0.0006486934199455608 -0.0006486934196132103
000660 15 5b 8d 82 a2 41 45 bf 7d c1 1f 82 a2 41 45 bf
       -0.0006486934190473604 -0.0006486934182686057
000670 e8 bf 7f 81 a2 41 45 bf 77 39 4c 80 a2 41 45 bf
       -0.0006486934171316934 -0.0006486934149465957
000680 a1 fb 70 7e a2 41 45 bf 54 15 96 7b a2 41 45 bf
       -0.0006486934115698015 -0.0006486934063764473
000690 03 0d 82 77 a2 41 45 bf ad d5 e7 6e a2 41 45 bf
       -0.0006486933989581504 -0.0006486933833104634
0006a0 8e 5e ba 62 a2 41 45 bf f5 77 3a 4f a2 41 45 bf
       -0.0006486933611595401 -0.0006486933256899518
0006b0 61 5b 0a 34 a2 41 45 bf 86 57 03 03 a2 41 45 bf
       -0.0006486932762353842 -0.0006486931870550584
0006c0 ee c5 59 b9 a1 41 45 bf 4c 38 34 2f a1 41 45 bf
       -0.0006486930530639737 -0.0006486928017766041
0006d0 c8 cc f1 78 a0 41 45 bf 1f bc 3b 2e 9f 41 45 bf
       -0.0006486924702485903 -0.0006486918686884369
0006e0 48 3b d9 19 9d 41 45 bf 73 da 4e aa 9a 41 45 bf
       -0.0006486909002861663 -0.0006486897660725313
0006f0 6d 7d 1d ff 94 41 45 bf 3a b1 24 93 8e 41 45 bf
       -0.0006486871263681589 -0.0006486841360007552
000700 48 9f c1 9e 80 41 45 bf f6 54 39 d0 6c 41 45 bf
       -0.0006486776378666704 -0.0006486684146219935
000710 bd 23 f1 c3 51 41 45 bf ab 2e 54 da 15 41 45 bf
       -0.0006486558194264063 -0.0006486279204706754
000720 d4 4f 00 ca cb 40 45 bf 4b c2 05 f4 51 40 45 bf
       -0.0006485934318356487 -0.0006485366975948562
000730 22 ba 54 f0 7e 3f 45 bf b8 cc 1c 73 8d 3e 45 bf
       -0.000648438436348379 -0.0006483259842070743
000740 13 7b ea d4 a1 3c 45 bf 46 f6 05 04 99 39 45 bf
       -0.000648097056757143 -0.0006477353236246728
000750 0a 40 14 0c de 34 45 bf 8b be 3e 50 e7 2e 45 bf
       -0.0006471714224591818 -0.0006464604816666814
000760 66 6d ca 19 06 23 45 bf a2 01 1a 89 c1 15 45 bf
       -0.000645044306640069 -0.0006434626577203515
000770 c5 3a 32 7f 3c 0a 45 bf 25 2a ce 27 c4 05 45 bf
       -0.0006420894045663031 -0.0006415565290905407
000780 4e 33 04 60 5c 30 45 bf 16 3c 29 80 23 f3 45 bf
       -0.0006466342020146983 -0.0006698535292545295
000790 62 80 1a 08 c8 15 48 bf ee ba 38 eb f5 01 4e bf
       -0.0007350184170782476 -0.0009157610679205433
0007a0 27 eb d1 44 f3 b2 53 bf dd a3 95 84 1b 5c 5e bf
       -0.0012023330375813908 -0.0018530148248265745
0007b0 e6 10 c6 f9 e4 2c 6e bf a1 7e cf 22 48 ce 76 bf
       -0.0036835167103977827 -0.0055678193866409995
0007c0 86 bb 1c 11 1a 6c 81 bf 4a e0 c6 50 38 a7 85 bf
       -0.008506969115470896 -0.01057285305510915
0007d0 db 19 5f 38 e1 5c 8a bf d0 d8 35 c7 c8 c5 8c bf
       -0.012872466595479295 -0.014049118594567395
0007e0 8d bb 83 d4 1e 19 8b bf 06 27 58 5a 8a 0f 8a bf
       -0.013231507168226542 -0.012724953538981076
0007f0 9a 96 f3 91 51 04 86 bf 9d 0c 21 ba e9 d4 7d bf
       -0.0107504246393078 -0.007283127781252533
