Vehicle bus_all_kernel.csv.npy (npy, 10080 bytes, 1 tensors)

array f8 [5, 5, 50]
-0.006572274263339555 -0.006572186358849928 -0.006572003072496311 -0.006571575782237845 -0.006570216409959257 -0.006568732313703251 -0.006569646048258613 -0.00662068148013023
-0.006983695242387276 -0.009575798514264667 -0.02311789304342097 -0.075957315958554 -0.18247069016953646 -0.2568531873325262 -0.3658575647565927 -0.40041359244105806
-0.4083573314262343 -0.4073142792674954 -0.36534803142072797 -0.25582165015556657 -0.11861670222169675 -0.02221196755988149 -2.3768800521699466e-05 -1.6137042864140285e-07
-5.4415839070798886e-17 -5.5225511998145695e-56 -6.168255107924024e-105 -1.0741004588931746e-256 -0.0 -0.0 -0.0 -0.0
-0.0 -0.0 -0.0 -0.0 -0.0 -0.0 -0.0 -0.0
-0.0 -0.0 -0.0 -0.0 -0.0 -0.0 -0.0 -0.0
-0.0 -0.0 -0.006572278006001386 -0.006572180858967765 -0.006571958266575042 -0.006571501207445187 -0.0065702162565187345 -0.006568078238230045
-0.006569940320830517 -0.006629473807538401 -0.006993600954742497 -0.00943027922480795 -0.023764548242788158 -0.07304830646838714 -0.1730694851406428 -0.28884967851580756
-0.3369409439786296 -0.3964257790394892 -0.4451769331451897 -0.4004608078409134 -0.37438179127272947 -0.27147879201073105 -0.15160848475993194 -0.02741754870838783
-0.0006314822256388811 -1.6508064512444135e-07 -6.999691512448606e-17 -4.348465471120686e-42 -6.168255107925268e-105 -8.457653539108212e-266 -0.0 -0.0
-0.0 -0.0 -0.0 -0.0 -0.0 -0.0 -0.0 -0.0
-0.0 -0.0 -0.0 -0.0 -0.0 -0.0 -0.0 -0.0
-0.0 -0.0 -0.0 -0.0 -0.0065722764906136506 -0.006572189288898725 -0.006571974929537382 -0.006571475467646948
-0.0065702556865600325 -0.006568188455415551 -0.006570602113863377 -0.006620125164793298 -0.007025926915207284 -0.009367129517452165 -0.022726497220558386 -0.07505454648971474
-0.17577227795018088 -0.27141780941487614 -0.3417696807799845 -0.39260280323401825 -0.44867744596438275 -0.4103359790802763 -0.36298645452899014 -0.26379213791184025
-0.14000909351249344 -0.029541264762870483 -9.0719900935227e-05 -1.6068551383399358e-07 -2.0292214432268105e-22 -1.1099345825753988e-40 -6.168255107924155e-105 -1.0741004545204245e-256
-0.0 -0.0 -0.0 -0.0 -0.0 -0.0 -0.0 -0.0
-0.0 -0.0 -0.0 -0.0 -0.0 -0.0 -0.0 -0.0
-0.0 -0.0 -0.0 -0.0 -0.0 -0.0 -0.0065722737046195094 -0.006572175419508
-0.006571988316623936 -0.006571515116822941 -0.006570342166186863 -0.0065683190321206685 -0.006570197710122466 -0.006623960314423609 -0.0070724030649874006 -0.009473533630187951
-0.023331870973083906 -0.08197152334496946 -0.19134687276861642 -0.26553582735722814 -0.3354079670889016 -0.39887293618519887 -0.3987171586498194 -0.41002320560544336
-0.36818689292030854 -0.28352835111743124 -0.15500268846557536 -0.025339977293513893 -0.00034774433433148457 -1.606211702639976e-07 -2.025329211046822e-22 -1.1099345797118541e-40
-2.2231069580353975e-101 -0.0 -0.0 -0.0 -0.0 -0.0 -0.0 -0.0
-0.0 -0.0 -0.0 -0.0 -0.0 -0.0 -0.0 -0.0
-0.0 -0.0 -0.0 -0.0 -0.0 -0.0 -0.0 -0.0
-0.0065722822792904315 -0.0065721725974744755 -0.006571992612393986 -0.006571454506857614 -0.0065701223353665855 -0.006568321886237423 -0.006570487909309686 -0.00662156219522034
-0.007084158925113051 -0.009409364771165251 -0.02630661484687992 -0.0778736054653242 -0.16986181396297972 -0.25037763992873113 -0.3446904811084518 -0.38871889550964533
-0.4122457920379384 -0.3934386955839855 -0.3920748224149575 -0.2775316846267542 -0.15043357793701573 -0.014667670624008566 -0.000437913368630431 -6.555952194694453e-08
-5.4407343069995586e-17 -1.1099345825806971e-40 -1.6679461220727308e-140 -1.9763e-320 -0.0 -0.0 -0.0 -0.0
-0.0 -0.0 -0.0 -0.0 -0.0 -0.0 -0.0 -0.0
-0.0 -0.0 -0.0 -0.0 -0.0 -0.0 -0.0 -0.0
-0.0 -0.0 -0.006572288562661498 -0.0065721936366000926 -0.006572007245857693 -0.006571361746961732 -0.006570334849542618 -0.00656832059196888
00000000: b998 5770 87eb 7abf fe75 97d7 6feb 7abf
00000010: 24d4 3fa4 3eeb 7abf 561b 16f1 cbea 7abf
00000020: 0714 bc09 5fe9 7abf 7fa2 6aa7 d0e7 7abf
00000030: 8bed c6ee c5e8 7abf 3f45 f3a6 491e 7bbf
00000040: 7194 bd6a ef9a 7cbf a764 9deb 799c 83bf
00000050: 6ab1 4b8a 37ac 97bf ed15 ef4b f071 b3bf
00000060: cddb 6017 335b c7bf 25dc dd59 4870 d0bf
00000070: d0eb e7d8 356a d7bf 3b20 1a55 60a0 d9bf
00000080: 3cae e3c9 8622 dabf fa73 29e9 6f11 dabf
00000090: 5b0a a7b5 dc61 d7bf ecb8 41c5 615f d0bf
000000a0: e932 cd08 aa5d bebf f57d ffe8 bbbe 96bf
000000b0: c291 d488 63ec f8be 2526 264d a5a8 85be
000000c0: 791a ca46 5c5e 8fbc 8881 b19e 7faa 75b4
000000d0: a1ae bf73 344b 4caa a112 1e26 e3cd c98a
000000e0: 0000 0000 0000 0080 0000 0000 0000 0080
000000f0: 0000 0000 0000 0080 0000 0000 0000 0080
00000100: 0000 0000 0000 0080 0000 0000 0000 0080
00000110: 0000 0000 0000 0080 0000 0000 0000 0080
00000120: 0000 0000 0000 0080 0000 0000 0000 0080
00000130: 0000 0000 0000 0080 0000 0000 0000 0080
00000140: 0000 0000 0000 0080 0000 0000 0000 0080
00000150: 0000 0000 0000 0080 0000 0000 0000 0080
00000160: 0000 0000 0000 0080 0000 0000 0000 0080
00000170: 0000 0000 0000 0080 0000 0000 0000 0080
00000180: 0000 0000 0000 0080 0000 0000 0000 0080
00000190: 2633 8971 88eb 7abf bc82 a45d 6eeb 7abf
000001a0: cfb9 359d 32eb 7abf e97a 58ec b7ea 7abf
000001b0: 59b9 30ff 5ee9 7abf 1839 b113 21e7 7abf
000001c0: b7c2 08ed 14e9 7abf 68cc 16d3 8127 7bbf
000001d0: 413c 1c76 52a5 7cbf 68ce e6a6 2e50 83bf
000001e0: 3b28 07d6 bb55 98bf 2256 4f37 4bb3 b2bf
000001f0: d4ab 4e11 2427 c6bf 5adf ab5c 837c d2bf
00000200: ce94 c4bf 7090 d5bf f904 113b 0a5f d9bf
00000210: e2b2 3264 c77d dcbf e669 405e 26a1 d9bf
00000220: 4dfe 6e0b dff5 d7bf 6398 4f95 e85f d1bf
00000230: d885 eb25 e867 c3bf f7f2 278c 5813 9cbf
00000240: da72 e9c0 41b1 44bf 812b efb5 2028 86be
00000250: cc0f f357 dc2c 94bc f496 fa59 563e 58b7
00000260: e7b4 bf73 344b 4caa e073 8746 2ad1 e588
00000270: 0000 0000 0000 0080 0000 0000 0000 0080
00000280: 0000 0000 0000 0080 0000 0000 0000 0080
00000290: 0000 0000 0000 0080 0000 0000 0000 0080
000002a0: 0000 0000 0000 0080 0000 0000 0000 0080
000002b0: 0000 0000 0000 0080 0000 0000 0000 0080
000002c0: 0000 0000 0000 0080 0000 0000 0000 0080
000002d0: 0000 0000 0000 0080 0000 0000 0000 0080
000002e0: 0000 0000 0000 0080 0000 0000 0000 0080
000002f0: 0000 0000 0000 0080 0000 0000 0000 0080
00000300: 0000 0000 0000 0080 0000 0000 0000 0080
00000310: 0000 0000 0000 0080 0000 0000 0000 0080
00000320: 8237 6609 88eb 7abf aa6c f1a0 70eb 7abf
00000330: cca8 4716 37eb 7abf 2729 8503 b1ea 7abf
00000340: a558 cd94 69e9 7abf ab74 c2a9 3ee7 7abf
00000350: e6ea 1a93 c6e9 7abf 245d 4051 b41d 7bbf
00000360: ddcb 32e5 37c7 7cbf 5f94 7ad7 122f 83bf
00000370: d77d 4269 9d45 97bf 4ee5 9656 c636 b3bf
00000380: 0f73 abbc b47f c6bf 6249 bfcd e85e d1bf
00000390: 9eb8 6df0 8ddf d5bf 6350 0d82 6720 d9bf
000003a0: 50ab 379b 21b7 dcbf 4067 a1d6 f142 dabf
000003b0: c6f3 c589 2b3b d7bf 597d 516b f8e1 d0bf
000003c0: 93ae e366 d1eb c1bf 2bf1 27b8 1040 9ebf
000003d0: 81be cb07 1cc8 17bf 9001 1dba 1c91 85be
000003e0: d9b9 1994 2baa 6ebb 81ec f341 7956 a3b7
000003f0: 4aaf bf73 344b 4caa a1e1 5a24 e3cd c98a
00000400: 0000 0000 0000 0080 0000 0000 0000 0080
00000410: 0000 0000 0000 0080 0000 0000 0000 0080
00000420: 0000 0000 0000 0080 0000 0000 0000 0080
00000430: 0000 0000 0000 0080 0000 0000 0000 0080
00000440: 0000 0000 0000 0080 0000 0000 0000 0080
00000450: 0000 0000 0000 0080 0000 0000 0000 0080
00000460: 0000 0000 0000 0080 0000 0000 0000 0080
00000470: 0000 0000 0000 0080 0000 0000 0000 0080
00000480: 0000 0000 0000 0080 0000 0000 0000 0080
00000490: 0000 0000 0000 0080 0000 0000 0000 0080
000004a0: 0000 0000 0000 0080 0000 0000 0000 0080
000004b0: 557d f249 87eb 7abf c385 d8e7 6ceb 7abf
000004c0: d0c6 3bae 3aeb 7abf 61d7 30a8 bbea 7abf
000004d0: d007 a3cb 80e9 7abf 2e25 ecb6 61e7 7abf
000004e0: 0612 b104 5ae9 7abf 1e2b bace b921 7bbf
000004f0: 365b e4bd f3f7 7cbf 2926 f428 dc66 83bf
00000500: 4bb3 225b 4fe4 97bf 464e f8f3 15fc b4bf
00000510: 95d5 5de8 0d7e c8bf 2499 9afb 89fe d0bf
00000520: 43bd 5dfa 5277 d5bf f531 0b5a 2287 d9bf
00000530: 3652 30f9 9484 d9bf 2c4b abf8 d13d dabf
00000540: 2926 fac1 5f90 d7bf 6a71 e218 5425 d2bf
00000550: 7238 e0ca 20d7 c3bf 8031 0717 b9f2 99bf
00000560: 9a37 178b 2eca 36bf 863d 46c1 e68e 85be
00000570: 2737 02e6 1c9b 6ebb e3a5 1d41 7956 a3b7
00000580: 8180 8fac 5de5 08ab 0000 0000 0000 0080
00000590: 0000 0000 0000 0080 0000 0000 0000 0080
000005a0: 0000 0000 0000 0080 0000 0000 0000 0080
000005b0: 0000 0000 0000 0080 0000 0000 0000 0080
000005c0: 0000 0000 0000 0080 0000 0000 0000 0080
000005d0: 0000 0000 0000 0080 0000 0000 0000 0080
000005e0: 0000 0000 0000 0080 0000 0000 0000 0080
000005f0: 0000 0000 0000 0080 0000 0000 0000 0080
00000600: 0000 0000 0000 0080 0000 0000 0000 0080
00000610: 0000 0000 0000 0080 0000 0000 0000 0080
00000620: 0000 0000 0000 0080 0000 0000 0000 0080
00000630: 0000 0000 0000 0080 0000 0000 0000 0080
00000640: 1ab2 3197 89eb 7abf a2c8 ea25 6ceb 7abf
00000650: 35c3 6fd5 3beb 7abf 1e0e 1b63 abea 7abf
00000660: 8757 fac8 45e9 7abf 554c 0e7b 62e7 7abf
00000670: 7429 07eb a7e9 7abf e3fc 3a11 361f 7bbf
00000680: 83cc 726e 4704 7dbf 730e bf8f 3745 83bf
00000690: e446 be09 1ff0 9abf f1f6 b14c 86ef b3bf
000006a0: c0b5 e72b 08be c5bf 2730 c9ef 2f06 d0bf
000006b0: 929c e6a9 680f d6bf 5646 e337 c5e0 d8bf
000006c0: 29dc ad2c 3c62 dabf 4ce7 a07e 192e d9bf
000006d0: 30dd f6fe c017 d9bf 31d8 4441 14c3 d1bf
000006e0: 14d9 ba50 6841 c3bf 13e3 1b6d 150a 8ebf
000006f0: 1589 c498 f7b2 3cbf 7c60 9c4e 3799 71be
00000700: 8df7 824e 1b5d 8fbc 0052 f441 7956 a3b7
00000710: b464 31af a26c e9a2 a00f 0000 0000 0080
00000720: 0000 0000 0000 0080 0000 0000 0000 0080
00000730: 0000 0000 0000 0080 0000 0000 0000 0080
00000740: 0000 0000 0000 0080 0000 0000 0000 0080
00000750: 0000 0000 0000 0080 0000 0000 0000 0080
00000760: 0000 0000 0000 0080 0000 0000 0000 0080
00000770: 0000 0000 0000 0080 0000 0000 0000 0080
00000780: 0000 0000 0000 0080 0000 0000 0000 0080
00000790: 0000 0000 0000 0080 0000 0000 0000 0080
000007a0: 0000 0000 0000 0080 0000 0000 0000 0080
000007b0: 0000 0000 0000 0080 0000 0000 0000 0080
000007c0: 0000 0000 0000 0080 0000 0000 0000 0080
000007d0: b2ed fb46 8beb 7abf ecfe b6cb 71eb 7abf
000007e0: e860 0ac3 3feb 7abf 96b5 b17c 92ea 7abf
000007f0: 8543 d7d4 7ee9 7abf 0149 1d22 62e7 7abf
