Vowel 9_all_kernel.csv.npy (npy, 400080 bytes, 1 tensors)

array f8 [20, 5, 5, 100]
00000000: ba92 908e 75cc 58bf b200 528e 75cc 58bf
00000010: fac2 f78d 75cc 58bf f6e8 528d 75cc 58bf
00000020: 57d2 928c 75cc 58bf 8f66 fe8a 75cc 58bf
00000030: 2800 c888 75cc 58bf face 2585 75cc 58bf
00000040: c927 eb7e 75cc 58bf bfde 5e74 75cc 58bf
00000050: 6c0c 3d65 75cc 58bf c594 294b 75cc 58bf
00000060: 49d4 cb26 75cc 58bf e19c f3da 74cc 58bf
00000070: 22da 7c86 74cc 58bf 271b d3d6 73cc 58bf
00000080: ac7a badf 72cc 58bf b25a 7c29 71cc 58bf
00000090: d063 650c 6fcc 58bf d028 f72b 6bcc 58bf
000000a0: 0db6 ea0a 64cc 58bf e258 5d83 5ccc 58bf
000000b0: d6e3 02a9 4ccc 58bf 6a98 9ff5 33cc 58bf
000000c0: 7510 7aca 02cc 58bf ca5c 5970 c7cb 58bf
000000d0: 36f4 c7bb 71cb 58bf 9742 25c2 c8ca 58bf
000000e0: fd3f e47a 94c9 58bf 4800 3aeb 5cc8 58bf
000000f0: 1ff2 04e1 20c6 58bf 693d fdc1 fcc1 58bf
00000100: 84f5 9e43 09bb 58bf d8a1 4c73 b9b1 58bf
00000110: f390 104c e9a2 58bf d4f4 d419 2f91 58bf
00000120: 1661 b895 d876 58bf 0f00 02b0 915a 58bf
00000130: 7c2f 3924 a948 58bf 12f4 8c96 416a 58bf
00000140: f6b1 e4b4 0974 59bf 42b7 8cdb 8506 5cbf
00000150: 588f 6d53 cdde 62bf 0428 56e7 14bb 68bf
00000160: a766 b599 b321 73bf 5a75 b7c1 f37d 80bf
00000170: 8179 cd01 c695 88bf 2748 165e a808 92bf
00000180: c46b ea9a 1d61 98bf ed95 0463 4f71 9dbf
00000190: 6031 8613 f47e 9dbf 2045 0557 f623 9dbf
000001a0: eb4b e62c 06b8 94bf a8d3 9a6e f255 96bf
000001b0: 5916 98d5 d07c 92bf 0952 9aea ec26 85bf
000001c0: aed6 3428 a7d1 7abf 8ef8 4350 3860 85bf
000001d0: b4e8 f2e2 a248 75bf 0249 2d91 1707 56bf
000001e0: f154 57ea b062 20bf 15a9 237b e71c c3be
000001f0: e850 ae49 24ff 2abc 4981 2974 5a51 11ba
00000200: a859 77e3 d4f5 dcbb 6a65 ab48 27d7 deb7
00000210: 1c0a f855 0978 37b3 7e05 896a 915c 26b0
00000220: 3a20 a050 771a 6494 0000 0000 0000 0000
00000230: 0000 0000 0000 0000 0000 0000 0000 0000
00000240: 0000 0000 0000 0000 0000 0000 0000 0000
00000250: 0000 0000 0000 0000 0000 0000 0000 0000
00000260: 0000 0000 0000 0000 0000 0000 0000 0000
00000270: 0000 0000 0000 0000 0000 0000 0000 0000
00000280: 0000 0000 0000 0000 0000 0000 0000 0000
00000290: 0000 0000 0000 0000 0000 0000 0000 0000
000002a0: 0000 0000 0000 0000 0000 0000 0000 0000
000002b0: 0000 0000 0000 0000 0000 0000 0000 0000
000002c0: 0000 0000 0000 0000 0000 0000 0000 0000
000002d0: 0000 0000 0000 0000 0000 0000 0000 0000
000002e0: 0000 0000 0000 0000 0000 0000 0000 0000
000002f0: 0000 0000 0000 0000 0000 0000 0000 0000
00000300: 0000 0000 0000 0000 0000 0000 0000 0000
00000310: 0000 0000 0000 0000 0000 0000 0000 0000
00000320: e941 888e 75cc 58bf 46ba 4d8e 75cc 58bf
00000330: a037 fb8d 75cc 58bf 728e 4a8d 75cc 58bf
00000340: 9a66 698c 75cc 58bf 0a2b a18a 75cc 58bf
00000350: 547d 2989 75cc 58bf 8e2f da84 75cc 58bf
00000360: 289f 287e 75cc 58bf 9d78 2474 75cc 58bf
00000370: 47d5 a766 75cc 58bf 2c47 1d52 75cc 58bf
00000380: c8ef 9127 75cc 58bf 721f ffe6 74cc 58bf
00000390: 5ee1 1b9a 74cc 58bf dc21 dfdb 73cc 58bf
000003a0: 3aa2 a01e 73cc 58bf caed 1654 71cc 58bf
000003b0: 79cc 00e5 6ecc 58bf abee 4ed6 6bcc 58bf
000003c0: a80b 7372 64cc 58bf 8801 765a 59cc 58bf
000003d0: 6950 e9f5 4dcc 58bf 1292 8f4e 2fcc 58bf
000003e0: efc8 6240 0acc 58bf 5ae7 964d c5cb 58bf
000003f0: e9b3 fea1 68cb 58bf 19fb ef46 b3ca 58bf
00000400: fadb d18c c9c9 58bf fdea 72a8 17c8 58bf
00000410: bbc2 9e8e f9c5 58bf 3f47 9b65 20c2 58bf
00000420: 2047 1e09 deba 58bf 7f28 206c 04b2 58bf
00000430: 3dd7 28cc 45a3 58bf 37b4 9535 d28f 58bf
00000440: c0f3 017b 6379 58bf 22bd 0c66 6f57 58bf
00000450: 1a17 c388 2247 58bf b627 f630 c482 58bf
00000460: ca47 bbad b983 59bf a655 672d 1857 5cbf
00000470: 2f80 66c7 3d79 62bf 300d e461 5ba6 6abf
00000480: 43d5 31bd f5bd 74bf 94c2 6d01 058c 81bf
00000490: 452b 8e89 9b86 8cbf 7e2e bacc af18 92bf
000004a0: 2082 4b05 843f 99bf eaab 953c 73ab 9bbf
000004b0: e814 4e14 d1eb 9dbf daad a66b 04e5 9abf
000004c0: defc 6f1a 031f 9abf 8e9d 8d8c 73d2 98bf
000004d0: 13ac 0238 f128 93bf 0314 87bd 8c3c 8fbf
000004e0: 2e4b 7b1a fbff 82bf f73a a87a 7e5e 84bf
000004f0: 3095 389d 7447 74bf 9b16 5052 ad84 52bf
00000500: 338c 1eb3 661e 1dbf 4f62 8e28 0f0e c4be
00000510: 1396 551a f6b1 c5bd 7a2a 23fd 3bde a5ba
00000520: 01e2 bfd8 7b69 b7b6 c9b9 d9fa f3e4 93b9
00000530: f409 f855 0978 37b3 a93c 446d a91a d1ab
00000540: e6de 8a6e 9651 06a0 1b54 477f 3ecd 4098
00000550: 0000 0000 0000 0000 0000 0000 0000 0000
00000560: 0000 0000 0000 0000 0000 0000 0000 0000
00000570: 0000 0000 0000 0000 0000 0000 0000 0000
00000580: 0000 0000 0000 0000 0000 0000 0000 0000
00000590: 0000 0000 0000 0000 0000 0000 0000 0000
000005a0: 0000 0000 0000 0000 0000 0000 0000 0000
000005b0: 0000 0000 0000 0000 0000 0000 0000 0000
000005c0: 0000 0000 0000 0000 0000 0000 0000 0000
000005d0: 0000 0000 0000 0000 0000 0000 0000 0000
000005e0: 0000 0000 0000 0000 0000 0000 0000 0000
000005f0: 0000 0000 0000 0000 0000 0000 0000 0000
00000600: 0000 0000 0000 0000 0000 0000 0000 0000
00000610: 0000 0000 0000 0000 0000 0000 0000 0000
00000620: 0000 0000 0000 0000 0000 0000 0000 0000
00000630: 0000 0000 0000 0000 0000 0000 0000 0000
00000640: 70cd 878e 75cc 58bf 3ac7 4d8e 75cc 58bf
00000650: 366f 178e 75cc 58bf c0fa 578d 75cc 58bf
00000660: a23b 8f8c 75cc 58bf 077b ee8a 75cc 58bf
00000670: 39d4 8a88 75cc 58bf 11d6 0c86 75cc 58bf
00000680: 76f8 977e 75cc 58bf 18a6 0174 75cc 58bf
00000690: d0a3 b267 75cc 58bf 4c62 ed50 75cc 58bf
000006a0: ee9f b52d 75cc 58bf a332 1de8 74cc 58bf
000006b0: e517 d993 74cc 58bf 0120 21e6 73cc 58bf
000006c0: ce53 bafb 72cc 58bf 3653 3f9d 71cc 58bf
000006d0: d339 64b4 6ecc 58bf 2f54 e015 6bcc 58bf
000006e0: f9c1 378e 64cc 58bf 5805 fcbf 5acc 58bf
000006f0: 5315 1808 4acc 58bf b716 aa3e 30cc 58bf
00000700: c2ed 57a9 09cc 58bf 78f3 4b8d d8cb 58bf
00000710: 259d fab6 65cb 58bf ded5 ddef b9ca 58bf
00000720: 77ce 2246 adc9 58bf 94d6 5e11 7ac8 58bf
00000730: 0611 c235 d9c5 58bf 76d8 336d 56c2 58bf
00000740: 7e80 6f94 93ba 58bf ffa0 a431 25b3 58bf
00000750: 5c76 c46f 11a6 58bf 2ebe 5295 6c91 58bf
00000760: 0002 2cb1 6477 58bf e67e 2f5f 125d 58bf
00000770: c183 5ba5 ce4a 58bf 3119 6038 817c 58bf
00000780: 78cc b2b2 0e24 59bf d818 4754 7099 5cbf
00000790: c867 e5b7 b295 60bf b854 2e1e c475 6abf
000007a0: 33ab d246 ba36 75bf 036b 388a 4291 7fbf
000007b0: e1b0 6c7f acdf 88bf 7378 3096 9636 92bf
000007c0: 2a86 cc75 cb49 99bf 0b5c 2635 a09c 9bbf
000007d0: eb45 783f e283 9cbf 2be4 65c3 1bae 9bbf
000007e0: 554a c06c fd3f 9abf 36dd b15f 77d4 92bf
000007f0: ae51 b8e8 10a3 91bf 2e57 85c1 0a1d 92bf
-0.0015135906235254474 -0.001513590622636268 -0.001513590621353865 -0.0015135906190111826 -0.0015135906162814427 -0.0015135906105342744 -0.0015135906024852461 -0.0015135905892664212
-0.0015135905666050378 -0.0015135905282316756 -0.00151359047318136 -0.0015135903783172627 -0.0015135902460177311 -0.0015135899700967003 -0.001513589662818789 -0.0015135890237602619
-0.0015135881248295275 -0.001513586530511962 -0.0015135845620390838 -0.001513580951597638 -0.0015135743121094142 -0.0015135672997153506 -0.001513552535511877 -0.0015135295311608185
-0.0015134837393882248 -0.001513428463473509 -0.0015133486441521022 -0.0015131912737908254 -0.0015129041672174986 -0.001512614003246442 -0.0015120812496000125 -0.0015110939347840696
-0.0015094366521986877 -0.0015072165526338523 -0.0015036848346961478 -0.0014994583101064956 -0.0014931788526891302 -0.0014864371042051549 -0.0014821674129903142 -0.001490177203052005
-0.0015535445014150918 -0.0017105395510940845 -0.0023035059233950488 -0.0030188949846818875 -0.004670812191159313 -0.008052734708082699 -0.012004420213710844 -0.017611151449791997
-0.023807966785721182 -0.028752556246351025 -0.028804601375257533 -0.028457497655215325 -0.020233246317342617 -0.02181223678663327 -0.018054259335278242 -0.01032815066290828
-0.006547596890688885 -0.010437431287297263 -0.00519622447535022 -0.0013444643161233953 -0.00012501153575664823 -2.2784360790190216e-06 -7.317455955982843e-19 -5.464529882824224e-29
-2.453031104331037e-20 -1.4161237003181443e-39 -5.704971730118736e-62 -9.655924692998265e-77 -1.910918603418079e-210 0.0 0.0 0.0
0.0 0.0 0.0 0.0 0.0 0.0 0.0 0.0
0.0 0.0 0.0 0.0 0.0 0.0 0.0 0.0
0.0 0.0 0.0 0.0 0.0 0.0 0.0 0.0
0.0 0.0 0.0 0.0 -0.0015135906234072744 -0.0015135906225755154 -0.001513590621402973 -0.0015135906188924711
-0.001513590615692817 -0.001513590609209361 -0.0015135906038706475 -0.0015135905881917574 -0.0015135905638405476 -0.0015135905274017765 -0.001513590478336839 -0.0015135904036082766
-0.0015135902488330067 -0.0015135900139160133 -0.001513589734200314 -0.0015135890421210585 -0.0015135883536549059 -0.0015135866855037088 -0.0015135844187284238 -0.0015135815713013627
-0.0015135746887586597 -0.001513564356940918 -0.0015135537465953647 -0.0015135251981003334 -0.0015134906875969264 -0.0015134264743736554 -0.0015133401684395093 -0.0015131712677882213
-0.0015129535925362246 -0.0015125494990530502 -0.0015120446282532024 -0.0015111271263105878 -0.0015093963924965384 -0.001507286375729083 -0.0015037709823792621 -0.0014991333794924907
-0.001493785046505311 -0.0014856899144424858 -0.0014818036316212647 -0.0014960208826288852 -0.001557284666820357 -0.0017297493083011455 -0.002255077993325492 -0.003253153306219801
-0.005063972395068564 -0.00856784735307884 -0.013928618560176917 -0.017672297354279547 -0.024656355689218867 -0.02702121789245019 -0.029219881882018323 -0.02626425654459106
-0.02550892685758021 -0.024240308240590695 -0.01871086983070931 -0.015252208265232886 -0.009277307267813475 -0.009945858114432478 -0.004950957798006514 -0.0011302654831992001
-0.00011107923344737327 -2.3907326220480312e-06 -3.9463268843532634e-11 -3.532982561795354e-26 -4.1009080133712795e-45 -2.452167694366896e-31 -5.704971730118701e-62 -1.2511888137446029e-97
-2.0807560204678446e-154 -7.365239918487216e-192 0.0 0.0 0.0 0.0 0.0 0.0
0.0 0.0 0.0 0.0 0.0 0.0 0.0 0.0
0.0 0.0 0.0 0.0 0.0 0.0 0.0 0.0
0.0 0.0 0.0 0.0 0.0 0.0 0.0 0.0
-0.0015135906234008088 -0.0015135906225762345 -0.0015135906218039625 -0.0015135906190832243 -0.0015135906162304443 -0.001513590610308037 -0.0015135906016159452 -0.0015135905925495222
-0.0015135905654229099 -0.0015135905269069213 -0.0015135904821283915 -0.0015135903992896825 -0.0015135902711680377 -0.001513590017981383 -0.0015135897114233407 -0.00151358907943866
-0.0015135882266907766 -0.001513586951650226 -0.001513584241880407 -0.0015135808712376621 -0.0015135747897795356 -0.0015135656576038183 -0.001513550087453315 -0.0015135260715920926
-0.0015134901381078513 -0.0015134444012680753 -0.0015133374508112332 -0.0015131774702842253 -0.0015129272583579692 -0.0015126411503677871 -0.001512014502652427 -0.0015111774453635796
-0.0015093270501367602 -0.0015075553151949193 -0.0015044374732221732 -0.0014995155700424745 -0.001493309337718185 -0.0014870337879457295 -0.0014826791788708912 -0.0014945279995131728
-0.001534475663714811 -0.0017455670323314656 -0.0020245066254291656 -0.0032299833705545476 -0.005179145472690649 -0.007706890031409899 -0.012145373953523055 -0.01778636256869288
-0.024695567192912694 -0.026964667552956494 -0.027846846698656263 -0.027031358529232257 -0.025634727251665563 -0.01838861962866397 -0.01722361011896261 -0.01768891149671175
