Vowel 3_all_kernel.csv.npy (npy, 400080 bytes, 1 tensors)

array f8 [20, 5, 5, 100]
0	0xbf58cc758ec09ca6	-0.0015135906242081192
1	0xbf58cc758ea7473a	-0.001513590623848106
2	0xbf58cc758e83726b	-0.0015135906233389128
3	0xbf58cc758e40e27a	-0.001513590622393006
4	0xbf58cc758ddf0dc8	-0.0015135906210027462
5	0xbf58cc758d2de0a6	-0.0015135906184849195
6	0xbf58cc758c4dca30	-0.0015135906153004412
7	0xbf58cc758a5e9849	-0.001513590608263298
8	0xbf58cc7587e2b277	-0.0015135905992266477
9	0xbf58cc758505cc92	-0.0015135905888115403
10	0xbf58cc757cdbac4c	-0.0015135905591090624
11	0xbf58cc7572911717	-0.0015135905216693884
12	0xbf58cc7562dffbce	-0.0015135904645828704
13	0xbf58cc75455c7591	-0.0015135903572124113
14	0xbf58cc751b44791d	-0.0015135902040764378
15	0xbf58cc74de5eb174	-0.0015135899825323403
16	0xbf58cc746fc71b01	-0.0015135895802004808
17	0xbf58cc73e02d4dc7	-0.0015135890577838583
18	0xbf58cc72bd80da80	-0.001513588000319338
19	0xbf58cc70f86fd27f	-0.0015135863520729096
20	0xbf58cc6e77019a94	-0.0015135840185621962
21	0xbf58cc6a3732866a	-0.0015135800611364666
22	0xbf58cc63a6904131	-0.0015135739470260696
23	0xbf58cc5910e7e84a	-0.0015135640893491225
24	0xbf58cc47bfadf9e0	-0.0015135479613658173
25	0xbf58cc2e27580b13	-0.0015135241241074945
26	0xbf58cc03665f6c35	-0.0015134843065343188
27	0xbf58cbb1c9cc49c2	-0.001513408299790173
28	0xbf58cb67f0a1bd81	-0.0015133395231961835
29	0xbf58caa85f2a6be6	-0.0015131611113818832
30	0xbf58c9948a87cbed	-0.001512904224111318
31	0xbf58c7e177929e4f	-0.0015124990298235501
32	0xbf58c48bd10e1196	-0.0015117040058792767
33	0xbf58c12e92d73d83	-0.001510901910808688
34	0xbf58bb2e17ba0356	-0.0015094709514473412
35	0xbf58b2fe0bef17aa	-0.0015075188564295052
36	0xbf58a03adcbddbfd	-0.0015030455424189786
37	0xbf588b8dce1c2e5f	-0.0014981159988022503
38	0xbf5868ce3a37c98f	-0.0014898313464724899
39	0xbf5852110a167898	-0.0014844099426692178
40	0xbf58453f1e429c02	-0.0014813534153661494
41	0xbf586c430001bf32	-0.0014906553551802923
42	0xbf5977c48d6d0919	-0.0015544337708922106
43	0xbf5bd7d5c99676b3	-0.0016994083183371866
44	0xbf62afabd9af738e	-0.002281032223875496
45	0xbf6ab5863069c646	-0.0032603855973370203
46	0xbf74be16fc3516c7	-0.00506409624660415
47	0xbf829032e9cfd2dd	-0.00906410003697416
48	0xbf8c1d6447c783be	-0.013727935257465403
49	0xbf94d01d26a8cc62	-0.020325141415196042
50	0xbf9aca10a3914756	-0.026161441787116622
51	0xbf9f1819ee3f47aa	-0.030365376631216336
52	0xbf9ba580fe864db5	-0.0269985347127439
53	0xbf9be2659a5eb6b2	-0.027230823084827
54	0xbf950dc50562c40c	-0.020560339406703362
55	0xbf942f73772c5a54	-0.019712261341817985
56	0xbf881ef79d72877e	-0.011777815334713667
57	0xbf84cdbef30fb486	-0.01015805415405625
58	0xbf83d46ed4788894	-0.009682527407737042
59	0xbf3f293c373e0826	-0.0004754802714545002
60	0xbf35a6274ccd0572	-0.00033033809159029655
61	0xbf459011351beadf	-0.0006580432911670006
62	0xbd8ebcd2258ab795	-3.4944584494238117e-12
63	0xbc37546203926648	-1.2647012654920453e-18
64	0xbdfa6b52e4058992	-3.844504471904861e-10
65	0xb6f841aca72dd880	-6.798130653938572e-44
66	0xbb4febe0dcedcc05	-5.280952622438636e-23
67	0xb8b279294780440c	-1.389775582573175e-35
68	0xb48968fc57ddd476	-1.2953800157215437e-55
69	0x86a9f52ff55a09ee	-1.4643377451488496e-276
70	0xa36026917cee4dd5	-2.712452898627192e-138
71	0x0000000000000000	0.0
72	0x0000000000000000	0.0
73	0x0000000000000000	0.0
74	0x0000000000000000	0.0
75	0x0000000000000000	0.0
76	0x0000000000000000	0.0
77	0x0000000000000000	0.0
78	0x0000000000000000	0.0
79	0x0000000000000000	0.0
80	0x0000000000000000	0.0
81	0x0000000000000000	0.0
82	0x0000000000000000	0.0
83	0x0000000000000000	0.0
84	0x0000000000000000	0.0
85	0x0000000000000000	0.0
86	0x0000000000000000	0.0
87	0x0000000000000000	0.0
88	0x0000000000000000	0.0
89	0x0000000000000000	0.0
90	0x0000000000000000	0.0
91	0x0000000000000000	0.0
92	0x0000000000000000	0.0
93	0x0000000000000000	0.0
94	0x0000000000000000	0.0
95	0x0000000000000000	0.0
96	0x0000000000000000	0.0
97	0x0000000000000000	0.0
98	0x0000000000000000	0.0
99	0x0000000000000000	0.0
100	0xbf58cc758ec26796	-0.0015135906242335954
101	0xbf58cc758ea1fc4a	-0.0015135906237728918
102	0xbf58cc758e7b4cc3	-0.0015135906232231356
103	0xbf58cc758e468d8a	-0.0015135906224735562
104	0xbf58cc758de9b166	-0.0015135906211539373
105	0xbf58cc758d41784e	-0.0015135906187633444
106	0xbf58cc758c318fe2	-0.0015135906148993007
107	0xbf58cc758a8cf096	-0.001513590608921899
108	0xbf58cc7588cb2395	-0.0015135906025298452
109	0xbf58cc758442c8aa	-0.0015135905860402068
110	0xbf58cc757dded11c	-0.0015135905627917173
111	0xbf58cc7571c17102	-0.0015135905187185221
112	0xbf58cc7562ea7d42	-0.001513590464732165
113	0xbf58cc7545aa780b	-0.0015135903583209955
114	0xbf58cc752684ddf0	-0.0015135902450092963
115	0xbf58cc74e57c3fe3	-0.0015135900084182134
116	0xbf58cc74636ed95e	-0.0015135895352905364
117	0xbf58cc73e67749c9	-0.0015135890806631128
118	0xbf58cc72aa6170fb	-0.0015135879307513467
119	0xbf58cc7106596300	-0.0015135864026857848
120	0xbf58cc6e9fc4b40c	-0.001513584166853879
121	0xbf58cc6af56b72cd	-0.00151358075316137
122	0xbf58cc64aa5d6c1d	-0.0015135748921781885
123	0xbf58cc58e087dc01	-0.0015135639133612158
124	0xbf58cc47b5540e0a	-0.0015135479237081717
125	0xbf58cc282b5fb8f2	-0.0015135185508330898
126	0xbf58cc05c1194f4d	-0.001513486499239175
127	0xbf58cbb2fc7443fb	-0.001513409415398791
128	0xbf58cb4f743c9a63	-0.001513316718907775
129	0xbf58ca8fc5afe8ce	-0.0015131382012883335
130	0xbf58c98afe2c4d3d	-0.0015128953315908932
131	0xbf58c812a0988efe	-0.0015125448138712523
132	0xbf58c56785b6fa50	-0.0015119086227596452
133	0xbf58c0ce6d08085c	-0.0015108123662917116
134	0xbf58bb4b91c82d66	-0.0015094984038367064
135	0xbf58b1b8da0c6964	-0.0015072159951104664
136	0xbf58a06a29d30935	-0.0015030895950052918
137	0xbf588a606af08b87	-0.0014978353099272827
138	0xbf586df8fa159c96	-0.001491063252922397
139	0xbf5848e98a2c21be	-0.001482227388523424
140	0xbf583dc4fe50566e	-0.0014795707477381031
141	0xbf5861c9526bc682	-0.0014881578478561923
142	0xbf596a6435d57492	-0.001551244603738487
143	0xbf5c14069505c5f0	-0.0017137588766583632
144	0xbf6164d90294d24a	-0.0021232832410993706
145	0xbf6bddf56f9ad253	-0.0034017366095560413
146	0xbf7670c9447c985d	-0.005478655053400142
147	0xbf825554cc28405e	-0.008951818924316676
148	0xbf8baf555860c38b	-0.013518015632230781
149	0xbf96aa451390056a	-0.0221339028539708
150	0xbf9b54339845d343	-0.026688390892974267
151	0xbf9f1706e22bc2b6	-0.03036127810895791
152	0xbf9f219dafde3266	-0.030401672228935438
153	0xbf9b177fdd57b1bb	-0.02645683086841342
154	0xbf974aad616733ed	-0.022745808668151502
155	0xbf93db27fc117388	-0.01939070201875695
156	0xbf92bccc91a527aa	-0.018298336400483763
157	0xbf811b293e621ddc	-0.00835258695248247
158	0xbf74ef8b26f31929	-0.005111259043763896
159	0xbf7b2b5f063eb56b	-0.006633158864059889
160	0xbf699c5f8ffb4940	-0.0031263224080727847
161	0xbf45890e54fa62c6	-0.0006572074871256876
162	0xbf06ea4e2f6ecd72	-4.370738127281838e-05
163	0xbea0c88af2721d4a	-5.001834083731172e-07
164	0xbc862a030a1647f0	-3.8448599994081e-17
165	0xbcf2e96ad0383ae2	-4.1992600713355994e-15
166	0xbb4febe0dced1d22	-5.280952622412322e-23
167	0xb8b279294780446e	-1.3897755825732012e-35
168	0x9c4f925cf6515a8a	-2.553000423905526e-172
169	0xadea4bc72ca3e11a	-1.6523463755947216e-87
170	0xa36026917cee4dd8	-2.712452898627194e-138
171	0x0000000000000000	0.0
172	0x0000000000000000	0.0
173	0x0000000000000000	0.0
174	0x0000000000000000	0.0
175	0x0000000000000000	0.0
176	0x0000000000000000	0.0
177	0x0000000000000000	0.0
178	0x0000000000000000	0.0
179	0x0000000000000000	0.0
180	0x0000000000000000	0.0
181	0x0000000000000000	0.0
182	0x0000000000000000	0.0
183	0x0000000000000000	0.0
184	0x0000000000000000	0.0
185	0x0000000000000000	0.0
186	0x0000000000000000	0.0
187	0x0000000000000000	0.0
188	0x0000000000000000	0.0
189	0x0000000000000000	0.0
190	0x0000000000000000	0.0
191	0x0000000000000000	0.0
192	0x0000000000000000	0.0
193	0x0000000000000000	0.0
194	0x0000000000000000	0.0
195	0x0000000000000000	0.0
196	0x0000000000000000	0.0
197	0x0000000000000000	0.0
198	0x0000000000000000	0.0
199	0x0000000000000000	0.0
200	0xbf58cc758ec1ae22	-0.0015135906242233006
201	0xbf58cc758ea91f02	-0.001513590623874295
202	0xbf58cc758e84e976	-0.0015135906233597319
203	0xbf58cc758e412200	-0.0015135906223965323
204	0xbf58cc758df96b59	-0.0015135906213774224
205	0xbf58cc758d5ff141	-0.001513590619196384
206	0xbf58cc758c1dfa77	-0.0015135906146210001
207	0xbf58cc758a9f4ec2	-0.001513590609182922
208	0xbf58cc75888a5ac6	-0.0015135906016092034
209	0xbf58cc7583c97c04	-0.0015135905843164385
210	0xbf58cc757ea56f1e	-0.0015135905656142377
211	0xbf58cc7572beef23	-0.00151359052232087
212	0xbf58cc7566389dae	-0.001513590476756348
213	0xbf58cc7546b0a480	-0.0015135903620467073
214	0xbf58cc7520db1e37	-0.001513590224407125
215	0xbf58cc74db0005ee	-0.001513589970273062
216	0xbf58cc74835e8bd4	-0.0015135896514741802
217	0xbf58cc73c33f6064	-0.0015135889525393015
218	0xbf58cc72cf51fdea	-0.0015135880651370123
219	0xbf58cc718223559b	-0.0015135868530270272
220	0xbf58cc6dd87b544e	-0.0015135834418533891
221	0xbf58cc6a2fa032d9	-0.0015135800335911913
222	0xbf58cc6305c2223b	-0.0015135733620203057
223	0xbf58cc5a5674f407	-0.001513565273696617
224	0xbf58cc4b5adf0589	-0.0015135513199172354
225	0xbf58cc2c38751681	-0.0015135223237207342
226	0xbf58cc0d18745f4a	-0.0015134933362954289
227	0xbf58cbc70c0700fe	-0.0015134280985052424
228	0xbf58cb4469296bae	-0.0015133064340690883
229	0xbf58cab26a72658d	-0.0015131704656482254
230	0xbf58c9a16df9836d	-0.0015129162274194155
231	0xbf58c7ce88dbbc93	-0.0015124813975793446
232	0xbf58c5340837fa2a	-0.0015118606687562022
233	0xbf58c0e0847fb4eb	-0.001510829215472238
234	0xbf58bc1cc533ca14	-0.0015096932373209792
235	0xbf58b16be1531b00	-0.0015071443097426918
236	0xbf58a25f2fc76482	-0.001503556209277585
237	0xbf5889d0a719773a	-0.0014977014183367846
238	0xbf586e9593524029	-0.001491209096716526
239	0xbf5847e6e6c5d1f0	-0.0014819865128546904
240	0xbf58362056208ca6	-0.0014777484689226044
241	0xbf58692f7b00c38a	-0.0014899219204489189
242	0xbf5948a3c4d68289	-0.00154319756561719
243	0xbf5c66e7c628ccd5	-0.001733518926482704
244	0xbf6276c88d545a89	-0.0022539059670053136
245	0xbf6a17592c897e4e	-0.0031849614791068853
246	0xbf75e3ded5705126	-0.005344267315212902
247	0xbf82418ac9135fe1	-0.008914074193327738
248	0xbf8b3cc5a5745ec8	-0.013299507247708134
249	0xbf96276d8c99c945	-0.021634780603968968
250	0xbf9bad4aac6531c6	-0.027028242847608096
251	0xbfa009e62e1116b3	-0.03132552444780625
252	0xbf9bc8d1e3c36202	-0.027133254553378457
253	0xbf9b1cd8825a5870	-0.02647722526179347
254	0xbf95dbae4902c971	-0.021345828253012514
255	0xbf91bf283880db4e	-0.017330769013109752
