Vowel 7_all_kernel.csv.npy (npy, 400080 bytes, 1 tensors)

array f8 [20, 5, 5, 100]
00000000: 4504 818e 75cc 58bf 2ce4 2e8e 75cc 58bf
00000010: bd8b e88d 75cc 58bf 2951 aa8d 75cc 58bf
00000020: 40b7 228c 75cc 58bf 1d42 6f8a 75cc 58bf
00000030: fef5 4d89 75cc 58bf ea4e 1684 75cc 58bf
00000040: cad1 a77e 75cc 58bf b6bd 7f74 75cc 58bf
00000050: 4e96 3061 75cc 58bf 1626 2c4a 75cc 58bf
00000060: 83fc e131 75cc 58bf d9a6 f1e6 74cc 58bf
00000070: fe1a a97a 74cc 58bf 5abe e133 74cc 58bf
00000080: 7cdf 1732 73cc 58bf 6db1 c1bc 70cc 58bf
00000090: f1ee 9cdb 6ecc 58bf 5b00 738f 6acc 58bf
000000a0: 21d2 bc42 63cc 58bf 2af4 75c0 59cc 58bf
000000b0: d462 e2c3 4bcc 58bf 16c1 3b2d 2fcc 58bf
000000c0: bc95 116f 00cc 58bf 3628 e03d bacb 58bf
000000d0: 60ba 78a2 44cb 58bf 3793 d16d f2ca 58bf
000000e0: b2de 7367 c9c9 58bf 0599 6d5e 4ec8 58bf
000000f0: e0bf f54a a6c5 58bf 4d21 05c8 2dc1 58bf
00000100: 8f96 d4e5 e7bc 58bf 566b 1fef 76b4 58bf
00000110: 7537 623f 8ca9 58bf 7245 1e56 c097 58bf
00000120: 6f54 8ec0 8e8f 58bf 11a6 e70d 659b 58bf
00000130: 8ac0 4c9d 62ea 58bf 4bbc eedd 0738 5abf
00000140: 43d7 3c26 5701 5ebf 7aa2 be62 a886 62bf
00000150: 8f2a 14b6 2ad1 68bf f35e 0fe7 a43e 73bf
00000160: 5572 9a25 dc3e 7dbf 6a14 7bf9 1167 83bf
00000170: 3551 00a1 a5bb 89bf 73ba cbaf 2934 93bf
00000180: 838c 6f25 6e93 93bf 74f6 b9b1 d719 96bf
00000190: 36f6 1a14 06fb 97bf f6fb 5591 2656 9abf
000001a0: 228d 0344 5d62 98bf 767c b894 9d19 97bf
000001b0: 86a0 1657 90ab 95bf ed48 78dd a758 8dbf
000001c0: 117f b662 a8fb 84bf f606 8b34 96ba 6ebf
000001d0: b313 083b 192e 82bf a8aa d588 c77b 2bbf
000001e0: 0822 6584 fe67 dbbe 173c 4a4a a2b4 c5bd
000001f0: 9277 0faf cb71 89bd c627 ce68 21a0 39be
00000200: 66ab f4fc 9b47 31ba 8876 bd60 c5af cfb4
00000210: d89c bcc7 74fd b3b1 2340 0411 e425 21b6
00000220: b4c1 bc1a c18a 72b0 0000 0000 0000 0000
00000230: 0a82 b8ac 93b4 0099 f947 4774 3cbd 1182
00000240: 0000 0000 0000 0000 0000 0000 0000 0000
00000250: 0000 0000 0000 0000 0000 0000 0000 0000
00000260: 0000 0000 0000 0000 0000 0000 0000 0000
00000270: 0000 0000 0000 0000 0000 0000 0000 0000
00000280: 0000 0000 0000 0000 0000 0000 0000 0000
00000290: 0000 0000 0000 0000 0000 0000 0000 0000
000002a0: 0000 0000 0000 0000 0000 0000 0000 0000
000002b0: 0000 0000 0000 0000 0000 0000 0000 0000
000002c0: 0000 0000 0000 0000 0000 0000 0000 0000
000002d0: 0000 0000 0000 0000 0000 0000 0000 0000
000002e0: 0000 0000 0000 0000 0000 0000 0000 0000
000002f0: 0000 0000 0000 0000 0000 0000 0000 0000
00000300: 0000 0000 0000 0000 0000 0000 0000 0000
00000310: 0000 0000 0000 0000 0000 0000 0000 0000
00000320: b3ab 7d8e 75cc 58bf d1fe 488e 75cc 58bf
00000330: 41cd f88d 75cc 58bf b8b1 498d 75cc 58bf
00000340: 21be 998c 75cc 58bf 903e be8a 75cc 58bf
00000350: c2d1 1688 75cc 58bf 4436 3c83 75cc 58bf
00000360: 6ea1 c07d 75cc 58bf b12b 9074 75cc 58bf
00000370: aa54 8c6c 75cc 58bf bc07 de47 75cc 58bf
00000380: 7f33 c627 75cc 58bf 8f3b bfef 74cc 58bf
00000390: a4de c391 74cc 58bf c0ed e2d2 73cc 58bf
000003a0: 9f1a 21a1 72cc 58bf 3d2d 19a9 71cc 58bf
000003b0: b2d2 6d05 6ecc 58bf d383 1212 6bcc 58bf
000003c0: 06e4 43d9 64cc 58bf 82d6 e0e7 5bcc 58bf
000003d0: f148 a342 4bcc 58bf 1e93 4bf1 27cc 58bf
000003e0: a2d8 97b7 08cc 58bf b089 cb85 b9cb 58bf
000003f0: f662 efba 6ccb 58bf 95da 9bab acca 58bf
00000400: 75ac 9c59 a0c9 58bf 955f ca7b e5c7 58bf
00000410: 4aa9 241c 5ac5 58bf efda 13ef 64c2 58bf
00000420: cf37 3372 a3bd 58bf dbd0 525d 03b5 58bf
00000430: 06f2 bf29 baa8 58bf 4762 3967 9f9a 58bf
00000440: d620 5058 3290 58bf 32e0 daec 5193 58bf
00000450: a1c5 12d3 8807 59bf 533e ea7a cdbf 59bf
00000460: 75e0 9a25 a97c 5cbf 8095 6ed6 7077 61bf
00000470: 9894 10bf e839 69bf 6811 c1f5 608c 6fbf
00000480: 4259 1581 51e0 7abf c1bd 54e9 1d82 86bf
00000490: 2270 2617 e240 8bbf 517a 2488 0f6c 91bf
000004a0: abf5 d8b0 39d8 97bf 26bb 657e 5e23 9abf
000004b0: de76 397d df3b 9cbf 6a33 e180 5def 98bf
000004c0: 35b6 e8e2 34dd 9bbf 55f4 d81c 6bd7 96bf
000004d0: 7f4d 4135 8e46 95bf 248c 43e3 be3d 92bf
000004e0: da52 2063 6642 7bbf 1157 9ae4 c81d 89bf
000004f0: f239 12bf ae20 83bf 808a ccaa d16b 72bf
00000500: b277 2cab 291d 54bf 00ff 9026 246c 20bf
00000510: c205 caa1 5c13 04bd 9b19 2a87 21a0 39be
00000520: e6fb 26ef e147 57bd bcd7 f2ec 234f f0bb
00000530: c733 bfc7 74fd b3b1 7601 bd4d a8fb f39c
00000540: 808c 4cf2 8b80 309c c62a aa0d a512 2487
00000550: fc81 b8ac 93b4 0099 0748 4774 3cbd 1182
00000560: 0000 0000 0000 0000 0000 0000 0000 0000
00000570: 0000 0000 0000 0000 0000 0000 0000 0000
00000580: 0000 0000 0000 0000 0000 0000 0000 0000
00000590: 0000 0000 0000 0000 0000 0000 0000 0000
000005a0: 0000 0000 0000 0000 0000 0000 0000 0000
000005b0: 0000 0000 0000 0000 0000 0000 0000 0000
000005c0: 0000 0000 0000 0000 0000 0000 0000 0000
000005d0: 0000 0000 0000 0000 0000 0000 0000 0000
000005e0: 0000 0000 0000 0000 0000 0000 0000 0000
000005f0: 0000 0000 0000 0000 0000 0000 0000 0000
00000600: 0000 0000 0000 0000 0000 0000 0000 0000
00000610: 0000 0000 0000 0000 0000 0000 0000 0000
00000620: 0000 0000 0000 0000 0000 0000 0000 0000
00000630: 0000 0000 0000 0000 0000 0000 0000 0000
00000640: 3595 788e 75cc 58bf 102f 3b8e 75cc 58bf
00000650: 4aeb f98d 75cc 58bf 07dc 848d 75cc 58bf
00000660: 0708 ae8c 75cc 58bf 0fa7 d58a 75cc 58bf
00000670: fa45 4788 75cc 58bf e6c4 f383 75cc 58bf
00000680: 3c57 6e80 75cc 58bf 5668 9676 75cc 58bf
00000690: df86 9565 75cc 58bf 3b9d b247 75cc 58bf
000006a0: 473d ca29 75cc 58bf 0611 a2e0 74cc 58bf
000006b0: 627d b784 74cc 58bf cafd eeee 73cc 58bf
000006c0: bc4b 47bf 72cc 58bf 466c 26da 71cc 58bf
000006d0: 1e58 68b3 6dcc 58bf a6b1 1b80 6acc 58bf
000006e0: 6161 9cb8 66cc 58bf d20d 9e6a 5bcc 58bf
000006f0: b75e 7d49 45cc 58bf 9641 a93f 3dcc 58bf
00000700: 1305 fd98 05cc 58bf 0a6e 1ab5 dfcb 58bf
00000710: daaa d8b6 65cb 58bf 2063 b320 ffca 58bf
00000720: 23c8 843c cfc9 58bf be84 5193 b1c8 58bf
00000730: 365b c4b8 3ac5 58bf 4835 3ba1 16c1 58bf
00000740: 7286 10e4 4fbc 58bf 240e ca95 5db6 58bf
00000750: 1c6f 027a d1a5 58bf a487 315c 2f99 58bf
00000760: bcc1 fb92 ef8e 58bf e804 442b ab9a 58bf
00000770: 52bd bbc3 70f8 58bf 60e1 34e0 5ef9 59bf
00000780: 0a4c 4be2 2fef 5dbf 4a76 d07e 8627 61bf
00000790: 3a57 bb02 99fd 69bf d7d6 08c7 45ec 72bf
000007a0: 5d3a f495 d532 7cbf 0ca2 5f2e c398 84bf
000007b0: 26c2 6af4 66fd 89bf 3c7a 0019 e46d 92bf
000007c0: 8d1d cae5 0ff8 94bf c28b 1f04 1f56 97bf
000007d0: 721e cb07 eb9f 9cbf c854 5626 48c9 99bf
000007e0: dced aab6 9021 98bf 6ee7 e126 f79e 93bf
000007f0: ed7d 9c29 254b 8cbf 669e 393c 4ac9 87bf
-0.0015135906233043766 -0.0015135906221373048 -0.0015135906211376359 -0.0015135906202533112 -0.0015135906146883232 -0.001513590608500099 -0.0015135906043889365 -0.0015135905854081707
-0.0015135905656481368 -0.0015135905286988 -0.0015135904584523577 -0.0015135903747157723 -0.0015135902863503698 -0.0015135900137245777 -0.0015135896197919214 -0.0015135893623003023
-0.0015135884244709954 -0.0015135861349576355 -0.0015135843845674425 -0.0015135803821948654 -0.0015135735838615121 -0.0015135647280140143 -0.0015135517019528215 -0.0015135250768559308
-0.0015134815442022628 -0.0015134161726586665 -0.0015133066425609062 -0.0015132300825595032 -0.0015129534565953393 -0.0015126004525086178 -0.0015119670823331363 -0.0015109011729511235
-0.0015098824145040356 -0.0015078698602255156 -0.0015052671056170173 -0.0015010240826750201 -0.0014990705551316782 -0.0015018927439264288 -0.0015207255393754637 -0.001600272829573662
-0.0018313742702508885 -0.002261475447046299 -0.0030294260219581657 -0.004698413992592287 -0.007140026043682986 -0.009473934579896166 -0.012564939475887197 -0.018753672938084564
-0.01911708930482493 -0.021582956526336308 -0.02341851709092265 -0.025719263668630497 -0.023812730098950692 -0.022558653070629174 -0.021162276568845083 -0.014329253622268523
-0.010245624077299039 -0.0037510808654993523 -0.008876988519668538 -0.00020968256687166798 -6.534153788991411e-06 -3.9482258856616604e-11 -2.8927063588746172e-12 -5.966403937647446e-09
-2.1810077870391947e-28 -2.5845593553652754e-54 -2.896377550019077e-69 -5.866572718827661e-48 -2.5621106467066174e-75 0.0 -2.999501161893879e-188 -1.0595426202859203e-298
0.0 0.0 0.0 0.0 0.0 0.0 0.0 0.0
0.0 0.0 0.0 0.0 0.0 0.0 0.0 0.0
0.0 0.0 0.0 0.0 0.0 0.0 0.0 0.0
0.0 0.0 0.0 0.0 -0.0015135906232568274 -0.001513590622508266 -0.0015135906213686464 -0.0015135906188802183
-0.0015135906163797968 -0.0015135906096225595 -0.0015135905999673492 -0.0015135905823088361 -0.001513590562362745 -0.0015135905289322788 -0.0015135904997738794 -0.0015135903663296832
-0.00151359024957573 -0.0015135900457498885 -0.0015135897038457769 -0.0015135890094332 -0.0015135878970952488 -0.0015135869947638513 -0.0015135836053704996 -0.0015135808573989342
-0.0015135750628003665 -0.0015135667340592522 -0.0015135512317568346 -0.001513518339544002 -0.001513489258625302 -0.001513415502977549 -0.0015133439844616215 -0.0015131651147705417
-0.001512915222017933 -0.0015125027704580897 -0.001511896131499118 -0.001511190956362259 -0.0015100570824872932 -0.0015080006462940196 -0.0015050714491727803 -0.0015017086669982958
-0.001499222912800182 -0.0014999675799298837 -0.001527675264054153 -0.0015716082231484088 -0.0017387058091298511 -0.002132149110780801 -0.0030793710543713486 -0.0038511174916797015
-0.006561582923799771 -0.010990365679929394 -0.013307348567472902 -0.017013781246641383 -0.02328577176944228 -0.025525547470745334 -0.027572147386641592 -0.02435060595626074
-0.027211023663929097 -0.022306131015501347 -0.020776960373337424 -0.01781366598232749 -0.006655120801970249 -0.01226384112969073 -0.009339680868177578 -0.004497355472980247
-0.0012276560707458026 -0.000125293171807421 -8.915371641817143e-15 -5.9664043589654104e-09 -3.308399418546888e-13 -5.525752222752178e-20 -2.896377550106437e-69 -3.309359403113195e-169
-6.672101494818108e-173 -2.898828932430231e-274 -2.99950116189387e-188 -1.0595426202859233e-298 0.0 0.0 0.0 0.0
0.0 0.0 0.0 0.0 0.0 0.0 0.0 0.0
0.0 0.0 0.0 0.0 0.0 0.0 0.0 0.0
0.0 0.0 0.0 0.0 0.0 0.0 0.0 0.0
-0.0015135906231845246 -0.0015135906223119923 -0.0015135906213845246 -0.0015135906197210074 -0.001513590616668116 -0.0015135906099552098 -0.0015135906006559217 -0.0015135905849173402
-0.0015135905721072726 -0.001513590536296868 -0.0015135904744387125 -0.0015135903657127042 -0.001513590256909074 -0.0015135899907657304 -0.0015135896563761232 -0.0015135891114680272
-0.0015135880067773519 -0.001513587173213053 -0.0015135833069783787 -0.0015135803263844698 -0.001513576806649729 -0.0015135662783628445 -0.0015135456687484347 -0.0015135381824117103
-0.0015134863533179984 -0.0015134510653415111 -0.001513337450328825 -0.00151324190919961 -0.0015129588883380305 -0.001512692845857352 -0.0015118668989708268 -0.0015108796114192292
-0.0015097408470484933 -0.0015083230893261435 -0.0015043779058378564 -0.0015013659001614577 -0.0014989223090503398 -0.001501719624741599 -0.001524076577819351 -0.001585333492427031
-0.0018270461670695259 -0.0020940424788154265 -0.003172682618109682 -0.004619858330036051 -0.006884416884772007 -0.010056996205052314 -0.012690357526794104 -0.01799732592200541
-0.020477531814802986 -0.022789463640844117 -0.027953789091752453 -0.025181891765517134 -0.02356554140963661 -0.019161092518039373 -0.013815203029991141 -0.011614398920939805
