Waveform 2_all_kernel.csv.npy (npy, 10080 bytes, 1 tensors)

array f8 [5, 5, 50]
00000000: e330 0efa 347c 73bf 6b41 8cf6 347c 73bf
00000010: 46ee daed 347c 73bf 612b ccd6 347c 73bf
00000020: a45f 569e 347c 73bf 692f 1910 347c 73bf
00000030: 90a0 ada1 327c 73bf 43ef 40bd 2e7c 73bf
00000040: 82ec 9e86 257c 73bf bc0f d402 0d7c 73bf
00000050: 2490 93de cf7b 73bf 5012 25c0 337b 73bf
00000060: cde3 4bcd a479 73bf 9d23 b0e4 1076 73bf
00000070: 5631 7b3a 8d6e 73bf 905d 1c88 1a67 73bf
00000080: 7885 a01e fb9a 73bf 7db0 f6cf 88f1 75bf
00000090: 0bdc 04f3 6845 82bf f363 c377 6fa6 99bf
000000a0: 05ed f729 cb40 afbf a9c5 9594 7515 b7bf
000000b0: 6a19 25f0 98ec a6bf 14a0 30e7 341f 69bf
000000c0: 877e 1219 3f2d aebe 5114 b819 bd76 debc
000000d0: 2320 ee18 b7b1 89b8 509c 2f8f c2d0 56ad
000000e0: 48e1 6bf4 05f9 be8b 0000 0000 0000 0080
000000f0: 0000 0000 0000 0080 0000 0000 0000 0080
00000100: 0000 0000 0000 0080 0000 0000 0000 0080
00000110: 0000 0000 0000 0080 0000 0000 0000 0080
00000120: 0000 0000 0000 0080 0000 0000 0000 0080
00000130: 0000 0000 0000 0080 0000 0000 0000 0080
00000140: 0000 0000 0000 0080 0000 0000 0000 0080
00000150: 0000 0000 0000 0080 0000 0000 0000 0080
00000160: 0000 0000 0000 0080 0000 0000 0000 0080
00000170: 0000 0000 0000 0080 0000 0000 0000 0080
00000180: 0000 0000 0000 0080 0000 0000 0000 0080
00000190: af8c 06fa 347c 73bf dc7f acf6 347c 73bf
000001a0: 46a3 b2ed 347c 73bf bb34 05d8 347c 73bf
000001b0: 1d4b 98a2 347c 73bf a311 9008 347c 73bf
000001c0: 9d27 1689 327c 73bf e3b0 17d6 2e7c 73bf
000001d0: f53b 295c 257c 73bf 3a5b 2c66 0c7c 73bf
000001e0: 3029 5926 cd7b 73bf d06a a673 317b 73bf
000001f0: afe0 6d96 ae79 73bf 6d3d c867 eb75 73bf
00000200: 62b1 0a87 6b6e 73bf 34b7 38ad 3166 73bf
00000210: be76 76b3 f599 73bf b449 cd5b 1de1 75bf
00000220: ccc9 ca75 5dfe 81bf 93b9 ac10 a447 98bf
00000230: 9f1e 4527 2e01 b0bf e6a2 9af8 e0c4 b6bf
00000240: c49e c5ab d2f2 a7bf 1b6a 93f3 b2a2 69bf
00000250: dd66 929b af5b a1be 0a25 65dc 4b39 e1bc
00000260: 5c3c 10dd 45b1 89b8 965c 121b 85ae 5bad
00000270: 94fc b390 9892 b688 0000 0000 0000 0080
00000280: 0000 0000 0000 0080 0000 0000 0000 0080
00000290: 0000 0000 0000 0080 0000 0000 0000 0080
000002a0: 0000 0000 0000 0080 0000 0000 0000 0080
000002b0: 0000 0000 0000 0080 0000 0000 0000 0080
000002c0: 0000 0000 0000 0080 0000 0000 0000 0080
000002d0: 0000 0000 0000 0080 0000 0000 0000 0080
000002e0: 0000 0000 0000 0080 0000 0000 0000 0080
000002f0: 0000 0000 0000 0080 0000 0000 0000 0080
00000300: 0000 0000 0000 0080 0000 0000 0000 0080
00000310: 0000 0000 0000 0080 0000 0000 0000 0080
00000320: 13dc 0efa 347c 73bf 7456 8af6 347c 73bf
00000330: 5b74 2cee 347c 73bf f220 1dd8 347c 73bf
00000340: 5174 119f 347c 73bf abe3 450b 347c 73bf
00000350: 0d11 a79c 327c 73bf 9447 aacc 2e7c 73bf
00000360: 206e 0979 257c 73bf 1b5f 8002 0c7c 73bf
00000370: f0a8 59be d17b 73bf 8177 2adc 267b 73bf
00000380: a853 0e86 a879 73bf a23b 1533 e975 73bf
00000390: e4bd 7492 896e 73bf 690c e5e9 2168 73bf
000003a0: bc87 5840 979c 73bf 75f8 d758 6bb6 75bf
000003b0: 529b d55b e150 82bf 0e8d ebc3 f096 9abf
000003c0: 3291 e132 a6f0 adbf 7b99 55c9 0f4f b6bf
000003d0: 6d55 eb94 8f8e a8bf ff24 93f1 4905 6dbf
000003e0: f3db 875f 4acd afbe 2ad1 63e5 5209 a6bc
000003f0: 41f9 bf43 d1bd c4b7 8af3 582f 86f4 58ac
00000400: 2d46 e64b b73f 6c90 0000 0000 0000 0080
00000410: 0000 0000 0000 0080 0000 0000 0000 0080
00000420: 0000 0000 0000 0080 0000 0000 0000 0080
00000430: 0000 0000 0000 0080 0000 0000 0000 0080
00000440: 0000 0000 0000 0080 0000 0000 0000 0080
00000450: 0000 0000 0000 0080 0000 0000 0000 0080
00000460: 0000 0000 0000 0080 0000 0000 0000 0080
00000470: 0000 0000 0000 0080 0000 0000 0000 0080
00000480: 0000 0000 0000 0080 0000 0000 0000 0080
00000490: 0000 0000 0000 0080 0000 0000 0000 0080
000004a0: 0000 0000 0000 0080 0000 0000 0000 0080
000004b0: be14 10fa 347c 73bf 6fcd 95f6 347c 73bf
000004c0: 7418 cfed 347c 73bf 5be3 fad7 347c 73bf
000004d0: 6fb3 709c 347c 73bf 9a5e 410d 347c 73bf
000004e0: 5055 fcaf 327c 73bf ab1a deda 2e7c 73bf
000004f0: 1cdb aa17 257c 73bf 3795 1fd0 0d7c 73bf
00000500: d3b6 52d9 ce7b 73bf be12 9dd4 287b 73bf
00000510: 8041 ad49 9179 73bf 8ba4 e1e7 e875 73bf
00000520: 7413 1a55 516e 73bf 8b8c c65b e966 73bf
00000530: 842b ff5d ba9a 73bf 7192 b949 54ee 75bf
00000540: 2cfc cf1d 4709 82bf f90b 89db 6507 99bf
00000550: 7b4b 4048 0d33 b0bf 9258 4a9a 7740 b6bf
00000560: 46cf ab77 6156 a8bf bda7 68b0 bf34 6bbf
00000570: 69a7 05ae 77ad 92be 5cf7 2728 17b3 8ebc
00000580: 2983 12f2 1ab2 89b8 5e36 9c8e c2d0 56ad
00000590: 4596 c8df e6e6 3d8e 0000 0000 0000 0080
000005a0: 0000 0000 0000 0080 0000 0000 0000 0080
000005b0: 0000 0000 0000 0080 0000 0000 0000 0080
000005c0: 0000 0000 0000 0080 0000 0000 0000 0080
000005d0: 0000 0000 0000 0080 0000 0000 0000 0080
000005e0: 0000 0000 0000 0080 0000 0000 0000 0080
000005f0: 0000 0000 0000 0080 0000 0000 0000 0080
00000600: 0000 0000 0000 0080 0000 0000 0000 0080
00000610: 0000 0000 0000 0080 0000 0000 0000 0080
00000620: 0000 0000 0000 0080 0000 0000 0000 0080
00000630: 0000 0000 0000 0080 0000 0000 0000 0080
00000640: 95f7 08fa 347c 73bf 4213 80f6 347c 73bf
00000650: b75b b4ed 347c 73bf 5405 a0d7 347c 73bf
00000660: ea7c 9f9d 347c 73bf a629 e10c 347c 73bf
00000670: 509a 6c99 327c 73bf 7b4c 74ee 2e7c 73bf
00000680: 0e69 d67e 257c 73bf 7af0 1262 0b7c 73bf
00000690: 4ec6 69f4 ce7b 73bf d9f5 6be4 2d7b 73bf
000006a0: 2945 8756 9779 73bf baa4 4262 0b76 73bf
000006b0: aa5a 3937 806e 73bf 038c 60ea 9767 73bf
000006c0: ab6c 2901 db92 73bf 034b d8d3 05e0 75bf
000006d0: 3500 c83b a27b 82bf b2e3 4d36 7619 9abf
000006e0: f5e6 386b 5818 b0bf 8047 92ad 7754 b6bf
000006f0: 3102 c6cd 3023 a8bf ed13 a188 6ecb 6ebf
00000700: 8ef6 878a ff5a a0be 770c 8bbc dce6 b5bc
00000710: 72e2 0261 e384 1eb8 499c 2bc7 0478 33ad
00000720: 8923 cadf e6e6 3d8e 0000 0000 0000 0080
00000730: 0000 0000 0000 0080 0000 0000 0000 0080
00000740: 0000 0000 0000 0080 0000 0000 0000 0080
00000750: 0000 0000 0000 0080 0000 0000 0000 0080
00000760: 0000 0000 0000 0080 0000 0000 0000 0080
00000770: 0000 0000 0000 0080 0000 0000 0000 0080
00000780: 0000 0000 0000 0080 0000 0000 0000 0080
00000790: 0000 0000 0000 0080 0000 0000 0000 0080
000007a0: 0000 0000 0000 0080 0000 0000 0000 0080
000007b0: 0000 0000 0000 0080 0000 0000 0000 0080
000007c0: 0000 0000 0000 0080 0000 0000 0000 0080
000007d0: 297b 0efa 347c 73bf 19aa eff6 347c 73bf
000007e0: be6a c8ed 347c 73bf 6676 d5d7 347c 73bf
000007f0: 3c34 759e 347c 73bf d503 e208 347c 73bf
-0.004757124844115365 -0.0047571247930736455 -0.004757124666578577 -0.004757124331045443 -0.004757123509442272 -0.004757121439592151 -0.004757116107477213 -0.004757101607591188
-0.004757067284965834 -0.004756975960166384 -0.004756748189922919 -0.004756166601798187 -0.004754680402350564 -0.004751268376829734 -0.004744102166750549 -0.004736999167810466
-0.004786473213273516 -0.005357298301003619 -0.00892145148882941 -0.025048963246124555 -0.061041211007216524 -0.09017119290890342 -0.044773845018925965 -0.00306663830408028
-8.993370547334279e-07 -1.691081882532655e-15 -2.4162709647847394e-36 -2.800081712435252e-90 -4.2245783481444903e-252 -0.0 -0.0 -0.0
-0.0 -0.0 -0.0 -0.0 -0.0 -0.0 -0.0 -0.0
-0.0 -0.0 -0.0 -0.0 -0.0 -0.0 -0.0 -0.0
-0.0 -0.0 -0.004757124843681001 -0.0047571247949065 -0.004757124664288187 -0.00475712434883951 -0.00475712357139704 -0.004757121329934585
-0.0047571157496210355 -0.0047571019690446385 -0.004757066667095512 -0.004756973680534677 -0.004756738058470142 -0.004756158038072569 -0.004754716856830195 -0.004751128723469261
-0.004743976620983 -0.004736131715203307 -0.004785499353059995 -0.005341639215503614 -0.00878594413493241 -0.023710788266890836 -0.06251800974598119 -0.08894163197932023
-0.0467744669611512 -0.003129338755212941 -5.173131320146532e-07 -1.9122274647899307e-15 -2.4161084821720577e-36 -3.3973035889082987e-90 -1.0938208929726228e-266 -0.0
-0.0 -0.0 -0.0 -0.0 -0.0 -0.0 -0.0 -0.0
-0.0 -0.0 -0.0 -0.0 -0.0 -0.0 -0.0 -0.0
-0.0 -0.0 -0.0 -0.0 -0.004757124844153376 -0.0047571247929646295 -0.004757124671212666 -0.004757124350199359
-0.004757123520076582 -0.004757121369373711 -0.004757116034344711 -0.004757101831858086 -0.004757067087293204 -0.004756972230118862 -0.004756755171550817 -0.004756118580784619
-0.004754694266826322 -0.0047511205060137025 -0.004744088545791201 -0.004737980342102246 -0.004788008523549377 -0.005300921749492917 -0.008943329443992152 -0.025966417272582247
-0.05847663279635852 -0.08714388528242083 -0.047962653092023945 -0.003542560979074793 -9.477709559936541e-07 -1.529083883359209e-16 -4.762008975719114e-40 -4.6732816407949954e-95
-1.4556424571129628e-229 -0.0 -0.0 -0.0 -0.0 -0.0 -0.0 -0.0
-0.0 -0.0 -0.0 -0.0 -0.0 -0.0 -0.0 -0.0
-0.0 -0.0 -0.0 -0.0 -0.0 -0.0 -0.0047571248442228025 -0.004757124793616326
-0.0047571246659058215 -0.004757124348253007 -0.004757123481834976 -0.004757121398220621 -0.004757116315677948 -0.0047571020385307845 -0.004757065670381502 -0.004756978947601901
-0.004756744388186812 -0.004756125921464514 -0.0047546077065167 -0.004751119411687497 -0.004743879036713906 -0.004736815983423469 -0.004786231991554927 -0.005354241609528119
-0.00880675849657394 -0.02444228317677852 -0.06327898992485174 -0.08692119137626467 -0.04753403268651239 -0.003321051018493086 -2.783180388573265e-07 -5.325526841674851e-17
-2.4164142399416255e-36 -2.8000817082233943e-90 -4.4843874681159884e-240 -0.0 -0.0 -0.0 -0.0 -0.0
-0.0 -0.0 -0.0 -0.0 -0.0 -0.0 -0.0 -0.0
-0.0 -0.0 -0.0 -0.0 -0.0 -0.0 -0.0 -0.0
-0.004757124843818424 -0.004757124792381275 -0.004757124664385984 -0.004757124343087799 -0.004757123499046426 -0.004757121392751895 -0.0047571159873656815 -0.004757102323554747
-0.004757067171704555 -0.0047569698955919285 -0.004756744782399359 -0.004756144777954907 -0.004754630245274152 -0.004751247852405155 -0.0047440536905784345 -0.004737466259061132
-0.0047787241806773 -0.00534059788107544 -0.009024875115756096 -0.025487753929585195 -0.06287148111087133 -0.08722637164671987 -0.0471434832752532 -0.0037591132031899927
-4.874307438227026e-07 -3.039486117190316e-16 -2.242188950576021e-38 -5.973391956749857e-91 -4.484387468170174e-240 -0.0 -0.0 -0.0
-0.0 -0.0 -0.0 -0.0 -0.0 -0.0 -0.0 -0.0
-0.0 -0.0 -0.0 -0.0 -0.0 -0.0 -0.0 -0.0
-0.0 -0.0 -0.004757124844131857 -0.004757124798724388 -0.0047571246655261894 -0.004757124346125607 -0.0047571235111947795 -0.00475712133459268
